checkpoint_actor1_solved.pth (torch_old, 592767 bytes, 14 tensors)

fc1.weight f4 [512, 24]
00000000: d3b9 9b3b e82c 223d 5c5b 35bb 3dec 203c
00000010: 2f62 3f3c b3af 4cbe 6a6f 223b a589 32bd
00000020: a991 03bd 70c4 833d f6c7 f2bc 6b86 883d
00000030: f10e 103d 9d62 d9bd 4435 5aba 8ddc ae3d
00000040: 632f 38bc 3158 543c d2c6 bb3c 353f 35bd
00000050: 156e 9dbc 5e65 ce3d 9678 cbbc df29 adbc
00000060: 8e0d 7fbd 50c1 4abd 0bb9 c23b 9207 0abc
00000070: d9a9 9c3d 2ab1 63bd c57d ae3a 373d eabc
00000080: 9bf0 5bbd 7751 213d 15aa 05bd e0f3 e13b
00000090: cbcd ad3d c860 2b3b 90eb 033d 79b4 413d
000000a0: 5eaa b2bd 2247 97bc d4de 07bc 7b70 983d
000000b0: 76d0 cd3c 96a2 093e 1c02 89ba b038 633d
000000c0: 516a aebd c7dc ef3d 570b cc3b 43cc 8a3d
000000d0: 3ecf efbc 9dd8 74bd 4d74 353c 6904 62bc
000000e0: 993d 68bd d865 923d 111b a6bc ae17 a9bd
000000f0: bcf1 1b3d da7f aabc 9d9c 953c d05b b9bd
00000100: 8419 073d 6234 d03d 7da3 6ebc 934f 303d
00000110: 41b2 643d 3b0b 113e e593 a2bc dd5f 183d
00000120: 4ef8 433d d411 b5bd 2367 43bc 2ca1 813c
00000130: c3be 623d 3149 f7bd 0610 983c 18e8 ea3c
00000140: 0d73 1eb9 9346 e8bd 941b e5bc 005d 92b8
00000150: dd70 4e3d bd10 51bd 2dde 4a3c 6cbb 883c
00000160: df2d dd3c 5211 39bd fd96 c93c c16e 55bc
00000170: f179 033e f5f5 a43c 9b89 a9bc 19be 1f3c
00000180: b0ab fb38 56ce abbd bb5b 133d b6b1 7d3c
00000190: d09e 4c3c 40d8 2d3d 5a49 ebbc 1f71 c2bc
000001a0: d7a8 46bc fd8f 95bd 28b4 a4ba ab33 8fbd
000001b0: 4064 a3bd a550 b13d 0597 5ebb 34f7 4bbd
000001c0: e6ff 903d fbd2 8ebd 3e98 603c 36ff 20bb
000001d0: f1ad 16be 66b9 0e3d 1735 b8ba 4923 03bd
000001e0: a1e6 353c 760b 153c 1b41 833d ed17 c63c
000001f0: 8f55 90bd 85d7 ec3d 186a 803d 2ae2 20bd
00000200: 8656 82bd a7e9 33bd fd15 29bd 68bb 0d3d
00000210: 90a6 153c 9da2 793d 23a9 60bd 9b4e efbb
00000220: ddce acbd f91b c1ba 73b6 7bbc 473e 12bd
00000230: d495 fbbc 66c7 3fbd e4f7 ffbc 5a11 01bd
00000240: e518 a43b 6deb 4cba dffc 13bd ea9d 07bc
00000250: ec8f 8b3a d46c 123e f96f 8e3c 6e9c 9d3c
00000260: 22e0 0bbd 0d5f 333d fd3e 86bb 9f4b d43d
00000270: e4b1 263c c80c 163e d4a8 46bc 49fb 7b3d
00000280: 32d5 29bc b750 463b 7124 cf3c 4e66 153c
00000290: 5a5f 0bbd 7d90 0c3e a964 8d3c b5fb 853d
000002a0: 97a8 963c 70a1 cdbc 499d cb3b 638c 783c
000002b0: 1298 e33d 283d 6c3c 0c73 1abc 7743 c23c
000002c0: 3d14 933c 83bc b3bc dd5e 78bc 8d3c ab3a
000002d0: 3c2f a73d df19 983d 8100 3ebc 447a 2a3b
000002e0: 97c6 263d d666 89bd 3815 533d fc5e 8e3d
000002f0: a4bd 9d3d a1bf 763c 8534 c73c 36f1 893c
00000300: 6e7a 85bd 01ea f2bd 3184 32bc 5e5a 223d
00000310: 68ce 903c 98a4 b1bd e215 83bb a093 29bb
00000320: 2f8a d1bc 847f d3bd f0f7 633c ae23 07bd
00000330: 9622 0b3d a0b2 b1bd da74 d1bb 22dc 0c3d
00000340: 7d57 383d 803a b3bc 309c 793a 5eed e73c
00000350: 8467 eb3d 75a3 9b3d 3dd7 85bc 85ba 42bc
00000360: 8457 a5bd 88fd 77bd d15d 69bb c8ba a1bc
00000370: c8ed 90bc 9db3 833c 6778 debc 81e3 0ebd
00000380: e3b4 b3bd 9582 77bc b788 ad3c 3e24 f83b
00000390: 985f 743d faf5 3f3d 194c d7bc 2648 88bd
000003a0: a1d3 15be 08a1 7ebc 27dd 5cbd 6044 3c3c
000003b0: 5a15 9bbb aeb8 043d 1109 4fbc cc21 b33d
000003c0: 5a27 9a3c 71ff f6bc f128 50bc 9ad6 473d
000003d0: d6e0 11bd 89e1 8f3c 180f a0bc c2af 73bc
000003e0: 2fa1 503d 3ae5 fbbb eb01 21bc 2776 0ebd
000003f0: 278b 3bbc 2472 8439 d549 e93a ce0e a2bc
0.0047523766 0.039593607 -0.0027672863 0.009821949 0.011681124 -0.19988899 0.0024785646 -0.0435883
-0.032121334 0.06433952 -0.029636364 0.06666263 0.0351705 -0.10614512 -0.0008323977 0.085381605
-0.011241767 0.01296048 0.022921953 -0.044249732 -0.01921753 0.10077928 -0.024837773 -0.02113813
-0.062268786 -0.049500763 0.005942469 -0.008424656 0.07649583 -0.05558888 0.0013312629 -0.028593643
-0.053696256 0.03938433 -0.032632906 0.0068955272 0.084865175 0.0026150215 0.03220707 0.047291253
-0.08723901 -0.018466536 -0.008292872 0.07443329 0.025123816 0.13440928 -0.0010452899 0.055473983
-0.08516372 0.11712032 0.0062269378 0.06777241 -0.029273625 -0.05977689 0.011075092 -0.013794997
-0.05669937 0.071483314 -0.020276578 -0.0825647 0.038072333 -0.020812918 0.018263156 -0.09050715
0.032983318 0.10166241 -0.014565346 0.043044638 0.05583406 0.1416444 -0.019845912 0.037200797
0.047844224 -0.08841291 -0.011926445 0.015823923 0.055357706 -0.12074507 0.018562328 0.028675124
-0.00015110914 -0.11341586 -0.027967252 -6.979145e-05 0.050400604 -0.051041353 0.012382072 0.016690932
0.026999412 -0.045182534 0.02460813 -0.013026894 0.12839486 0.020136813 -0.020695498 0.009749913
0.00012000592 -0.08388965 0.035976153 0.015484264 0.012489036 0.04244256 -0.0287215 -0.023735581
-0.0121252155 -0.07302854 -0.0012565898 -0.06992277 -0.079781055 0.0865796 -0.0033964526 -0.0497963
0.07080059 -0.06973835 0.013708172 -0.002456618 -0.14714791 0.03484478 -0.0014053908 -0.032016072
0.0111023495 0.009096971 0.06408902 0.02418133 -0.07047569 0.115645446 0.06270236 -0.039278187
-0.06364159 -0.043924 -0.041280735 0.034602553 0.00913395 0.060946096 -0.0548488 -0.0073030717
-0.084378935 -0.0014733068 -0.0153633235 -0.035703924 -0.030711092 -0.04682102 -0.031246133 -0.03151069
0.0050078505 -0.00078170636 -0.03612983 -0.008277396 0.001064775 0.14299327 0.017387377 0.01923963
-0.034149297 0.04379182 -0.0040968643 0.10365986 0.010174248 0.14653313 -0.012125213 0.06151894
-0.010365771 0.0030260512 0.025285931 0.00911863 -0.03402648 0.13726993 0.017259913 0.0654215
0.018390937 -0.025101393 0.006213818 0.01517019 0.111129895 0.014418878 -0.009426843 0.02371381
0.017953986 -0.021940475 -0.015159336 0.001306431 0.08163306 0.074268095 -0.0115968 0.0026012817
0.040716734 -0.067090675 0.051533908 0.069517106 0.07702187 0.015060336 0.024317035 0.016838651
-0.06517492 -0.11861039 -0.010895775 0.039636962 0.017676547 -0.08673972 -0.0040004114 -0.0025875345
-0.025578586 -0.10327056 0.013914093 -0.03299301 0.03396853 -0.08676648 -0.0063921036 0.034389623
0.04500531 -0.02187848 0.000952187 0.028311428 0.114943534 0.07599536 -0.016337985 -0.01188529
-0.08073333 -0.06054452 -0.0035608897 -0.019742385 -0.017691508 0.016076857 -0.027157022 -0.034884933
-0.08774736 -0.015106817 0.021183355 0.00757268 0.059661478 0.04686544 -0.026281403 -0.06654386
-0.14631511 -0.0155413225 -0.053921845 0.011490911 -0.00473277 0.032402687 -0.012636439 0.087466806
0.018817592 -0.0301511 -0.012705074 0.048788644 -0.03561481 0.017563598 -0.019538447 -0.014873447
0.050934967 -0.007687238 -0.009827117 -0.034780648 -0.011446751 0.00025262043 0.0017798493 -0.01978245

fc1.bias f4 [512]
00000000: 2a49 93bd 33a6 39be 6c26 003e b8d4 873c
00000010: 99f8 8dbd 6f73 e83d e271 a3bd fc85 373d
00000020: 1ddb 903d 3976 bebd 45fb b1bd 4e50 3d3d
00000030: 4d18 2abe 42e5 49be 0009 ce3d 6cf7 af3d
00000040: b309 4ebe 1b1b 0abe 07eb 1e3e 92e0 7f3d
00000050: f123 2f3c 3432 76bd 39c1 973d 21fb dd3d
00000060: 154a 39be e3ff ad3d da71 27be 52ab 533d
00000070: 7c39 05be 8012 99bd 5b4c 423d 9c01 8f3b
00000080: fe7d 603d 05fa ccbd 54ba 3d3e e8d2 86bd
00000090: 4729 31be c0b7 543c aafb 403e 72a6 e63d
000000a0: 8398 adbd 3940 92bc f7da 23bc a3ea 3dbe
000000b0: 5429 863d bdcc 12bc 9405 f7bd ab7e a5bc
000000c0: 7456 493d fe80 22bd 26de 12be a8b4 4f3e
000000d0: 28cd 033d c25c 0e3e 4a00 cabd 81da c1bd
000000e0: 706b 45be ce36 a9bd 2b43 fe3d 1f35 113d
000000f0: a174 11be dde5 29be f090 443e f275 293d
00000100: 955a 83bd 5435 b0bd b93d 13be afb0 9f3d
00000110: 3e71 1a3e be63 693d 381b 683d c464 dd3d
00000120: 5d4b ed3d 4cc5 41be 17e3 1cbd 39e1 bebd
00000130: c7a1 90bd 40d1 95bc 1894 813d 63ae df3d
00000140: 533d c3bc 42ae 283e e27d 1f3d 4f68 01bd
00000150: 37f9 d23d 14b4 a7bd 08f5 3b3e dfae 3f3e
00000160: 241c 0abe 418c 00bd 728f 183e 9208 323d
00000170: fc45 0a3e d513 52bd ab53 b4bc d03c 203c
00000180: add9 96bb 8a54 953a 8e6c 0c3d 7501 debc
00000190: 3bf2 0fbe 44ce 49be db68 1abd 0b88 e6bd
000001a0: 8eff ff3d fb98 4fbe 1737 7dbd a18d 7d3d
000001b0: 40ae 49bd a816 953d 6cdc b53d 63a3 21be
000001c0: 6a1c 663c 0a12 813d a783 003c 400d 5abd
000001d0: 45b8 2d3e 167d 9cbd 623c 1b3e 3466 363d
000001e0: 28e1 083e 102b 04bc f990 39be e7ba db3d
000001f0: 8f92 023e 2755 25bc 4c52 883d 3227 0d3e
00000200: f431 96bc 2fab 8e3d d9a7 dfbd fa29 ac3d
00000210: c8cb 2c3e 6a9b 50bb 4f70 babc cc14 11bd
00000220: 15ea ba3d f1d8 2e3e 14c6 913d 71e5 ebbd
00000230: 6ff8 713d 3925 b2bd b656 3d3c 41fd 48be
00000240: 2701 40be d8d1 3ebd 375b 723c 4e29 33bd
00000250: d17d ba3d 531d b43c 7cfc d4bb c595 00be
00000260: efbe 40bd fc58 c1bb 6b1b 01bd 694b fe3d
00000270: 074a 31bd 6c77 2e3d 3b37 183e 324c 0f3e
00000280: eb58 2ebe 1674 3cbc 16da 823b eb88 463c
00000290: 793d 80bd ef93 09bd 600d e4bd f296 eebd
000002a0: 704b 65bd e4b1 a5bb ae90 edbd 39e5 863c
000002b0: d2da 6bbc c246 2cbe c0a4 823d 9103 a4bd
000002c0: fd2b 7a3d 2636 063e d41f 0a3e 0f10 b9bb
000002d0: a748 91bd b581 163d 3f9b eebd 6fcf 093e
000002e0: e21f 28ba 437b bc3c b65b 14be 534d 50be
000002f0: c9f2 173e aa96 d73d ed44 b03c 11ed babd
00000300: 4978 0a3e 35e9 41be c978 1b3e 0810 ba3c
00000310: 9866 0fbe 7d41 9c3d cbac 2f3e 4a84 b6bd
00000320: d1d9 0e3e 3de0 3c3e a558 a43d a69e 1ebd
00000330: 556c 1f3e 49ef 183e 1bb4 25be ceb4 45be
00000340: 2f4f 723c 2ba7 21bc 2dc5 0bbe 75ce 913d
00000350: 934c 29bd 97ef 193e ede3 ae3c a3d3 50be
00000360: f95a d3bb 32e5 0c3e d0c7 d3bd 30f5 75bd
00000370: f869 4a3e e2eb 3abe cdbe 4bbe 3b8e 1bbe
00000380: d2df 02bd e8d0 ac3d ef3a 3fbe e2ba 35be
00000390: 86db 3a3e ba13 f6bd 35b9 983d 2f93 433e
000003a0: 615f 3d3e 95db 89bd 7eab 5b3d 2d7d de3d
000003b0: 592c 353c 2ae8 0d3e b427 b8bb e9be 20be
000003c0: 5f64 5abd 07d8 d43d 748e 7fbd 711c bb3b
000003d0: 5bb2 ccbd 9579 083e 4a9c ff3d 6f2f b8bd
000003e0: 4f4c 693d c7e7 003e 864a 023e a877 59bb
000003f0: 0d9c 01be 82a2 113e a9a5 1fbe b22e 88bd
-0.07191689 -0.18129806 0.12514657 0.016580924 -0.06932182 0.11350142 -0.07980706 0.04480551
0.070730425 -0.09299893 -0.08690504 0.046219163 -0.16610833 -0.19716361 0.1006031 0.08592114
-0.20120887 -0.13486902 0.15519343 0.062470026 0.010689721 -0.06010647 0.07409901 0.10838915
-0.18094666 0.08496072 -0.16352025 0.051677056 -0.1301021 -0.07474232 0.0474361 0.0043642055
0.054807656 -0.10008625 0.1852811 -0.06583196 -0.17300902 0.012983263 0.18846002 0.11262216
-0.08476355 -0.01785289 -0.010000936 -0.18546538 0.065508515 -0.008959946 -0.12061611 -0.020202002
0.049154714 -0.039673798 -0.14342555 0.20283759 0.032178074 0.13902572 -0.098633364 -0.094655044
-0.19279265 -0.08262406 0.12415155 0.03545105 -0.14204647 -0.16591592 0.19195914 0.041372247
-0.064137615 -0.086039215 -0.14379014 0.077973716 0.15082261 0.056979887 0.056666583 0.10810235
0.1158664 -0.18922919 -0.038302507 -0.093203016 -0.070621066 -0.018288255 0.06327075 0.109219335
-0.023832953 0.16472724 0.03893841 -0.031593617 0.1030144 -0.08188644 0.18355191 0.18719052
-0.13487297 -0.031383757 0.1489847 0.043465205 0.1350326 -0.051288445 -0.022012552 0.009780124
-0.0046035857 0.0011392992 0.034283213 -0.027100304 -0.14057247 -0.1970759 -0.037697654 -0.11256417
0.12499915 -0.20273201 -0.061820116 0.061902646 -0.049238443 0.07279712 0.08879933 -0.15784983
0.01404486 0.06302269 0.007843888 -0.053235292 0.16964824 -0.07641046 0.15159753 0.044531062
0.1336714 -0.0080669075 -0.18121709 0.10729008 0.1275122 -0.010091103 0.06656322 0.13784483
-0.018334366 0.069662444 -0.10920686 0.08406444 0.16874611 -0.0031830915 -0.022758631 -0.035420224
0.09126679 0.17074944 0.071178585 -0.11518372 0.059074815 -0.08698506 0.011556318 -0.19627859
-0.1875044 -0.04658684 0.014792255 -0.043740563 0.09106029 0.02198664 -0.006499825 -0.12557133
-0.04705709 -0.0059005003 -0.03152029 0.12416727 -0.04328349 0.04259436 0.14864819 0.1399391
-0.17026107 -0.011502286 0.003993283 0.012117605 -0.06261725 -0.033588346 -0.111353636 -0.11649884
-0.055980146 -0.0050566066 -0.11599861 0.016466724 -0.014395433 -0.16823867 0.0637908 -0.08008493
0.061077107 0.13106593 0.13488704 -0.0056476663 -0.070939355 0.036744792 -0.116507046 0.13458036
-0.00064134423 0.023007995 -0.1448811 -0.20341997 0.14838709 0.10526784 0.021517241 -0.09127248
0.13522448 -0.18936618 0.15182795 0.022712722 -0.1400398 0.076296784 0.17155759 -0.08911951
0.13950278 0.18444915 0.0802472 -0.038725518 0.15568669 0.1493503 -0.16181986 -0.19307253
0.014789387 -0.009866516 -0.13649435 0.07119457 -0.041332792 0.15032803 0.021348918 -0.20393233
-0.006450054 0.13759306 -0.103408456 -0.060048282 0.19766986 -0.18254045 -0.19897003 -0.15190975
-0.031951733 0.08438283 -0.18674825 -0.17747071 0.18247804 -0.12015481 0.074572004 0.19099115
0.18493415 -0.06731335 0.053630345 0.10863719 0.011057937 0.13858095 -0.0056199674 -0.15697826
-0.053318378 0.103927664 -0.062391713 0.0057101776 -0.09994956 0.1332763 0.12480982 -0.08993422
0.05695754 0.12588416 0.12723741 -0.0033182893 -0.12657185 0.14222148 -0.15590538 -0.066495314

bn1.weight f4 [512]
00000000: f1a3 343d 2544 2e3e 05fc ad3e 6bb3 413f
00000010: 45d8 673f 1e83 9b3d 28c4 493e 4531 4c3d
00000020: 5751 773f 9ec7 9b3e c8db 0a3f a54a 393f
00000030: ddac 243f 1756 1e3f fc02 303f 6f4a 123f
00000040: 97bd 373f 3cfa 033f 7316 e33e a07e 723f
00000050: 41bd eb3e 0931 503e df5f 093d c00a 383f
00000060: 271f 683e 8035 8b3e 58c4 323f 5cb4 203f
00000070: 1743 9f3d 9dfc b53d 8df3 f23e 6a5b 1a3f
00000080: 8e9f 3c3f 976b 853e e7e3 e23d 31cb 713e
00000090: e0ba c73e b205 803f 45ce db3e 27a5 bd3e
000000a0: bcd6 3a3f 40d3 993e 5a27 0e3f e255 ca3e
000000b0: 96b2 6e3f 7e49 da3e 446b 0e3f 4dbe 2f3f
000000c0: 4727 803f 05ac 383e 9596 d63e 35e2 d93e
000000d0: bbd3 cf3d 4da3 b03e 0841 fd3e 7edc 343f
000000e0: 3c79 b03e f2a8 1a3e 91df 953e 9d50 3f3f
000000f0: f76f 473f 6f3a a43c 020e aa3d 540a 463f
00000100: 88ca a73e 9b9d 273f 7055 753e 646e 473e
00000110: 3e9f 003f eb64 3c3f 3f7a 233f 1181 54ba
00000120: 9633 2e3e 5dce 163f 77b4 283f 254a 453f
00000130: e650 1c3f 0f42 373e 8323 07ba 630f 5a3f
00000140: 358c 543f b899 753f 47c6 233d 91f5 c93d
00000150: c84d e03d d62c d63e 6afe 353f d410 fa3e
00000160: c332 c73e b293 2b3f 5973 ed3e d378 c73e
00000170: 734b 413e a456 3f3f 375b 143e cf6d 4a3f
00000180: 5209 3f3d e134 ac3e 2a2d 4c3f 0cae 2f3e
00000190: 578f d53e 5915 5f3e 5fc3 4c3f dfb1 293d
000001a0: 660b 7a3f fb10 e93e 80cf 973d 9653 4b3f
000001b0: 57dd e13e b61a 073f 4e89 423e 00ef c83e
000001c0: f259 1c3e a33e b13e 0bcb 063f 6274 c23e
000001d0: b5b8 7e3f 6eb1 153e a2a9 f63d 8222 1a3f
000001e0: 609c 713f 7247 293e dd9e 2c3f b588 b53e
000001f0: f0f0 273f 8b77 0f3e 9fb1 ff3d b6b6 503f
00000200: 73ab cb3e 1bc3 ad3e 4a26 983d 645d 5a3f
00000210: cc06 1c3f aa8e 223f 012a 043f b259 ca3e
00000220: 3d3a c63e 5123 bf3e d969 3f3e 515a 343f
00000230: 40bf 5d3f b71a 323e 477a 703f bd3b 8f3d
00000240: 78a1 883d 9163 3b3f 12fa 1b3f a864 553f
00000250: 97eb 9d3e 749b 423f c042 c43e 8e50 573f
00000260: a296 6f3f 02a0 373e e1cc f13e 77dd a23d
00000270: b94e 653d fb86 273f eb68 bc3e a364 fe3e
00000280: 6811 293f 7b6e 723f d2f1 533e 8647 de3d
00000290: 0907 203e e3b9 2e3f 2508 d73e e992 4c3e
000002a0: c46e 8b3f 32dd 0e3f 825c a33e fedc 8b3e
000002b0: 6944 733f 0127 303a b312 983a f313 e43d
000002c0: 9970 d93e 6675 723f adf7 4d3f 6238 173f
000002d0: 1ca8 383f 6d64 ac3e d4e9 1f3e ec69 0b3f
000002e0: 73a7 cb3e e7e6 4c3f a8cf 213f cdc1 993e
000002f0: 8155 503f c6ba 4b3f 81b3 e03e 1705 7a3f
00000300: 53a3 323e fc2b 4a3f 3b2e 953e 33c7 393f
00000310: ebf7 c83e 9e88 313e da3c 3b3f 0960 fe3e
00000320: 9ae7 093f 2fd8 253f ff52 4e3e 773a 2e3f
00000330: 7add f83d 4bad 083f 7bf1 1a3e 36b2 cd3e
00000340: cc0e 863f 3979 323f 0387 683e 3851 103e
00000350: 556e 0d3f eda1 543f 9e1b 413e 666a 5d3e
00000360: ec6f fe3e 7dbd 393f d702 3c3f 3feb 6e3f
00000370: ca71 0f3f 91d3 e53e 105d 253f 5edf 7f3e
00000380: d5c0 543f d6c5 153f 8cb2 1b3f 673e 793f
00000390: 1544 5e3f 2c22 c33e 9781 833e 5984 323f
000003a0: 0391 4e3f c1ca 8a3d 83de 1d3f 4cfa 363f
000003b0: 2dff 463e 0774 013e ce99 863e e249 e53e
000003c0: 6954 683f 7bc8 023f 8acd 453f 9d1f 763e
000003d0: e061 503e 355e 193f abcb 213f 2849 a03e
000003e0: 44c8 ea3e 4a4a 423e 5dca 5c3f bac9 003b
000003f0: 517f 553f 95ce ac3d 0072 2a3e bf57 cd3d
0.04410166 0.17018183 0.33981338 0.75664395 0.90564376 0.07593368 0.19703734 0.049851675
0.9660849 0.30425733 0.5424161 0.72379524 0.6432627 0.6185011 0.68754554 0.57144827
0.71773666 0.515537 0.44353065 0.94724464 0.46042827 0.20331205 0.033538695 0.71891403
0.22668134 0.27189255 0.69830847 0.62775207 0.07776468 0.08886073 0.4745144 0.60295737
0.7368096 0.26058647 0.11078625 0.23612668 0.39009762 1.0001738 0.4293081 0.37040064
0.7298391 0.30043983 0.55528796 0.39518648 0.9324125 0.42634195 0.55632424 0.6864975
1.0011986 0.1803437 0.4191176 0.42555395 0.10147806 0.3449959 0.49463677 0.70648944
0.34467494 0.1510351 0.2927213 0.7473238 0.7790522 0.020047395 0.08303453 0.7735951
0.32771707 0.6547486 0.23958373 0.19475704 0.50242984 0.7359149 0.6385841 -0.00081063906
0.17011866 0.58908635 0.6590037 0.7706626 0.6106094 0.17896293 -0.0005155133 0.8517973
0.8302644 0.9593768 0.039984014 0.09861291 0.109523356 0.41831082 0.7109133 0.48840964
0.38905916 0.6702224 0.46377066 0.3895937 0.18876438 0.7474158 0.1448792 0.79073805
0.046639748 0.33634093 0.79756415 0.17156237 0.41710922 0.21785487 0.7998561 0.041429397
0.9767364 0.45520768 0.07412624 0.79424417 0.4411418 0.5277513 0.1899769 0.39244843
0.15268686 0.346181 0.5265357 0.37979418 0.9950059 0.14618465 0.12044074 0.60208905
0.94379234 0.1653116 0.67429906 0.35455862 0.65602016 0.14010446 0.124850504 0.81528795
0.39779243 0.33937916 0.07429178 0.8529875 0.6094787 0.6349894 0.5162659 0.39521557
0.38716307 0.37331632 0.18692721 0.7045031 0.8661995 0.17393003 0.9393658 0.06993816
0.06671423 0.731988 0.6092845 0.83356714 0.30843803 0.7601845 0.38332176 0.8410729
0.9358922 0.17932132 0.47226623 0.07952397 0.05598328 0.6544034 0.36798796 0.49686155
0.66042185 0.9469983 0.20697716 0.10853486 0.15627684 0.6825239 0.419984 0.19977917
1.0893178 0.5580627 0.31906515 0.2731704 0.9502626 0.0006719679 0.0011602252 0.111366175
0.42468718 0.94710386 0.8045605 0.5907041 0.72131515 0.3367037 0.15616542 0.544585
0.3977619 0.8003983 0.63207483 0.3003067 0.8138047 0.7958187 0.4388695 0.97664016
0.17445116 0.78973365 0.29136834 0.7256958 0.39251646 0.17337272 0.7313973 0.49682644
0.5386902 0.64782995 0.20148848 0.6805796 0.12151618 0.53389424 0.1513118 0.40175027
1.0473266 0.6971622 0.22707753 0.14093482 0.5524648 0.8305958 0.18858191 0.21622619
0.49694765 0.7255476 0.73441833 0.9332771 0.56033003 0.44887975 0.6459513 0.24987552
0.8310674 0.58505 0.60819316 0.97360843 0.86822635 0.3811201 0.25684807 0.69733196
0.8069002 0.067769535 0.6166765 0.7147567 0.1943328 0.12641917 0.2628922 0.4478293
0.907538 0.5108716 0.7726675 0.24035497 0.20349836 0.59909374 0.632014 0.31305814
0.45855916 0.18973652 0.8624628 0.0019651488 0.83397394 0.0843784 0.1664505 0.10026502

bn1.bias f4 [512]
00000000: 06a8 47bd 0873 483c 8ebc e7bb 32b3 acbd
00000010: 4748 0ebe 7a0f 6a3d b090 95bd 44f4 ebbc
00000020: eae7 9e3b 7f4c 96bd 4651 e2bd 1c4f 38bd
00000030: d5f2 203d 2ef1 5abd b3dd e7bd 2fb1 193c
00000040: df95 39bd 2c46 8dbd 3b8b 1abc d127 b2bd
00000050: 7a56 9ebd eba9 1abb 701e 123d b0b0 d2bc
00000060: 6fd4 66bc db19 dfbd 5369 99bd 7698 36bd
00000070: 7c6c 1abd e354 9dbd c8d4 72bc 98ac febd
00000080: 0c2b 3a3d cc22 eebd fbd0 54bc de5c 403d
00000090: 4af8 013d 2141 b3bd e46f 0cbd 180b 9dbd
000000a0: a5e2 683c f7ae 4c3d 3e7e 16be caf1 eab8
000000b0: 0158 e2bd 3e85 8cbd 5820 03be 6771 2bbd
000000c0: ea53 ea3c ab7b 10bc 2607 03be e557 0cbd
000000d0: aa76 713d f12f a7bd e525 f1bd 28f4 073d
000000e0: 94b8 693d 5d51 e2bd db61 9abc 831d 9fbd
000000f0: 42ef cbbc 9e0c 6fbc 027b 59bd 5f11 17be
00000100: 2d7f 39be 31b5 11be 1e32 67bd 43cf 30bc
00000110: 4f1a fdbd 0639 06be b11b 89bd 2609 05bc
00000120: 036c 0ebd d78b c6bc aeaf e2ba e3cc 07be
00000130: 7d1f 54bc cd6c 1a3d 7f5a e6bb 81fc 5abd
00000140: f7a7 ddbd d9e6 cebc f8fe 5dbd f94f 9ebd
00000150: f3c2 b6bd e2b4 14be 03eb a43c 9fde 1e3d
00000160: 59d0 06bd acee 353c c63e 97bd 08cc 693d
00000170: 2ea9 273c 06ab afbd aedb b1bd ddd3 cdbd
00000180: 8be9 213d 050c 71bd ce56 65bd 1aed f6bd
00000190: 2e37 7ebd e4e6 86bd 3888 95bd 8202 7b3d
000001a0: acfe c3bc cea5 80bd bd3a 69bd 64bc c3bc
000001b0: 03e5 d43c 62f3 2ebb cf91 b8bd 9988 0bbe
000001c0: 7c0b 143c 0d17 9b3b 92b7 c1bd de70 6dbd
000001d0: 68e7 d7bd 2ed2 cfbd 2904 45bb 4ef3 bdbd
000001e0: dfdc 2bbe 07e4 cabd 76ca 81bd f6e4 b0bd
000001f0: 4e55 64bd a7ff bbbd 0836 63bd c50a 9a3d
00000200: a404 b4bd f2b5 41bd d4ce 2cbd 407e 81bd
00000210: ad54 29be b518 633c ec2b 553c df23 60bd
00000220: 2ebd 84bd 29f2 9ab9 edd5 be3d d927 03be
00000230: 7b79 ac3d 8b94 34bc 3250 d2bb bb70 28bc
00000240: ee07 bcbd 2b93 1ebc a49f 83bd 6620 28be
00000250: b1b7 aa3c f1b4 3fbd 4302 523d a167 13bd
00000260: e998 babd 997d 263d 2761 15be 283b 99bd
00000270: 6318 71bd af67 7fbd 6429 bcbd 554f 0ebe
00000280: 10ef 50bd 1b1f 2dbe 390a 05be e81b 75bd
00000290: da86 c6bd c36b babc ed31 33bd efe6 353c
000002a0: 126b e6bd a688 cabd 7587 a0bd 2b51 003d
000002b0: 7bc8 9ebd eb03 7bbb 07ae ecbb 346e a5bd
000002c0: f40e 82bd c9ff 85bd e65a dfbd a0ae 2ebe
000002d0: 8eee 14be da19 6cbd e731 d83c 2672 aebb
000002e0: 6e3a 53bd 9b7a 3abd 8567 fe3c 0ed1 953c
000002f0: 3374 02be c877 02be d20b d1bd b704 37bd
00000300: d26a a3bd fb7c 8d3d e4b4 0abb 615e c9bd
00000310: 937d d73c 6358 f9bd 8de2 d2bd dc0f 15be
00000320: e917 01be 470f 423c ab50 6ebb 24b7 563c
00000330: e61f ecbd ded6 cebd 866c 03bd a251 a6bd
00000340: 9d84 683d 81c3 5d3c 7d8c b2bc 02e7 67bd
00000350: acc4 2ebe cc85 10be a807 84bd 5a46 cdbd
00000360: 42de 04be b120 84bd e698 adbd 2e06 72bd
00000370: 7cc5 323d d33e 42bd 443a 15be 4d9c 6f3d
00000380: 8b7d 60bd 5509 4cbd 18d1 42bd 92df 06be
00000390: 4aaa b2bc 217c 86bd 5f3f acbd 291b e1bd
000003a0: 32a1 0cbe 60bc 79bd 7aed 19be e943 91bc
000003b0: 3383 83bd 2e67 b4bd 7dd3 16bd 8a40 0cbe
000003c0: 891b b0bd ddeb 05be b201 e5bd a207 afbd
000003d0: c568 243d 4ddf b6bc 70ca 19be 93c3 a0bd
000003e0: 730d f9bc 376c 94bd af12 23be c58e f43c
000003f0: ec44 fabd b34f b23c 3921 afbd 91d1 c03b
-0.048744224 0.012234457 -0.007072038 -0.08432616 -0.13894759 0.057143666 -0.073029876 -0.028802998
0.0048494237 -0.07338809 -0.11050658 -0.04499732 0.039294083 -0.053452663 -0.11321583 0.009380623
-0.045308944 -0.0689815 -0.009432609 -0.086990006 -0.07731338 -0.0023599814 0.03567356 -0.025719017
-0.014088734 -0.108936034 -0.07490792 -0.04457899 -0.037701115 -0.076822065 -0.014821239 -0.124352634
0.04545121 -0.11627731 -0.012989278 0.046963565 0.031730928 -0.08752657 -0.034286395 -0.076681316
0.0142141925 0.049971547 -0.14696595 -0.00011203026 -0.11051942 -0.068613514 -0.12805307 -0.041856196
0.028604466 -0.008818547 -0.12795696 -0.03426351 0.058951057 -0.08163441 -0.11774806 0.03319183
0.057060793 -0.11050675 -0.01884549 -0.07769301 -0.02489436 -0.0145904105 -0.053095825 -0.1475272
-0.1811492 -0.14229275 -0.05644428 -0.010791603 -0.123585336 -0.1310769 -0.06694735 -0.008119857
-0.034770977 -0.024236603 -0.0017294788 -0.13261752 -0.0129469605 0.037701417 -0.007029831 -0.053463463
-0.108230524 -0.025256561 -0.054198235 -0.07730097 -0.08923902 -0.14522126 0.020131594 0.038786527
-0.03291354 0.011104267 -0.0738502 0.057079345 0.010233207 -0.08577542 -0.08684479 -0.10050175
0.039529365 -0.058849353 -0.055990987 -0.12056942 -0.062064342 -0.06587008 -0.07301372 0.06128169
-0.023925148 -0.06281625 -0.056940783 -0.023893543 0.025988108 -0.002669536 -0.09012186 -0.13626327
0.009035941 0.0047329725 -0.094588414 -0.057968967 -0.10542184 -0.101475105 -0.0030062294 -0.09274922
-0.16783474 -0.09906774 -0.063374445 -0.08637421 -0.055745415 -0.09179621 -0.05547145 0.075215854
-0.08789948 -0.047292657 -0.042189434 -0.063229084 -0.16536207 0.013860871 0.01301096 -0.05472171
-0.06481396 -0.00029553592 0.09318147 -0.1280817 0.08421608 -0.0110217435 -0.0064182514 -0.010280783
-0.091812 -0.009678642 -0.064269334 -0.16418609 0.020839544 -0.04680342 0.05127169 -0.0359875
-0.091111965 0.040647123 -0.14587842 -0.07481986 -0.058861148 -0.06235474 -0.09187582 -0.1389745
-0.051009238 -0.16906397 -0.12992181 -0.059841067 -0.0969369 -0.022756463 -0.043748785 0.011102422
-0.11250891 -0.09889345 -0.078383364 0.031327408 -0.07753082 -0.0038301896 -0.007222894 -0.0807766
-0.06350508 -0.06542928 -0.109060094 -0.17058802 -0.14544126 -0.05764184 0.026390983 -0.005323666
-0.051569395 -0.045527082 0.031055221 0.018288162 -0.12739639 -0.12741005 -0.10207333 -0.04468223
-0.07979359 0.06908604 -0.0021164948 -0.098324545 0.026304996 -0.121750616 -0.102971174 -0.14556831
-0.12606777 0.011844463 -0.0036364 0.013105188 -0.11529522 -0.100995764 -0.032085918 -0.08121039
0.056767095 0.013535381 -0.021795506 -0.05661679 -0.17067212 -0.1411354 -0.06446773 -0.10023184
-0.1297541 -0.06451548 -0.08476429 -0.059087925 0.043645367 -0.047423195 -0.14573008 0.05849867
-0.054807227 -0.049813587 -0.04756269 -0.13171223 -0.021809716 -0.065666445 -0.084105246 -0.109915085
-0.13733366 -0.060970664 -0.15031996 -0.017732577 -0.06421509 -0.088087425 -0.036822785 -0.13696495
-0.08599002 -0.13078256 -0.11181964 -0.08546378 0.04013898 -0.022323275 -0.1501863 -0.07849803
-0.03040192 -0.07247203 -0.15925096 0.029853234 -0.12220177 0.02176652 -0.085512586 0.0058843573

bn1.running_mean f4 [512]
00000000: c142 43bf 06f5 d13f a3e8 5a3f 1acc 69bf
00000010: 9da3 a83e 90b9 ce3f d95d e53f a0c5 1c3e
00000020: ccb8 063e a05d 0e40 f5b5 90bf 6b71 8bbf
00000030: 9548 fe3e 5a83 e03f 9605 963f 966a 843e
00000040: 35bc b9be 8446 8d3e 631e dabf c86d babc
00000050: 134e 013e a28a 5f3f e086 3fbf 6288 c43e
00000060: b7e3 d9bd af1a 8dbf 4faa 933e e6ae 6abf
00000070: c82d 3cbe d3be 2dbe 7f67 513f 4c08 bd3e
00000080: 55fd 683e 76da 963f 9209 983f d368 ae3f
00000090: d81b 043f c6fe bc3e 41e1 ae3f 5724 883f
000000a0: c734 543f 09f4 2c40 8cc9 4bbf e027 4a3e
000000b0: f696 75bf f0b3 4b3f 28e9 29bf 6b47 d03e
000000c0: 865a 8b3f eb9d 1c3f 6012 3cbe 71a1 26be
000000d0: a138 0740 a1e3 ff3e 963f 91bd 220f ab3e
000000e0: 40f4 4dbf aa6d 003d fd59 0bbd 6399 39be
000000f0: 5752 d8bf 12c3 e5bf 66a8 673f 83c7 01be
00000100: ddfa edbe 6f2b 453f ce08 39bf 9f52 f53e
00000110: 5a72 50bf 01ef 04c0 4ae2 adbe 48ed a03e
00000120: baff d8be 5113 3840 6ea8 dbbe 8e56 d53e
00000130: 4265 d13e e209 a23e f0da 3c3e 6ab7 923f
00000140: 6c98 84bf 4418 22bf 2d77 3c3f 787d 0ac0
00000150: d43e 8abf 144f a4bf ba35 dbbe 45bb 843f
00000160: 13cd 373e 7951 a33f 90ce a6bf c237 fb3e
00000170: f3fe a53d f53a b83e 02fa a2bf 6927 d2bf
00000180: be74 2f3f 2cc1 633c 51ab 0ebe 14f3 babf
00000190: 1ee9 14be b323 77be 86f8 eabf cd24 533f
000001a0: 1210 973d dc01 79bf e4e1 dabf 6bff 163e
000001b0: ce96 b03f 352f 02bf c69c 0cbf 5fb1 c53d
000001c0: 50a3 afbe 1e98 833f 431e a03f 925b fcbe
000001d0: 76a1 be3f 5a87 023f 0e72 ddbd dd19 1b3f
000001e0: a5b8 a1bf c436 f3be 86c1 1dbf ca81 a6bf
000001f0: b82e b0be df46 43be 2583 903f 742e 943e
00000200: f19c 4cbe 96c3 b8bf eb30 99bd 63f2 0240
00000210: 76ca 5a3f e0e7 e2be 0877 8e3f ee24 a1be
00000220: 5f4b 2740 1a20 de3f e828 4c3f b08a 553d
00000230: b4ed 593e ecf0 f7be 50a2 43be c624 34bf
00000240: 1eb1 f0bf 8e63 5d3f c1a4 0fbf df04 e2bd
00000250: 6bb9 12bf 1ef8 a43f a277 b93d 1255 f23f
00000260: 6622 21be cce6 0740 cb9c c8bf bba5 8d3e
00000270: 6af2 1fc0 ae3b 0240 576b 523f fcf3 e3bf
00000280: 97b5 a63f d064 083e ad46 1340 fbaf 7ebf
00000290: 2d7d cf3f b664 3840 8904 983f 5a9d 013f
000002a0: 931e e23e c568 5f3f d9c8 3b3f 75c8 903f
000002b0: 486a 093e 94de 16bf ddbe e83e ddd3 a2bf
000002c0: 9232 b23e 31d0 dfbf f0b2 c0bd 33ed b1bf
000002d0: 1c6a 6c3f 9468 3d3f 1412 8c3f a243 b23e
000002e0: f4e4 febf 7268 ae3f 20aa 9e3f 15b8 32be
000002f0: e627 0940 d8d1 ac3f 90d3 9bbf 2f85 063e
00000300: 0c64 9bbe 78a7 df3e 4358 eb3f 6a8c 253f
00000310: 1a6f aabe 80ba 953e a507 c73f 0b7d 243f
00000320: bf66 d4bf af52 8f3f 6051 673e 0a04 91be
00000330: 9ed5 3cbf 6703 2ebc c618 9a3f 3e4c db3e
00000340: 2f61 5d3f fa01 1040 92ad 623e 274e f13f
00000350: 96c1 633f d003 7dbe 2c88 05bf c9a5 be3d
00000360: 0a0c d3bf e3d8 33bf c0e7 b1bc 4ea5 07bf
00000370: 4fc4 6bbe b156 49bf cd19 a7bd 40e0 d33d
00000380: 94d1 ce3f ccb2 243e 22ff 3a3e 2e2e 803f
00000390: aa64 bf3f ae13 1abf 1c7b 42bf abd6 553f
000003a0: 973c d13e 0e43 dabe bbce 13c0 9359 523f
000003b0: 6837 06be e62f 18bd e6df 293f 9d83 e9be
000003c0: 249e ff3f e5db 92bc acce 1140 92b4 dc3f
000003d0: 0534 e73d 464d 3f3f c437 e73e d0cf d93f
000003e0: 77ff e63e b02c 59be 2aef bcbd 659a 88bf
000003f0: d08c 4ebe 7c00 a03f d8b8 01bf 7090 973e
-0.76273733 1.64029 0.85511225 -0.9132706 0.32937327 1.6150379 1.7919265 0.15309763
0.13156432 2.2244644 -1.1305529 -1.0893987 0.4966475 1.7540085 1.1720455 0.2586257
-0.36276403 0.27592862 -1.7040523 -0.022757426 0.12627439 0.8732091 -0.7481518 0.38385302
-0.10639136 -1.1023768 0.28840873 -0.91673124 -0.18376839 -0.16967325 0.8179855 0.36920393
0.22752889 1.1785419 1.1877921 1.362574 0.51604986 0.36913127 1.3662492 1.063609
0.8289303 2.7023947 -0.7960441 0.19741774 -0.95933473 0.7957144 -0.66371393 0.40679488
1.0887 0.61178464 -0.18366385 -0.16272523 2.1128314 0.49978355 -0.07092206 0.33409983
-0.8045082 0.031354584 -0.034021366 -0.18124919 -1.6900128 -1.7950156 0.9049133 -0.12673764
-0.46480456 0.770194 -0.7227906 0.47914597 -0.81424487 -2.0770876 -0.33961707 0.3143103
-0.42382604 2.876179 -0.4290194 0.41667598 0.40897566 0.31648165 0.18442893 1.1462224
-1.0359015 -0.63318276 0.7361935 -2.163908 -1.0800424 -1.2836633 -0.42814428 1.036965
0.17949323 1.2759238 -1.3031788 0.49065977 0.08105268 0.3598248 -1.2732546 -1.6418277
0.6853751 0.013901036 -0.1393254 -1.4605432 -0.14542052 -0.24134712 -1.8357093 0.8247803
0.07376112 -0.9726846 -1.7100186 0.14745872 1.3796022 -0.5085328 -0.5492672 0.096529715
-0.34304285 1.0280797 1.2509235 -0.49288613 1.4893024 0.5098778 -0.1081277 0.6058634
-1.2634474 -0.4750272 -0.6162342 -1.3008358 -0.34410644 -0.19070004 1.1290022 0.2894169
-0.19981743 -1.4434688 -0.074800335 2.046044 0.8546518 -0.44317532 1.1130075 -0.31473488
2.6139753 1.7353547 0.7974992 0.052134216 0.21282083 -0.48425996 -0.19104886 -0.7036861
-1.8804052 0.86480033 -0.5611077 -0.11036085 -0.57314175 1.2888219 0.09056021 1.8932211
-0.15735778 2.1234617 -1.567285 0.27665505 -2.4991708 2.0348926 0.8219504 -1.7808833
1.3024167 0.13319707 2.3011887 -0.99487275 1.6210076 2.881147 1.1876384 0.50630724
0.4416395 0.8726924 0.73353344 1.1311175 0.1341945 -0.5893338 0.45458117 -1.2720906
0.34804207 -1.748541 -0.094091296 -1.3900512 0.9234941 0.739877 1.0943017 0.34817225
-1.9913621 1.3625624 1.2395668 -0.17453034 2.1430602 1.3501539 -1.2173939 0.13136743
-0.30349767 0.43682456 1.838631 0.6466738 -0.3328789 0.2924385 1.5549208 0.642533
-1.6593856 1.1197108 0.22589636 -0.28323394 -0.73763454 -0.010620928 1.203881 0.42831606
0.86476415 2.2501206 0.22136524 1.8851975 0.88967264 -0.24708486 -0.52160907 0.09308965
-1.6488049 -0.7025282 -0.021716952 -0.5298661 -0.23024105 -0.78647906 -0.08159218 0.10345507
1.6157708 0.1608383 0.18261388 1.0014093 1.4952595 -0.6018628 -0.759691 0.8353068
0.4086654 -0.42629284 -2.3094928 0.8216793 -0.13107073 -0.037155055 0.66357267 -0.45608225
1.9970136 -0.01792712 2.2782393 1.7242606 0.11289219 0.74727285 0.45159733 1.7016544
0.4511678 -0.21208453 -0.092253044 -1.0672117 -0.20170903 1.2500148 -0.50672674 0.29602385

bn1.running_var f4 [512]
00000000: 0e6c 6d3f 83bd cc3f 4c0a 543f 05a7 0740
00000010: 7dcd 1440 9c8c b940 2b97 c43f 2854 7740
00000020: bc1d 663f bc0d a440 2129 bd40 a9df a63f
00000030: e3c9 923e 0aca 9f3f 4302 0340 a679 7c40
00000040: 4653 6740 b398 693f adde 8740 f16e 6f3f
00000050: dd01 ad40 d55b e03f 7b93 3040 57e4 0540
00000060: dd0b 7d40 13ce f940 c339 c43f c087 3940
00000070: b7ec ae3f 7f30 553f 9c68 9e3f 9ce7 233f
00000080: c709 0a40 1b4c b53f 4560 a53f 9437 7940
00000090: 74ae 1740 b4c2 bf3f eaa1 ca3f 02a9 893f
000000a0: 1521 0341 e5ac c93f ecab df40 a7f3 8540
000000b0: e54e 203f 4386 213f 0f66 9740 8abf 2f3f
000000c0: d463 af3f c01a 653f fcac 3640 2e14 923f
000000d0: fde2 853f 057b c53f ea07 4240 3c6e bc3f
000000e0: f02d 3240 219f 1540 c62c e540 493f 3840
000000f0: 617f d93f 3784 2d40 e04b ca3f 93ba 8340
00000100: 93d5 0241 6658 ce3f 2f4b bd3f 0847 4e40
00000110: c545 c03f e36f be3f c02d f93f c19f ae40
00000120: 2a26 a53f f539 0440 0fd7 9a40 dad9 a640
00000130: 5e9e 783f 600b 523f def4 533f 1401 c43f
00000140: fb1c f440 f1e4 8040 5de0 643f aa1c 9c40
00000150: fce0 b240 8f8c 8e40 9b8b cb3f 2609 2240
00000160: 3c4d a73f caa0 eb3f 8200 6540 7a1c dd3f
00000170: 5d39 4440 54db 0640 4bb6 5940 add4 3740
00000180: 4a90 f93f b08f 623f 56d0 bb3f 33c0 8040
00000190: d6a4 e33f 2c0e 1840 0bf7 0640 ba33 2440
000001a0: 23c4 a03f f3ac 8840 398d 7c40 1ed0 f33f
000001b0: b555 0640 d362 0040 d15b 883f be5e b73f
000001c0: d3dc 5a40 6739 b53e 1101 8740 bd47 8740
000001d0: 7139 2540 a6e1 fe3f 5bd8 d73e af04 1a40
000001e0: 667b f93f cbb4 8940 79fc 7740 014a ae3f
000001f0: 9b4f 8440 9958 3040 2fb0 6c3f 2da5 4640
00000200: 0f44 3b40 9315 fe3f 451d 1c40 ad36 8140
00000210: ad18 923f a2c2 d23f 7768 3a3f 9973 9a3f
00000220: 7ef4 8c3f d33d 363f 8a45 7540 c550 6c40
00000230: 1eab 103e bd7b 9a40 2fbb d73f af2a 5940
00000240: 1386 cd3f 49b0 2e40 202b 1640 8e96 943f
00000250: 3ab6 1040 7ef3 2640 f0d5 9e3f c85d ec3f
00000260: 28dc d13f 5e78 da40 68b6 6b41 2a6c f83f
00000270: 7c4d 1740 bb3a 883f 9e39 9840 12d8 ee3f
00000280: 19e7 3b3f 19af 163f 6c05 f43f fec7 0f40
00000290: a648 503f 848a 2c40 d9b3 b93f 925b a23f
000002a0: 8a4b 473e e8e2 1f40 5510 a440 5b5e 3a3f
000002b0: 8df5 943f d450 d73e 7995 393f 2bde 3040
000002c0: 2339 1a40 6620 1440 401a 3640 21d8 5340
000002d0: 6b2d b73e d0ee 8c3f 343d 9540 02c0 4340
000002e0: 02ae 7540 7751 ad3f c63f f03e 1f66 a840
000002f0: 4a93 a83f c4da db3f b799 243f e587 493e
00000300: 82dd 333f 70ee b440 b54c 743f 6eba a83f
00000310: e94b 5540 7adb 763f 68be 7240 95b8 b03f
00000320: 2139 0740 b7d4 2040 bbb0 1040 5ef7 d340
00000330: 12a5 d13f 182a e13f 1e0e 3440 02b1 a73f
00000340: e15f 913e b9ac 8e3f ec3a b83f 2884 c33f
00000350: 3834 8e3f 9590 2d40 9936 1d41 ef9c 9c3f
00000360: 5b53 c33f cb6d ed3f 87e6 ee40 f9ba ab3e
00000370: edf7 c03f 1137 e23f 5904 a240 3619 943e
00000380: 4276 d33f 0ab8 8f40 a957 2840 99b9 783f
00000390: 5489 683f 6995 0740 6dd6 8b40 edf0 2b40
000003a0: 1ba6 4e40 307a a240 4263 dd3f 269b 433f
000003b0: a788 c040 47bb 4f40 e905 1640 200d 1b40
000003c0: c0ef 7840 814d db3f 5026 383f f4fb c13f
000003d0: 0674 0140 9088 6f40 cb9c 6e3f 86f3 2740
000003e0: 6a26 d540 56a0 0340 893f 0240 2896 f940
000003f0: e399 933f 2fc7 bb40 3a16 1440 f512 c240
0.92743003 1.5995334 0.8282821 2.119569 2.325042 5.798414 1.5358633 3.8645115
0.8988912 5.1266766 5.9112706 1.3037006 0.28669652 1.2483532 2.047013 3.9449248
3.6144576 0.91248626 4.245932 0.9352866 5.4064775 1.7528025 2.7590015 2.0920618
3.953849 7.8064055 1.5330127 2.8989105 1.366599 0.83277124 1.2375674 0.6402528
2.1568468 1.416385 1.2920004 3.8940172 2.3700228 1.4981294 1.5830662 1.0754702
8.195577 1.5755888 6.9897366 4.1859927 0.62620384 0.6309549 4.7312083 0.6865164
1.370234 0.8949394 2.8543081 1.1412408 1.0459896 1.5428168 3.031733 1.4721141
2.7840538 2.3378375 7.1617155 2.8788626 1.6991998 2.7111948 1.5804405 4.116525
8.177142 1.6120727 1.4788569 3.2230854 1.5021292 1.4877895 1.9467087 5.457001
1.2902272 2.0660374 4.8387523 5.214093 0.9711665 0.82048607 0.8279551 1.5312829
7.6285377 4.027947 0.8940485 4.878499 5.589964 4.454658 1.5901979 2.5318084
1.3070445 1.8408444 3.578156 1.7274315 3.0660012 2.1071367 3.4017513 2.8723557
1.9497159 0.885005 1.4672954 4.023462 1.7784679 2.375865 2.1088283 2.5656571
1.2559856 4.271112 3.9461195 1.9047887 2.0989811 2.0060318 1.065302 1.4325788
3.419728 0.35395357 4.21888 4.227507 2.581631 1.9912612 0.42157254 2.4065359
1.9490783 4.3033195 3.8747847 1.3616334 4.1347175 2.7554076 0.92456335 3.1038315
2.926029 1.9850334 2.4392865 4.0379243 1.141378 1.6465647 0.7281565 1.2066528
1.1012113 0.71188086 3.8323693 3.6924298 0.14127776 4.827605 1.6853999 3.3932302
1.6056541 2.7295096 2.3463821 1.1608446 2.2611222 2.6086116 1.2409039 1.846612
1.6395311 6.8271933 14.732033 1.9408009 2.3641043 1.0642923 4.7570333 1.865969
0.733995 0.5886093 1.9064155 2.2465816 0.8136085 2.6959543 1.450801 1.2684195
0.1946241 2.4982243 5.1269937 0.72800225 1.1637436 0.42053854 0.724937 2.76356
2.4097373 2.3144774 2.8453522 3.3100665 0.3577684 1.101038 4.663721 3.0585942
3.8387456 1.3540486 0.46923655 5.262466 1.3169949 1.7176137 0.6429705 0.19680746
0.7025987 5.654106 0.95429546 1.3181894 3.3327582 0.96428645 3.7928715 1.380633
2.1128619 2.512983 2.2607868 6.623946 1.63785 1.7590971 2.8133616 1.3100893
0.28393462 1.1146461 1.4392982 1.5274706 1.1109686 2.7119496 9.8258295 1.2235392
1.5259813 1.8549131 7.4656405 0.33541086 1.5075661 1.7673055 5.0630307 0.28925484
1.6520464 4.4912157 2.6303504 0.971582 0.90834546 2.1184943 4.369925 2.68658
3.2288883 5.0774155 1.7295916 0.7640861 6.016681 3.2458055 2.3441107 2.422676
3.8896332 1.7133027 0.7193346 1.5155015 2.0227065 3.74271 0.93208 2.6242385
6.660939 2.0566611 2.0351279 7.7995796 1.1531337 5.8680644 2.3138566 6.064814

fc2.weight f4 [256, 512]
00000000: 1707 4bbd 9527 63bd ec3a d3bd 796a f9bd
00000010: fcde e8bb dd9a 1b3d 43f0 59bc 6382 74bd
00000020: 2db0 59bd eb2e 74bd 602f 3e3d 6f1b 1b3d
00000030: 7374 2fbd 6ba0 ca3b f744 7f3a d496 a5bc
00000040: 8ef5 b13b f0b5 4dbd eb00 32bd edd6 fdbc
00000050: 41d9 9dbc 9349 9ebd 05a9 06bd 03f1 263c
00000060: 83ff 3bbc 6264 9bbd a551 873c 92a4 93bb
00000070: 1c94 433c a9bb da3b 8ecf e4bc bcdd 9ebd
00000080: 953e 3cbe a438 42bd 8253 d6bd 71a5 e5bc
00000090: 2d9b bebc c613 e9bb 2079 bdbd 94bd 65bd
000000a0: ca70 a1bd 0734 4b3b d2f7 0b3d c148 bebd
000000b0: 879b e73b abcd 743b f0fe 233d abef 2c3d
000000c0: f690 933d 6a14 123d 6e8d dabd b2fc d4bc
000000d0: c72a 60bc 0ca1 99bd 5b34 ba3c 9fc2 28ba
000000e0: f053 09be af64 ccbd dfd5 2dbd ea21 bd3d
000000f0: 52c2 0f3d 4a90 27bd 3fb4 50bd b72f 62bc
00000100: 03f5 df3b 06b9 a1bd 00be 00bd 5705 cb3c
00000110: 1660 16bc 0511 db3d dc77 d4bb 28a2 89bd
00000120: f3f6 ed3c 1097 11bc 27ad 9fbd f136 273d
00000130: 5c15 96bd 6fb8 e03c e8f1 213d de47 053d
00000140: 2f0e 08bd 06d4 34be 94c6 ab3d c227 3f3c
00000150: d5a7 f2bc 1d94 883d 48fc d5bd 4498 c7bc
00000160: 0860 103d 83e0 17be 1ea0 a4bd 0ee9 bfbd
00000170: 5d62 87bb 33eb f13c 89f8 883d d722 fabc
00000180: 681a 643c 919e 12bd fcb1 d5bb 2e62 aa3d
00000190: d98f a63d b72a 393c b2fc 95bb b7b2 763d
000001a0: ae58 5dbd 7049 5d3d 74dd 423d cd3d c0bd
000001b0: 4689 28bc e2eb 2dbd 3598 16bd 92e7 063d
000001c0: 714b f0bd d19d 05bd fdd8 05bd 61db 0abe
000001d0: 0084 643d cc00 42bd f901 9bbd e8a2 563d
000001e0: 7172 ca3c fd20 353d d91f 853d 1ade 5fbd
000001f0: 7f4a b2bd e61a a0bc b248 dcbd bdf0 8dbd
00000200: 0d97 4fbd dcc5 cebb 40f9 03bd 6962 3e3c
00000210: 7acc 443d 937c 93bb c16a 08bd 5938 dabc
00000220: e6dc 1dbc 20c7 5bbd c691 ffbd f167 3fba
00000230: 6d8c 4b3c e1a5 25be 0e2f 663c 1942 71bd
00000240: 9ee1 383e b540 09bc 9930 d6bc a4c9 933c
00000250: df03 89bd 5196 7dbd 1f70 76bd 1a34 163d
00000260: 26d6 b33c 9cff 143d ff0d f6bc 54bc 8b3c
00000270: f2aa 0d3d 19ff 2d3c 5ab1 933c 97b1 edbc
00000280: 2103 c13c ebb8 ecbc fc7d 473d c899 f23c
00000290: b4fe 323b c4d4 d93c 5019 a2bd 8514 4bbc
000002a0: 172c cebc 526d 67bd d71f 9bbc f233 8bbd
000002b0: 186b 883a d531 05bd 18eb 3abd 9ec3 cd3d
000002c0: 943f 1f3d ac8b 083d 5367 ad3d beef 87bc
000002d0: 4b0f 5b3c fbaa 35bd f163 aebc 0f12 01bd
000002e0: eac5 1b3d 3aee e93b 04a4 633d 8639 36bd
000002f0: af6f 033d f032 05bd d76b 09bd c6ff 01bd
00000300: 418c 8bbd 6d8f 753d dbc4 7dbd 4f0c 36bc
00000310: 304a 2bbe f7f4 fdbc aca5 b83c b2ff 0d3d
00000320: d7bc 193d aed0 943d 68c5 2dbc e4b9 c1bc
00000330: ecf2 ccbd 741e 01bc c344 96bd 2d5d 02bd
00000340: 3a65 dbbd 460f f13b 32d4 bcbd a7bb c7bc
00000350: 3fce fdbb 5a47 3c3b 4156 8abd 2165 9f3c
00000360: bcec 0a3d b7c2 8cbd 1355 883d 868b 293c
00000370: 6c10 ddbd fd1c 5a3c 1d3a df3b 7e9d 20be
00000380: 7db9 e23c b9a7 b2bc 979c d93b 94c3 84bc
00000390: 0ebb fa3a 0c58 6b3d 7e55 16bd 411a 8ebc
000003a0: 6ea3 9c3c 99ba ac3c 385b 4abd 0b2b 68bc
000003b0: ee46 e6bc 45f8 a53d e505 ecbd beca 1cbd
000003c0: 16b6 203d 8e48 6a3c 0e71 b6bc de93 a3bc
000003d0: 15c2 cebd 9a73 f5bc 5758 0d3c e34d 03bd
000003e0: fcf5 c5bc a158 6bbd d125 e13c 71da 8b3c
000003f0: dc2b e4ba e639 7ebd 5934 1e3d f6ff 5bbd
-0.04956731 -0.05545767 -0.10313973 -0.12178511 -0.00710666 0.037989486 -0.013301912 -0.05969466
-0.05314653 -0.059615057 0.0464319 0.03786796 -0.042835664 0.006183674 0.00097377546 -0.020213522
0.0054308837 -0.050222337 -0.043457907 -0.030986274 -0.019268634 -0.07728877 -0.032876033 0.010189298
-0.011474493 -0.07587506 0.016518423 -0.0045057023 0.0119371675 0.006675203 -0.027931001 -0.07757136
-0.18383248 -0.047417298 -0.104651466 -0.02803299 -0.023267353 -0.007112953 -0.092516184 -0.056089
-0.07882841 0.0031006353 0.034171887 -0.092912205 0.007068101 0.0037354033 0.04003805 0.042220753
0.072053835 0.035664 -0.10671507 -0.0259994 -0.013682074 -0.075014204 0.022730043 -0.0006437692
-0.13410926 -0.09980141 -0.04244029 0.09234984 0.035097428 -0.04090909 -0.050953146 -0.013805321
0.0068346276 -0.078966185 -0.031431198 0.02478282 -0.009178182 0.106966056 -0.006484015 -0.06720382
0.029048419 -0.008886114 -0.07796698 0.04082388 -0.07328293 0.027431695 0.03953734 0.03253924
-0.03321665 -0.17659006 0.08387485 0.011667194 -0.029621044 0.06668875 -0.104485095 -0.024364598
0.035247833 -0.14831738 -0.080383524 -0.093706235 -0.004131599 0.029531097 0.06688029 -0.030534191
0.013922311 -0.035795752 -0.0065214615 0.083195075 0.081329055 0.011301688 -0.004577243 0.06022903
-0.05403965 0.054025114 0.047574475 -0.093867876 -0.010286635 -0.042461284 -0.03676625 0.032935686
-0.11733139 -0.03262121 -0.03267764 -0.13560249 0.055789948 -0.04736404 -0.07568736 0.052401453
0.024712773 0.044220913 0.06500215 -0.054655172 -0.08705615 -0.019544076 -0.10756053 -0.06930683
-0.050681163 -0.006310208 -0.032220125 0.0116201425 0.048046567 -0.0045009344 -0.033304933 -0.026638197
-0.009635186 -0.053656697 -0.12478976 -0.000730156 0.012423617 -0.16176559 0.014049305 -0.058900926
0.18054816 -0.008377244 -0.02614622 0.018040486 -0.066901915 -0.06191093 -0.06016552 0.03667078
0.0219527 0.03637658 -0.03003597 0.017057575 0.034586854 0.010619902 0.018028904 -0.029015345
0.023561062 -0.02889677 0.048704132 0.029614344 0.002731246 0.026590712 -0.07914984 -0.012395029
-0.025167508 -0.05650074 -0.01893608 -0.06797017 0.0010407893 -0.032518227 -0.04563436 0.10047077
0.038878992 0.033336326 0.08466973 -0.01659381 0.013370345 -0.044352513 -0.02128789 -0.031511363
0.038030542 0.0071389945 0.05557634 -0.044488452 0.03208893 -0.03251928 -0.03355011 -0.031738065
-0.06813861 0.059951235 -0.061955314 -0.011111333 -0.16727519 -0.031000597 0.022539936 0.03466768
0.037533607 0.07266365 -0.010606147 -0.02364821 -0.10007271 -0.007880796 -0.07337334 -0.03182714
-0.10712667 0.007356557 -0.092201605 -0.024381472 -0.0077455337 0.0028729052 -0.06754733 0.019457402
0.033917174 -0.068730764 0.066568516 0.010348206 -0.10794148 0.013312575 0.0068123476 -0.15685079
0.027676338 -0.021808492 0.0066409814 -0.01620654 0.0019129233 0.057457015 -0.036702625 -0.017346503
0.019120898 0.02108507 -0.0494034 -0.0141704185 -0.028109994 0.08103994 -0.11524562 -0.038279288
0.03923615 0.014299525 -0.022270706 -0.01996797 -0.10095612 -0.02996235 0.008627019 -0.0320567
-0.024165146 -0.05745757 0.027483853 0.017071934 -0.0017408091 -0.062066935 0.03862414 -0.0537109

fc2.bias f4 [256]
00000000: 4e51 acbc ea9a 8bbc 391f b8bc ab9e 10bd
00000010: d091 eabc 9fcc 0f3d b48f 1cbd 4623 96bc
00000020: 8fb6 27bb bc9d c83c 4713 bcbc 54c7 4ebc
00000030: 3f6c 84bb ed38 26bd df4f 203d 47e1 6f3c
00000040: 915b 2a3d de45 cf3c 772b ff3b cc50 a03c
00000050: f6ef b23b d157 1ebd 699f d2bc 07e0 29bc
00000060: 4d11 28bd e92d c9bc eb7a 2b3d b7c2 de3c
00000070: 7e86 823b 0777 2c3d 0ad5 4fbc 1c71 8ebc
00000080: 528c f63c 2de9 1a3c 209e 3bbc 816c 18bd
00000090: 67e5 f03c e591 ee3c 5825 0d3d 1c5b b9bc
000000a0: 74f1 91bb 0ac2 81bc 548d ec3c e8f6 933c
000000b0: f9d1 3a3c c7e0 2e3c 520d 313d c987 bc3c
000000c0: d768 283d b83e d7bc 512f 0a3c 7a2e 933c
000000d0: 4bbf 9abc 09fc e43b 1e4a 26bd 8e04 753b
000000e0: c1fa e8bb 5afa 1c3d ac50 2cbc e21d 253d
000000f0: 0ed2 713c 42cc f1ba 0164 51bc 4918 183d
00000100: f026 bc3b f798 a2bc d3f9 1f3d fb8a 13bd
00000110: a983 23bd ac58 ed3c 27d8 08bc eb6b c8ba
00000120: d9e8 7bbc 06cd 2b3d f25d 2ebd 7cfa 993b
00000130: 143b 873c 5b55 9abc 8e75 223d 4b74 b43c
00000140: ebce c33c 2ce5 69bc 105c bf3c b3b2 0b3d
00000150: b763 55bb e2e2 8f3b 3e1e 023d d73f 413c
00000160: fe59 33bd 0cb3 c53c 2fa5 273c 3721 28bd
00000170: 6543 a43a c7c3 023c 683d ec3c 5241 fd3c
00000180: 0480 343d ec4c 133c 47b6 e8bb 456c 8c3c
00000190: 8a72 3a3c 7b05 1f3c 4b8b b9bc 486e 0e3d
000001a0: 4508 8d3c 6e62 b23b 03c6 24bd bd14 99bb
000001b0: 242d afbc fffb 183d 9aec 123d 2e7e 8abc
000001c0: cc68 a53c 17fd 01bd 33d4 3ebc 8735 b23c
000001d0: f774 f5bc d47c f43c f6c8 8cbc fd9f 07bd
000001e0: 19d0 16bc 3818 123d 9a6e d83c dc13 bcbc
000001f0: 93c5 103d 1d45 d8bc 5b7a 7e3c 22bf 003d
00000200: 699f 1e3d ef13 06bd 2f83 bebc d972 05bd
00000210: a86a 043d 394a b53b 6f0f a03c 5620 9cbb
00000220: 86fe b33c bbf8 273c e7cd 273d eb84 6a39
00000230: 6200 ff3c 20da 973b b5cc 683c 3237 c5bc
00000240: 4364 073d 822e e4bc e681 0dbd 6486 933a
00000250: 7d0e 0cbc bcff 16bc 0941 01bd 96df 083d
00000260: d3c8 1abd 27e0 85bc b406 c93c b39c c03c
00000270: 4ffa 54bc 9fb3 6c3c bd0f 3bbc c0db 75ba
00000280: 89f3 07bd 88e8 8bbb 0875 a33c 6c9b e4bc
00000290: 0bcf 603b 5b60 04bb 32bc 0ebd 9fe7 05bd
000002a0: b329 fcbc d059 f43b 6443 2a39 3629 05bd
000002b0: 4deb 87bc 8049 b03c 5e69 cd3c 530f 163d
000002c0: 94dc 01bd 6618 543c 2782 d7bc a9b8 d4bc
000002d0: 67ea 243d fb56 c03c d320 72bc 088f e0bc
000002e0: e669 f63c d677 973c d886 2d3d 504d 04bd
000002f0: 6994 563c 9f3e 53bc 686d 9a3c ea6e 253d
00000300: 9031 883c 40a7 c2bc 4eac 093d 43b0 b7bc
00000310: 526c a9bc ebab ec3c 2d3e 14bd dc2d c0ba
00000320: 789b 2d3c 34c0 9a3c b324 9cbc afdc 023d
00000330: 2e67 84bc ff71 2b3d 05c1 e6bc 1757 793c
00000340: ac60 a1bc 935d b83c 5015 83bc e18f 273d
00000350: 55db e53c 2d85 abbc 1b38 1e3d 8178 54bc
00000360: a577 753c 1135 cc3c 9c67 9dbb 1db5 07bd
00000370: 6b0d 3d3c 485c 143c 56a8 2ebd ac74 9bbc
00000380: c3ad 283d fbca 0bbd a08e 5b3b 53f6 eabc
00000390: 018f 0d3c deca 283d 7d14 2e3d c2df 4ebc
000003a0: f3a1 123d a2c1 f6bb 7cec 313d 29dd 223c
000003b0: 1427 47b9 d00a 1dbd 87f8 733b a713 983c
000003c0: 3f09 e4bc 1774 82bc 4611 2ebd d93e cfbb
000003d0: 8708 5f3c 0aaa 03bd fd97 1aba dd8f bcbc
000003e0: c949 20bd bd1f 043d eb84 8a3b cbae ef3c
000003f0: 3c26 21bc 2c3c c63c 4a81 05bb 64de c7ba
-0.021034863 -0.017041642 -0.022475826 -0.035307568 -0.028633982 0.03510725 -0.038222983 -0.018327367
-0.002559099 0.024489276 -0.02295841 -0.012620766 -0.0040412243 -0.040581632 0.03913867 0.014641113
0.04159123 0.02530187 0.007787164 0.019569777 0.0054607345 -0.038657967 -0.025710778 -0.010368354
-0.041032124 -0.024558024 0.04186527 0.027192457 0.003983318 0.0421057 -0.01268507 -0.01738792
0.030096207 0.0094550075 -0.011451274 -0.037212852 0.029406263 0.029122302 0.034459442 -0.022626452
-0.0044538323 -0.015839595 0.028875984 0.01806207 0.0114026 0.010673708 0.043225594 0.023013966
0.041115608 -0.026275024 0.008434133 0.017966498 -0.018890044 0.0069880527 -0.040598027 0.0037386748
-0.0071099703 0.03832469 -0.010517281 0.0403117 0.014759554 -0.0018447714 -0.01278019 0.037132535
0.0057419464 -0.01984833 0.03905661 -0.036021214 -0.039920483 0.028972946 -0.008352316 -0.0015290951
-0.015375339 0.041943572 -0.042570062 0.0046990495 0.016507663 -0.018839529 0.03966289 0.022028109
0.023902377 -0.01427583 0.023359329 0.034105968 -0.0032560655 0.00439106 0.031767122 0.011795006
-0.043786995 0.024133228 0.010232254 -0.0410473 0.0012532292 0.007981247 0.028837875 0.030914936
0.044067398 0.008990508 -0.0071018073 0.01714147 0.011379847 0.0097058965 -0.022649428 0.03477314
0.017215857 0.0054438626 -0.0402279 -0.0046716616 -0.02138383 0.037349697 0.035870172 -0.01690587
0.020191573 -0.031735506 -0.011647272 0.02175404 -0.029963 0.029844679 -0.01718567 -0.03311156
-0.009204888 0.035667628 0.026419926 -0.022958688 0.03534467 -0.026400143 0.0155321015 0.03143228
0.038726244 -0.032733854 -0.023255913 -0.03258023 0.032328278 0.0055325297 0.01953861 -0.004764597
0.021971952 0.010252173 0.04096785 0.00022365495 0.031128112 0.004634157 0.014208962 -0.02407417
0.0330546 -0.027854208 -0.03454771 0.0011255261 -0.008548376 -0.009216245 -0.031556163 0.033416353
-0.037789177 -0.016342236 0.02453933 0.02351222 -0.012999131 0.014447122 -0.0114173265 -0.00093787536
-0.033191238 -0.0042696632 0.019953266 -0.027906142 0.0034303095 -0.0020199034 -0.034847446 -0.032691594
-0.030781602 0.0074569955 0.00016237568 -0.032510005 -0.016591692 0.021519423 0.025074657 0.036635708
-0.0317045 0.01294527 -0.026307179 -0.02596696 0.040262606 0.023478976 -0.014778334 -0.027411953
0.030079793 0.01848976 0.042364925 -0.032300293 0.013096907 -0.012893348 0.018850997 0.04038898
0.016625196 -0.023761392 0.03361159 -0.022422915 -0.020681534 0.02889057 -0.036192108 -0.0014662105
0.010596149 0.018890478 -0.019060468 0.03194874 -0.016162481 0.041856762 -0.02816821 0.015218518
-0.019699417 0.022505557 -0.016001374 0.040908698 0.028058687 -0.020937527 0.038627725 -0.0129681835
0.014982139 0.024927648 -0.004803611 -0.033131707 0.011538844 0.009055205 -0.042641006 -0.018976532
0.041181337 -0.034129124 0.003350176 -0.02868191 0.008640052 0.041209094 0.042500008 -0.01262659
0.035798978 -0.007530407 0.04343842 0.009940424 -0.00018992677 -0.03834039 0.0037226991 0.018564058
-0.02783644 -0.015924497 -0.042496942 -0.0063246307 0.013612873 -0.032144584 -0.0005897282 -0.023017818
-0.039132867 0.03225683 0.004227271 0.029258152 -0.009835776 0.024198614 -0.0020371252 -0.0015248773
