checkpoint_critic0_solved.pth (torch_old, 580597 bytes, 5 tensors)

fc1.weight f4 [512, 24]
0.017240984 -0.015414221 0.0043674363 -0.008665613 0.0819231 0.057079732 0.007266407 0.052934602
0.031324364 -0.034819935 0.027018068 0.08335077 -0.019554054 -0.054624338 0.028799249 0.046032086
0.047480285 -0.003142566 0.001891838 -0.014962186 -0.109796844 -0.15457283 0.008735826 -0.016481929
0.012963359 -0.034661062 -0.0054855007 -0.019969057 0.015120024 -0.08586806 0.0052652243 0.012433329
0.021131704 -0.077969156 -0.0071805883 0.029174035 -0.031615727 0.051941715 0.011936455 -0.005320813
0.014951447 -0.040780067 0.01729756 -0.044576854 -0.078725085 0.23517516 -0.007593022 0.019631354
0.06977671 0.04021187 -0.04016571 0.0039582415 -0.050108597 0.051951468 0.003281748 0.04732279
0.0052219387 -0.035768114 0.029214023 -0.0032864916 0.025968874 -0.071663715 -0.01541022 -0.022426866
0.02038022 -0.038679298 0.022036966 -0.013843374 0.03681416 -0.18717228 -0.02491916 -0.037812572
0.034561418 -0.038825512 -0.013554313 -0.013157417 0.038398042 -0.12913242 0.019226713 -0.008058688
-0.03492788 -0.040719423 -0.024837978 -0.03799815 0.03442483 -0.04728284 -0.018637568 -0.03704414
0.034420975 -0.023691496 -0.01788106 0.029335653 0.064245895 -0.057947025 0.01991889 -0.0017265489
-0.0005785273 -0.010868417 0.006159222 -0.017663332 -0.10916251 -0.07216961 -0.0064158305 0.04060985
-0.0051901834 -0.046564616 -0.025489133 0.0126645 0.0036213372 0.085327245 0.020606998 -0.039136715
-0.001801288 -0.1041025 0.010733101 -0.010632873 0.11974041 0.19661792 -0.02255012 0.03744103
0.039508957 0.13139375 -0.006075542 0.041576378 -0.02956943 -0.08221312 0.0128600225 0.034073718
0.016354142 0.19011098 0.048197553 0.03919144 -0.017357491 -0.17002876 -0.02441878 0.05212141
0.006956494 0.17325452 3.214023e-05 0.032205053 -0.02607449 -0.0800584 0.012177497 -0.014836768
0.0119873285 0.052673604 0.0060614226 -0.092248 -0.043563873 -0.14535223 -0.031393062 -0.09072735
0.004336728 0.041714184 -0.00399862 -0.02367934 -0.026967624 -0.13488144 0.046500277 -0.016830267
0.036222007 0.022702072 0.008541234 0.02727931 0.039695736 -0.10008055 -0.022252608 0.0041492293
0.031641904 -0.03081238 -0.02949567 -0.03564714 0.05809005 -0.016180309 -0.016991802 0.033408076
0.030682072 -0.064451344 0.009272089 -0.026768925 0.04013613 -0.07832413 -0.013662044 0.0017552754
0.07239427 -0.060576767 0.0031475348 0.05796904 -0.04674285 0.053633757 0.016413677 -0.018227858
-0.01642014 -0.0602714 0.006690721 0.03179095 0.0016253087 -0.068542555 -0.010695982 0.012874621
-0.002683903 -0.00018544219 -0.02642877 -0.014238716 -0.050659332 -0.08905389 0.011591563 0.025943208
0.008777884 0.02554718 -0.024288833 -0.013183655 0.061592977 0.05637948 0.01613386 -0.04411906
0.07886907 0.04147071 -0.010498766 -0.061911136 -0.003346352 -0.13414744 -0.019355763 -0.01695123
0.11053241 0.0061393883 -0.014607432 0.021990392 -0.03538873 -0.14395007 0.0029062121 0.039164517
-0.023797918 -0.046989884 0.025925724 0.009333826 0.072117984 -0.013676522 0.00340105 0.07702901
0.04230927 -0.05089618 -0.010028221 -0.032064024 -0.042006552 -0.025355708 0.029737812 -0.015636526
0.069748834 -0.11440793 0.0018730251 0.039232377 0.038307767 -0.08045357 -0.012515153 0.0026145102
00000000: f73c 8d3c ee8b 7cbc b61c 8f3b 37fa 0dbc
00000010: 4cc7 a73d 70cc 693d 0a1b ee3b f4d1 583d
00000020: fa4d 003d 599f 0ebd ff54 dd3c cfb3 aa3d
00000030: d32f a0bc c5bd 5fbd 67ec eb3c 248c 3c3d
00000040: b07a 423d 82f3 4dbb 8df7 f73a f523 75bc
00000050: 2bdd e0bd 5748 1ebe b620 0f3c 1c05 87bc
00000060: 4564 543c c2f8 0dbd b7bf b3bb 2696 a3bc
00000070: fab9 773c 98db afbd e787 ac3b 29b5 4b3c
00000080: 651c ad3c 4bae 9fbd 244b ebbb 63fe ee3c
00000090: 7e7f 01bd d6c0 543d 1f91 433c 375a aebb
000000a0: eaf6 743c 0009 27bd 9db3 8d3c 3896 36bd
000000b0: 9e3a a1bd c2d1 703e e3ce f8bb efd1 a03c
000000c0: 17e7 8e3d 34b5 243d cd84 24bd 23b4 813b
000000d0: ac3e 4dbd 10cb 543d 9812 573b 8bd5 413d
000000e0: cc1c ab3b 9681 12bd 3f52 ef3c 2e62 57bb
000000f0: adbc d43c 6dc4 92bd 267b 7cbc 8cb8 b7bc
00000100: 6bf4 a63c 2f6e 1ebd de86 b43c 52cf 62bc
00000110: 72ca 163d 17aa 3fbe 4423 ccbc 5be1 1abd
00000120: 4690 0d3d 8007 1fbd e912 5ebc 3592 57bc
00000130: 4447 1d3d 4a3b 04be 5781 9d3c 9608 04bc
00000140: 8910 0fbd 69c9 26bd 0479 cbbc f3a3 1bbd
00000150: 0d01 0d3d a7ab 41bd d0ad 98bc 99bb 17bd
00000160: 02fd 0c3d ab14 c2bc 4d7b 92bc 5351 f03c
00000170: 5a93 833d dc59 6dbd f12c a33c 5e4d e2ba
00000180: 4fa8 17ba 7211 32bc 4dd3 c93b b1b2 90bc
00000190: 9890 dfbd a9cd 93bd e33b d2bb 8456 263d
000001a0: 6a12 aabb 8aba 3ebd 96ce d0bc c37e 4f3c
000001b0: f553 6d3b 0dc0 ae3d 02d0 a83c d24d 20bd
000001c0: 3219 ecba b133 d5bd e3d9 2f3c 8035 2ebc
000001d0: 763a f53d 3556 493e 07bb b8bc c45b 193d
000001e0: 25d4 213d 158c 063e 5715 c7bb fe4b 2a3d
000001f0: 973b f2bc 5a5f a8bd d8b2 523c e290 0b3d
00000200: 1ff9 853c 74ac 423e cc6a 453d 3487 203d
00000210: 4c31 8ebc 051c 2ebe e509 c8bc 427d 553d
00000220: 4df3 e33b a269 313e 4fce 0638 72e9 033d
00000230: 2b9a d5bc a9f5 a3bd 2084 473c ea15 73bc
00000240: 8066 443c 47c0 573d e69e c63b 85ec bcbd
00000250: 0870 32bd 37d7 14be 0396 00bd 43cf b9bd
00000260: 1c1b 8e3b 7edc 2a3d db06 83bb 2dfb c1bc
00000270: 35eb dcbc 5c1e 0abe 1377 3e3d a1df 89bc
00000280: 875d 143d b2f9 b93c 88f0 0b3c dc78 df3c
00000290: ff97 223d 08f7 ccbd 1a4b b6bc 42f6 873b
000002a0: f19a 013d 3f6a fcbc e7a0 f1bc bc02 12bd
000002b0: d5ef 6d3d 918c 84bc 6432 8bbc e8d6 083d
000002c0: f858 fb3c 11ff 83bd f6e9 173c 814a dbbc
000002d0: c865 243d 6768 a0bd c4d6 5fbc 4511 e63a
000002e0: 7243 943d 581f 78bd df46 4e3b f270 6d3d
000002f0: 6e75 3fbd 12af 5b3d fa75 863c 9752 95bc
00000300: 8883 86bc 25df 76bd d63d db3b 3a37 023d
00000310: 4f08 d53a 0a60 8cbd 333e 2fbc 13f0 523c
00000320: 6ce4 2fbb 4273 42b9 2681 d8bc 8149 69bc
00000330: 2980 4fbd e361 b6bd 8aea 3d3c da86 d43c
00000340: 1dd1 0f3c 5248 d13c 60f9 c6bc 4200 58bc
00000350: eb48 7c3d 2bee 663d 282b 843c 30b6 34bd
00000360: 1b86 a13d 31dd 293d 0403 2cbc 8896 7dbd
00000370: 784e 5bbb f25d 09be fa8f 9ebc 4edd 8abc
00000380: d15e e23d ec2c c93b 0354 6fbc 3225 b43c
00000390: c6f3 10bd a667 13be 2676 3e3b f96a 203d
000003a0: daf3 c2bc 7778 40bd 2f62 d43c e7ec 183c
000003b0: 98b2 933d 7e13 60bc 27e4 5e3b 63c1 9d3d
000003c0: 7c4c 2d3d 8378 50bd 684d 24bc 9155 03bd
000003d0: 100f 2cbd c6b6 cfbc b69c f33c 2c18 80bc
000003e0: 7ad8 8e3d b44e eabd 4b80 f53a 21b2 203d
000003f0: 9be8 1c3d d7c4 a4bd 5b0c 4dbc 3458 2b3b

fc1.bias f4 [512]
-0.20442067 0.04965445 0.1504456 -0.15750195 -0.18874215 0.037388623 -0.14099522 -0.14648634
0.17324556 0.077955395 0.104139976 -0.22097252 -0.123927206 -0.010742514 -0.18500401 -0.13657074
0.1630021 -0.2676891 -0.027425425 0.100796744 0.13342705 0.15000127 0.09875212 0.088926226
-0.19912037 -0.22081812 0.18806104 -0.008233973 0.14841285 0.13542013 -0.13739082 -0.060903337
-0.1068649 0.09695936 -0.08260063 0.017438201 0.16315505 -0.11301902 -0.082258105 -0.17587055
0.13200589 0.029334012 0.12572688 -0.06547719 0.1538049 -0.17543888 -0.15587011 0.20478563
0.07304278 0.037637647 -0.0052099195 -0.030562324 0.14567137 0.03188043 -0.17430633 -0.03741644
-0.18061134 -0.2235192 0.17660604 0.13064213 -0.21502271 -0.13716388 -0.15552089 -0.052769184
-0.1966638 -0.03513408 -0.16711308 0.14246005 0.10500124 0.0829917 -0.16441207 0.026776949
0.19148605 -0.13298787 -0.15970859 -0.19114904 -0.008091514 0.05195427 -0.13700725 0.23433736
-0.119221315 -0.20690474 0.16157696 -0.17284277 0.076792106 0.07367005 0.0045529907 -0.10996195
0.03109838 0.18445344 -0.19304895 0.1910569 0.15973994 -0.22872314 0.0037359572 -0.07559928
0.12557603 -0.13127774 0.050986692 -0.17953014 -0.02667507 -0.17318329 0.10761381 0.20790938
-0.20253006 0.12273659 0.07610978 0.030467378 -0.03912196 0.048515808 -0.15717103 0.1828514
-0.20968242 0.2393511 -0.16156006 -0.11514988 0.22173712 0.1923972 -0.16959603 5.531337e-05
-0.20949432 0.18639076 -0.14489488 -0.106774144 -0.068974294 -0.096543774 0.19021879 0.036041275
-0.05487432 -0.14409728 -0.09860807 -0.23635808 0.18413238 -0.15432855 -0.12587483 0.100644045
0.013335095 0.21722704 0.0937885 -0.0652634 -0.14588164 0.09598697 -0.25120306 0.06594305
-0.0074376273 0.053876657 -0.14567833 -0.056409057 -0.12070774 0.116999 0.1981175 0.21002842
-0.2014854 0.12043064 -0.15822768 0.08514805 -0.10792257 0.24378094 -0.11086054 -0.26952934
0.14343525 0.1224279 -0.09673128 0.15864855 -0.21021523 0.008496608 0.079200186 -0.06659223
-0.20898618 -0.21362339 -0.23492594 -0.16400877 -0.14944214 -0.009373448 -0.21604444 -0.03618488
0.045994174 -0.061674055 -0.19460063 -0.12153887 0.17232257 0.212368 -0.22565348 0.008860635
0.13316727 -0.11265771 0.1972584 -0.21416968 0.14545833 0.111541234 0.048682205 0.025616333
-0.028099287 0.17988706 0.080152266 0.11454789 0.16792636 0.027135994 0.19784671 0.16430587
-0.048565406 0.1818002 -0.00066359603 0.12681022 -0.12909727 -0.12404757 -0.0045835595 0.08450678
-0.16243188 0.13012968 0.1457935 -0.039662413 0.051692415 -0.19247957 -0.09510672 -0.09387782
0.26535684 -0.024840822 -0.024475269 -0.18528716 -0.103516646 -0.11641661 -0.20340025 -0.21993726
-0.00016505226 0.18702047 0.05557213 0.11888835 -0.23224968 0.09922119 0.14650619 0.15931894
-0.03167534 0.020257276 -0.063606635 -0.028095335 -0.16523568 0.0706195 0.21520004 -0.08491749
-0.18403359 0.102613226 -0.04726189 -0.1059578 0.14578651 0.20388305 0.016043322 -0.11732449
-0.16717035 0.04307208 0.1915334 -0.13396795 -0.073377214 0.16750818 -0.13160753 -0.076799236
00000000: a753 51be 7762 4b3d 690e 1a3e 3148 21be
00000010: 9f45 41be d024 193d 0d61 10be 8400 16be
00000020: 4967 313e 14a7 9f3d 5747 d53d 9f46 62be
00000030: 8ccd fdbd 5f01 30bc b171 3dbe 33d9 0bbe
00000040: 06ea 263e 8c0e 89be 49ab e0bc 866e ce3d
00000050: 1aa1 083e ef99 193e 8d3e ca3d f41e b63d
00000060: 36e6 4bbe 251e 62be 1393 403e c9e7 06bc
00000070: 8af9 173e 93ab 0a3e 2eb0 0cbe c775 79bd
00000080: fcdb dabd a192 c63d 852a a9bd 8fda 8e3c
00000090: 1e12 273e 8476 e7bd f076 a8bd 6917 34be
000000a0: 8d2c 073e e24d f03c 8cbe 003e e818 86bd
000000b0: 087f 1d3e 40a6 33be 6a9c 1fbe 53b3 513e
000000c0: 7497 953d ef29 1a3d f9b7 aabb d75d fabc
000000d0: e02a 153e 0e95 023d 5c7d 32be fb41 19bd
000000e0: 2ef2 38be 38e2 64be 37d8 343e 0dc7 053e
000000f0: ea2e 5cbe b074 0cbe de40 1fbe 8024 58bd
00000100: 3c62 49be c1e8 0fbd b11f 2bbe 0ce1 113e
00000110: e40a d73d 8df7 a93d a35b 28be 555b db3c
00000120: eb14 443e f92d 08be a68a 23be 93bc 43be
00000130: 4592 04bc 00ce 543d a14b 0cbe 22f6 6f3e
00000140: 4e2a f4bd d6de 53be 6e74 253e b2fd 30be
00000150: 2e45 9d3d 53e0 963d 4131 953b bb33 e1bd
00000160: 08c2 fe3c 5de1 3c3e a0ae 45be 6ca4 433e
00000170: de92 233e 6636 6abe f6d6 743b ccd3 9abd
00000180: 0197 003e ac6d 06be 6cd7 503d c0d6 37be
00000190: ad85 dabc f656 31be a164 dc3d 32e6 543e
000001a0: 0a64 4fbe 525d fb3d 72df 9b3d b996 f93c
000001b0: 593e 20bd 83b8 463d 71f1 20be 663d 3b3e
000001c0: fdb6 56be 7418 753e 0070 25be b3d3 ebbd
000001d0: 0e0f 633e c603 453e 95aa 2dbe 4700 6838
000001e0: ae85 56be 38dd 3e3e 535f 14be 67ac dabd
000001f0: 6542 8dbd beb8 c5bd b7c8 423e 04a0 133d
00000200: e5c3 60bd 3d8e 13be 07f3 c9bd da07 72be
00000210: 338d 3c3e 4e08 1ebe 55e5 00be 771e ce3d
00000220: 717b 5a3c c470 5e3e 2f14 c03d d1a8 85bd
00000230: ff61 15be d194 c43d b09d 80be 260d 873d
00000240: 57b7 f3bb c5ad 5c3d b32c 15be 2f0d 67bd
00000250: 9f35 f7bd 2c9d ef3d 50df 4a3e b111 573e
00000260: 3052 4ebe 57a4 f63d 7006 22be 1a62 ae3d
00000270: 8206 ddbd b6a1 793e da0a e3bd c0ff 89be
00000280: b1e0 123e 7bbb fa3d 0d1b c6bd c474 223e
00000290: a942 57be 5b35 0b3c b533 a23d 8261 88bd
000002a0: 7900 56be 17c0 5abe 6d90 70be eaf1 27be
000002b0: 5c07 19be 1793 19bc c13a 5dbe 9936 14bd
000002c0: 6364 3c3d ef9d 7cbd 6345 47be 5fe9 f8bd
000002d0: 5475 303e ff76 593e b511 67be 322c 113c
000002e0: 005d 083e 16b9 e6bd 1bfe 493e 4c4f 5bbe
000002f0: 07f3 143e bb6f e43d fe66 473d 58d9 d13c
00000300: 7a30 e6bc 5034 383e df26 a43d 1698 ea3d
00000310: e3f4 2b3e 4e4c de3c 5498 4a3e cc3f 283e
00000320: 85ec 46bd d529 3a3e 2df5 2dba 8ada 013e
00000330: 1332 04be a70c febd af31 96bb e411 ad3d
00000340: 8b54 26be b740 053e e44a 153e 0e75 22bd
00000350: 6dbb 533d 5d19 45be 50c7 c2bd 0443 c0bd
00000360: dadc 873e fb7e cbbc 5c80 c8bc ebbb 3dbe
00000370: 8900 d4bd d56b eebd 2848 50be 3c37 61be
00000380: e111 2db9 4b82 3f3e 9a9f 633d bc7b f33d
00000390: dcd2 6dbe 7b34 cb3d b805 163e 8124 233e
000003a0: 00be 01bd 96f2 a53c 3244 82bd 3028 e6bc
000003b0: 8b33 29be f5a0 903d 665d 5c3e 39e9 adbd
000003c0: 4d73 3cbe e226 d23d af95 41bd 6700 d9bd
000003d0: 0f49 153e b8c6 503e 496d 833c d247 f0bd
000003e0: b42e 2bbe 596c 303d 5521 443e e52e 09be
000003f0: cb46 96bd 4487 2b3e 20c4 06be eb48 9dbd

fc2.weight f4 [256, 514]
-0.100496575 -0.047213707 -0.0041204058 -0.062303238 -0.07978068 0.040258214 -0.060072467 -0.019659415
-0.056199614 -0.005269077 0.0032713378 -0.014546968 0.088431776 0.021771058 -0.015953047 0.030145071
0.07459438 0.0058150296 0.02656681 0.038594525 -0.053270135 -0.03887382 -0.117481895 0.09368253
-0.047358412 -0.05508803 0.009956591 -0.008001333 -0.17501071 -0.0407049 -0.015152691 -0.07713347
0.009850726 -0.024027701 -0.0146383075 -0.052980825 -0.105526835 -0.0025904824 -0.019360593 -0.069245726
0.018463325 -0.035527933 -0.10337336 -0.07458027 -0.11139724 0.03420628 -0.048778035 -0.010799884
-0.028079232 -0.06873662 -0.047643367 0.03581312 -0.05255545 -0.044397116 -0.06822487 0.025055015
0.0065177134 -0.002342834 -0.07823349 -0.073704965 -0.000782574 0.032149415 0.012819125 -0.016790038
0.067921236 -0.07945364 -0.033267975 -0.0167663 -0.008834438 -0.056371327 -0.078034505 0.06829099
0.04930762 -0.00230582 -0.05421357 -0.024415758 0.019407395 -0.14843051 -0.09622686 -0.00058663124
0.03167128 -0.0053549344 -0.07100911 0.01871708 -0.00975149 -0.022778504 0.011542539 -0.09348127
-0.10790376 0.008480233 -0.027291264 0.008197438 -0.0012391682 -0.09250461 -0.08205472 -0.065797485
0.02122582 -0.029052712 -0.025557758 0.040076435 -0.036124848 0.024099277 -0.028657036 0.0109100165
-0.016682127 0.0065471088 -0.14141618 0.02423206 0.030141298 0.06772274 -0.051959287 0.042228732
0.018589139 0.062434826 -0.10483126 -0.11007568 0.045657404 -0.023482189 -0.0044596856 -0.059752155
0.0634255 0.01649549 -0.022301728 -0.053800408 0.031311028 -6.761909e-05 0.03046116 -0.038431875
0.027557818 -0.113515355 0.00957374 -0.042159736 0.009195619 -0.00052539475 -0.02409968 -0.0028360372
-0.07485596 0.03442085 0.048171513 -0.03628288 -0.048509765 -0.018646147 0.012051413 -0.045939542
-0.0047854567 0.065414436 0.015879968 -0.055244695 0.100967936 -0.042792216 -0.020424174 0.03665748
0.029447488 0.019665202 -0.023860749 -0.05277653 -0.0010668773 -0.0020665377 -0.041795906 0.050094582
0.05122021 0.05264412 -0.08430969 -0.038771573 -0.05354606 -0.041421216 0.026667882 -0.0042681866
-0.11241984 -0.12361619 -0.009321182 -0.04372352 0.047974702 -0.1355143 0.058810372 0.014367177
0.039157126 -0.014873907 -0.0026685677 0.042937595 -0.049485907 -0.015561192 0.011408162 0.07921873
-0.0057103494 -0.016148914 -0.041968066 0.010283802 -0.029892867 0.030673098 -0.016901188 -0.106423385
-0.040057052 -0.03780737 0.042759944 -0.030956823 0.009797996 -0.020466277 0.03471355 -0.028914252
-0.024547143 -0.10335468 -0.012025984 -0.07809286 0.023297826 0.00846878 0.035884652 0.0096970545
0.027050432 0.015608231 0.06708105 -0.030883532 -0.063894264 -0.014632243 0.03267236 0.05310996
0.061551243 0.068363145 0.0026780637 -0.11417299 0.05609286 -0.004524565 -0.013276081 -0.03298745
-0.021066848 0.086728565 -0.040443804 -0.108569525 -0.068149924 -0.07277254 -0.12821504 0.004363167
-0.052284304 0.0053834696 -0.08857942 -0.021307772 -0.04352625 0.09450646 0.033566993 -0.067935936
0.016809698 -0.07440646 0.03306633 0.02177101 -0.0043239356 -0.030647423 0.011142494 -0.01644545
-0.04122648 -0.051128197 -0.04174793 -0.07310963 -0.06369549 0.076586075 -0.02162112 -0.10667262
00000000: 26d1 cdbd 2963 41bd 7804 87bb ae31 7fbd
00000010: 0e64 a3bd cce5 243d 8c0e 76bd c80c a1bc
00000020: 9131 66bd 39a8 acbb f163 563b 6856 6ebc
00000030: b81b b53d 3859 b23c f7af 82bc ccf2 f63c
00000040: f0c4 983d 018c be3b a4a2 d93c 4b15 1e3d
00000050: c931 5abd 283a 1fbd 599a f0bd a0dc bf3d
00000060: e5fa 41bd fca3 61bd f820 233c 0618 03bc
00000070: 0236 33be 2eba 26bd fe42 78bc 27f8 9dbd
00000080: f164 213c bed5 c4bc 83d5 6fbc 6c02 59bd
00000090: 741e d8bd 15c5 29bb 1b9a 9ebc b4d0 8dbd
000000a0: 6640 973c bd85 11bd 6ab5 d3bd 8abd 98bd
000000b0: 3c24 e4bd e21b 0c3d 7acb 47bd fff1 30bc
000000c0: 6b06 e6bc c9c5 8cbd b125 43bd c7b0 123d
000000d0: 6244 57bd c0d9 35bd 7bb9 8bbd 2d40 cd3c
000000e0: 8b92 d53b 3b8a 19bb e138 a0bd a1f2 96bd
000000f0: a725 4dba 1baf 033d 4f07 523c 438b 89bc
00000100: 4a1a 8b3d 97b8 a2bd 0044 08bd 7b59 89bc
00000110: 52be 10bc 9fe5 66bd 8ed0 9fbd 26dc 8b3d
00000120: c9f6 493d 3d1d 17bb 0c0f 5ebd 8e03 c8bc
00000130: 42fc 9e3c 2bfe 17be 9712 c5bd 28c8 19ba
00000140: beb9 013d 7278 afbb 396d 91bd 9054 993c
00000150: b7c4 1fbc fc99 babc eb1c 3d3c 1c73 bfbd
00000160: a6fc dcbd adf0 0a3c ee91 dfbc 8c4e 063c
00000170: 966b a2ba 0f73 bdbd 4e0c a8bd d5c0 86bd
00000180: c5e1 ad3c f4ff edbc 815e d1bc 3027 243d
00000190: a6f7 13bd d96b c53c 29c2 eabc edbf 323c
000001a0: f5a8 88bc 2189 d63b 67cf 10be 5082 c63c
000001b0: e2ea f63c 38b2 8a3d 43d3 54bd 09f8 2c3d
000001c0: 4048 983c a9bb 7f3d c6b1 d6bd 5c6f e1bd
000001d0: 4203 3b3d b85d c0bc 8e22 92bb adbe 74bd
000001e0: 3be5 813d 8d21 873c 1db2 b6bc d15d 5cbd
000001f0: fe3f 003d b9ce 8db8 af89 f93c be6a 1dbd
00000200: efc0 e13c bd7a e8bd 2ddb 1c3c b0af 2cbd
00000210: 39a9 163c a5ba 09ba b16c c5bc cfdc 39bb
00000220: 154e 99bd e1fc 0c3d 7e4f 453d 5b9d 14bd
00000230: 2db2 46bd cebf 98bc 4a73 453c 1a2b 3cbd
00000240: 52cf 9cbb 01f8 853d b516 823c 4348 62bd
00000250: 47c8 ce3d e446 2fbd 9950 a7bc 2726 163d
00000260: dc3b f13c eb18 a13c 9e77 c3bc 342c 58bd
00000270: 76d6 8bba c06e 07bb 2f32 2bbd fa2f 4d3d
00000280: 48cc 513d 5ca1 573d 8faa acbd f1ce 1ebd
00000290: 1d53 5bbd 4ba9 29bd 9a76 da3c 25dc 8bbb
000002a0: 603c e6bd 7c2a fdbd dfb7 18bc 6f17 33bd
000002b0: 1f81 443d 43c4 0abe 25e3 703d 4f64 6b3c
000002c0: 3963 203d b0b1 73bc 23e3 2ebb 55df 2f3d
000002d0: bcb1 4abd 5ff4 7ebc 4de9 3a3c 6e3d a23d
000002e0: e21d bbbb ba4a 84bc b5e6 2bbd 647d 283c
000002f0: e3e1 f4bc 2646 fb3c 5c74 8abc 81f4 d9bd
00000300: dd12 24bd e7db 1abd 0d25 2f3d 2a99 fdbc
00000310: c687 203c e5a8 a7bc cc2f 0e3d 95dd ecbc
00000320: 1717 c9bc 9eab d3bd a208 45bc 26ef 9fbd
00000330: 15db be3c a3c0 0a3c c9fb 123d 65e0 1e3c
00000340: de98 dd3c aab9 7f3c ca61 893d 76ff fcbc
00000350: ffda 82bd 13bc 6fbc 74d3 053d d489 593d
00000360: 281d 7c3d fa01 8c3d 7482 2f3b 87d3 e9bd
00000370: a0c1 653d cd42 94bb eb83 59bc d91d 07bd
00000380: 6294 acbc bf9e b13d 67a8 25bd b359 debd
00000390: 3092 8bbd c509 95bd ce4a 03be e6f8 8e3b
000003a0: 1128 56bd d167 b03b 2069 b5bd a38d aebc
000003b0: 9548 32bd 9a8c c13d 8b7d 093d ff21 8bbd
000003c0: 7eb4 893c 6a62 98bd 8f70 073d 1e59 b23c
000003d0: cdaf 8dbb 4e10 fbbc 028f 363c 9cb8 86bc
000003e0: 19dd 28bd cd6b 51bd e1ff 2abd 80ba 95bd
000003f0: c872 82bd 29d9 9c3d c61e b1bc 2d77 dabd

fc2.bias f4 [256]
0.042951178 0.00046811893 0.029252674 -0.06209119 0.028079484 -0.016485343 0.0033621353 0.038577117
0.010311243 -0.017934635 0.045031495 0.037636217 0.039082553 -0.014922787 -0.0014411896 -0.007028574
0.033955146 0.06342986 0.015809117 -0.06287572 0.008439798 -0.018418167 0.006059089 -0.0078059947
0.009106782 0.019940823 0.019172752 -0.011911215 -0.038174015 -0.046335887 0.034394156 0.020713799
-0.015633868 0.008136123 -0.026204025 0.053909317 0.013484211 -0.008863154 -0.010786223 0.028495254
0.018560026 -0.004273843 0.026053835 -0.052501705 0.0051636826 -0.015141243 -0.028224649 -0.02050046
-0.09800136 -0.096010625 -0.0323647 -0.018862147 -0.105336085 -0.0044808695 0.05090351 0.04146766
-0.048225027 0.034749217 0.010262981 -0.040288307 0.04594327 0.016874429 0.0004526738 -0.07182417
-0.041025512 -0.030477382 0.04274346 0.01495165 -0.009275157 -0.011325944 -0.094856806 -0.04894451
0.06584882 -0.07263023 -0.025122758 -0.038020585 -0.056878474 0.053041298 -0.044536266 -0.029945213
0.052621845 -0.029569954 -0.09979582 0.012870673 -0.051986385 0.03286617 0.03161362 -0.00040249006
-0.011408774 -0.0016130646 0.01845494 -0.026028417 -0.043547735 -0.1332582 0.00058172806 -0.030194633
-0.0031691059 -0.027759532 0.036114797 -0.032625437 -0.02353251 -0.01585379 0.05109029 -0.03200627
-0.032496683 0.0026326713 -0.017134558 -0.04164985 0.062437046 0.015395463 0.11811152 -0.04603912
-0.045098577 -0.04008499 -0.014739299 0.02725936 0.026030863 -0.051356927 -0.03282573 -0.014548497
0.022268502 0.018615419 0.028330816 -0.046184067 -0.04624972 -0.011154873 -0.02449834 -0.002984473
0.017795958 -0.0017524326 0.09933973 0.0026113894 0.016433189 -0.049762975 0.0064157033 0.0037337563
0.007353955 0.011999657 -0.07968679 0.02146357 0.03968256 0.03931295 -0.060810525 0.016501341
0.020830633 -0.058601633 -0.06751125 -0.002248539 0.004692719 0.013795806 0.011279681 -0.04135385
-0.024574623 0.002900187 -0.044306 0.02500637 -0.00012478804 -0.044029884 0.008751792 -0.03244891
-0.020256793 -0.014661018 -0.064802974 0.029138945 0.0023317672 0.03781775 0.022080913 -0.022821702
0.07304865 -0.027790483 -0.0042388695 -0.06813436 -0.033692256 -0.07662275 0.09626889 0.018733265
0.031255778 0.0010967362 -0.009157172 0.081328236 0.002541437 -0.052348834 0.028983973 -0.04372061
-0.011760335 -0.027525926 -0.06061916 0.023460396 0.017125353 0.084005415 -0.023737354 -0.050072204
0.00069930614 0.051870763 -0.07442688 0.008145958 -0.008354141 0.03821414 0.0020012783 0.058351915
-0.05400063 0.019880077 0.07160709 -0.050658327 -0.0092307525 -0.007871924 -0.0076960595 -0.0024807558
-0.046755318 -0.0010560151 0.026404517 -0.045753237 0.025905838 -0.01754273 0.0023182868 -0.058247857
-0.037260264 0.055921376 -0.0079118265 -0.032835107 0.00407195 0.032529768 -0.038070783 0.013049207
-0.022757126 0.008014466 -0.033542518 -0.06330407 0.07509654 0.021926453 -0.057841294 0.012827547
0.034530398 -0.08157163 0.013854702 0.04969259 -0.0067047304 0.019604053 0.0026360783 0.029175423
0.047308836 -0.045123085 0.008332848 0.021875858 -0.025070712 -0.0546193 0.03429616 -0.0030139484
0.059062254 -0.04033237 0.008548357 0.008614781 -0.014113236 -0.0028453313 -0.055789966 0.0433202
00000000: 93ed 2f3d dc6d f539 4ea3 ef3c 5553 7ebd
00000010: f206 e63c 450c 87bc 4557 5c3b 0a03 1e3d
00000020: 7df0 283c a8eb 92bc f272 383d 6f28 1a3d
00000030: 0715 203d b57e 74bc 4ce6 bcba f44f e6bb
00000040: 8d14 0b3d 84e7 813d 1f82 813c fcc4 80bd
00000050: 1447 0a3c b2e1 96bc 538b c63b 6ec9 ffbb
00000060: 9d34 153c f05a a33c 2d10 9d3c 4227 43bc
00000070: 5b5c 1cbd b3ca 3dbd e3e0 0c3d fcaf a93c
00000080: 9912 80bc 604d 053c d3a9 d6bc 04d0 5c3d
00000090: e1ec 5c3c c336 11bc b3b8 30bc e16e e93c
000000a0: 320b 983c 980b 8cbb da6e d53c 070c 57bd
000000b0: 1c34 a93b fa12 78bc 6137 e7bc 95f0 a7bc
000000c0: f0b4 c8bd 38a1 c4bd d990 04bd ca84 9abc
000000d0: 72ba d7bd 42d4 92bb 3380 503d fed9 293d
000000e0: 9b87 45bd 3255 0e3d 1026 283c 5a05 25bd
000000f0: 032f 3c3d 3e3c 8a3c d954 ed39 8d18 93bd
00000100: 5e0a 28bd b4ab f9bc c413 2f3d c4f7 743c
00000110: d4f6 17bc 7490 39bc 4944 c2bd 0a7a 48bd
00000120: bfdb 863d 28bf 94bd 3ece cdbc 79bb 1bbd
00000130: 67f9 68bd d541 593d a96b 36bd aa4f f5bc
00000140: 018a 573d b03c f2bc c061 ccbd 84df 523c
00000150: adef 54bd ad9e 063d 497d 013d 4d05 d3b9
00000160: deeb 3abc 776d d3ba d02e 973c 8c39 d5bc
00000170: 1c5f 32bd d674 08be 1c7f 183a bc5a f7bc
00000180: c6b0 4fbb f567 e3bc 1ced 133d 40a2 05bd
00000190: 40c7 c0bc cfdf 81bc 0d44 513d 0219 03bd
000001a0: 3e1b 05bd e588 2c3b c65d 8cbc 0899 2abd
000001b0: fdbd 7f3d 413d 7c3c 74e4 f13d 8493 3cbd
000001c0: 49b9 38bd 2930 24bd 1a7d 71bc 054f df3c
000001d0: ad3e d53c a45b 52bd 4674 06bd d25c 6ebc
000001e0: 6f6c b63c 5d7f 983c 0716 e83c 812b 3dbd
000001f0: 5970 3dbd eec2 36bc beb0 c8bc 2697 43bb
00000200: d4c8 913c e1b1 e5ba a172 cb3d d823 2b3b
00000210: e59e 863c 43d4 4bbd d23a d23b 09b2 743b
00000220: 72f9 f03b 369a 443c d432 a3bd 5ed4 af3c
00000230: 2e8a 223d 9e06 213d 7514 79bd d22d 873c
00000240: 01a5 aa3c 4408 70bd 5743 8abd 395c 13bb
00000250: 61c5 993b ce07 623c 69ce 383c a862 29bd
00000260: b850 c9bc 1011 3e3b 357a 35bd 29da cc3c
00000270: 89d9 02b9 ae58 34bd ad63 0f3c 26e9 04bd
00000280: 93f1 a5bc c434 70bc 6cb7 84bd ccb4 ee3c
00000290: 90d0 183b c9e6 1a3d 08e3 b43c 94f4 babc
000002a0: 889a 953d dea8 e3bc 37e6 8abb 078a 8bbd
000002b0: e400 0abd 63ec 9cbd a028 c53d 8176 993c
000002c0: 0f06 003d 5cc0 8f3a f707 16bc 6b8f a63d
000002d0: 3d8e 263b bb6b 56bd cc6f ed3c 6214 33bd
000002e0: 6cae 40bc 0d7e e1bc cc4b 78bd 0430 c03c
000002f0: 784a 8c3c 080b ac3d d774 c2bc 8318 4dbd
00000300: a451 373a 7076 543d 1f6d 98bd a076 053c
00000310: cfdf 08bc 6e86 1c3d e127 033b 6b02 6f3d
00000320: c42f 5dbd 8bdb a23c bda6 923d 1b7f 4fbd
00000330: 953c 17bc 3ef9 00bc 3a2f fcbb 2d94 22bb
00000340: 8182 3fbd fd69 8aba 494e d83c bf67 3bbd
00000350: 7b38 d43c c5b5 8fbc 66ee 173b 4e95 6ebd
00000360: 389e 18bd d00d 653d 9ba0 01bc 1b7e 06bd
00000370: fe6d 853b ef3d 053d 1cf0 1bbd 57cc 553c
00000380: 276d babc 1b4f 033c e163 09bd 90a5 81bd
00000390: 37cc 993d 1b9f b33c feea 6cbd a22a 523c
000003a0: bf6f 0d3d 070f a7bd d5fe 623c 758a 4b3d
000003b0: 5bb3 dbbb ae98 a03c 0ec2 2c3b 4c01 ef3c
000003c0: e9c6 413d fcd2 38bd 7f86 083c 0035 b33c
000003d0: 1861 cdbc 7db8 5fbd 217a 0c3d aa85 45bb
000003e0: 43eb 713d 8e33 25bd 680e 0c3c 0325 0d3c
000003f0: 343b 67bc bd78 3abb 0584 64bd 8670 313d

fc3.weight f4 [1, 256]
0.009721647 -0.051877316 -0.091060676 0.026676256 0.014320093 0.008822088 0.0029407186 0.0127843805
-0.054472942 0.0008628676 -0.04581727 0.025385626 0.025888318 0.022196768 -0.0038343472 -0.008913036
0.0045422846 0.004104731 0.023603948 0.0016012044 -0.10394225 0.017894033 0.00096311886 0.018790511
0.016149238 0.015971793 0.028184762 0.039420873 0.0025879934 0.014010907 -0.041029733 -0.0029183677
-0.07556192 -0.0036709614 -0.0060437117 0.0040258868 -0.0500007 0.001678399 -0.1457928 0.027052443
0.07908466 -0.024755279 0.007520445 0.0017119902 -0.060117844 -0.014864577 -0.024827702 -0.03831792
-0.039068528 0.039561864 -0.05940447 -0.00247287 -0.060646567 -0.017347213 0.02427972 -0.092476934
0.09755931 0.046133634 0.011408395 0.036927998 0.006420579 -0.000678923 -0.04274449 -0.04432958
-0.0029422585 -0.08840399 0.058025092 0.075558044 -0.02404251 0.12340207 -0.046589933 -0.01717
0.031497966 -0.011791672 -0.17369254 0.0051165745 0.0023660958 0.051400337 0.008822298 -0.045378193
0.008974683 -0.003441728 -0.0031776137 0.041329347 -0.004944527 0.0035459485 0.04923848 0.03120697
-0.0045447573 -0.03982617 -0.011051662 0.08124089 -0.007739361 -0.08084311 -0.025657592 0.06943948
0.054341286 -0.1359651 -0.014090072 0.020160716 -0.09323689 0.042594653 -0.032801777 0.0021248572
0.011843607 -0.022655213 0.0033631339 -0.013897455 0.1251078 0.07565655 0.031219464 4.936303e-05
-0.0028649326 0.014203417 -0.012223997 0.008516766 0.120779864 -0.028539948 -0.0021405313 0.0050660684
0.0064671654 0.011764849 0.0027093992 -0.00050412415 0.014834743 -0.009391371 -0.011898734 -0.010711616
0.075131744 -0.01153345 0.018115573 -0.0010771431 0.080271795 -0.017767355 0.010896601 0.02535676
-0.0021365234 0.014970721 -0.009308488 -0.024628647 -0.0005272191 0.06435899 -0.005213738 0.007790275
-0.0021600462 -0.04631194 0.006480141 -0.010403647 0.0310369 0.08259013 -0.023729771 -0.013047025
0.00094720133 -0.061899994 -0.14473061 -0.050181884 0.08679437 -0.038911365 0.0076997513 -0.0013887672
-0.018045189 -0.045268368 -0.001197047 0.13194479 -0.027005963 0.03719194 -0.11642299 -0.09863363
0.013272618 0.06213669 0.027781654 -0.014179808 0.0013185088 -0.09771458 0.020859934 0.0006826936
0.07106821 0.069787875 0.026551766 0.027778167 -0.06017564 0.0017114729 -0.008684945 0.002513727
0.052898318 0.0015483181 -0.021584444 0.0017332159 0.0012297379 0.011308447 -0.111275405 -0.022714349
0.081793815 0.0063946377 -0.014078607 0.0085528 -0.0077792574 0.015838757 -0.043787036 0.01679503
0.028103435 -0.087015115 -0.02527411 0.017971465 0.052889466 0.010598416 4.2338033e-05 0.013097428
-0.07321903 0.06160406 -0.13137731 -0.024091518 0.028313635 0.043467622 0.026970003 0.0015123416
-0.056202378 -0.019009642 -0.0005415362 -0.013831453 -0.014098356 -0.04531727 -0.045205947 -0.025521044
-0.023379968 -0.016382517 -0.013823257 0.0021402906 0.013156392 0.00728035 -0.011007277 0.00078367715
0.0047611836 -0.005561895 -0.023723438 0.056959383 -0.08577718 0.09059107 -0.07009086 -0.010573279
0.023478568 0.011711717 0.029902158 0.034673117 0.06908683 0.008131443 0.04735556 0.0019476251
0.008980455 0.062849924 -0.046659943 0.019267643 0.03791549 -0.036159735 -0.024658943 -0.08136715
00000000: 8b47 1f3c 4f7d 54bd 057e babd 2a88 da3c
00000010: d39e 6a3c 858a 103c 12b9 403b 9475 513c
00000020: 051f 5fbd 1032 623a e4aa 3bbd 84f5 cf3c
00000030: bd13 d43c ffd5 b53c ac49 7bbb fc07 12bc
00000040: 72d7 943b fb80 863b 115d c13c 81df d13a
00000050: addf d4bd 8296 923c d079 7c3a 8fee 993c
00000060: 684b 843c 47d7 823c bbe3 e63c c877 213d
00000070: 539b 293b 018e 653c cb0e 28bd 1642 3fbb
00000080: 35c0 9abd 8394 70bb 540a c6bb 96eb 833b
00000090: 89cd 4cbd bafd db3a b54a 15be 169d dd3c
000000a0: 23f7 a13d 95cb cabc 116e f63b dc64 e03a
000000b0: 213e 76bd 8e8a 73bc 7763 cbbc 40f3 1cbd
000000c0: 5206 20bd 9f0b 223d 1a52 73bd e00f 22bb
000000d0: 8968 78bd be1b 8ebc 43e6 c63c 8c64 bdbd
000000e0: 2dcd c73d 9ff6 3c3d 47ea 3a3c d041 173d
000000f0: b863 d23b c0f9 31ba d914 2fbd ef92 35bd
00000100: e8d2 40bb 270d b5bd b8ab 6d3d 2dbe 9a3d
00000110: ccf4 c4bc 39ba fc3d 16d5 3ebd 1aa8 8cbc
00000120: 0304 013d db31 41bc 75dc 31be f0a8 a73b
00000130: 8010 1b3b 2989 523d 668b 103c 7cde 39bd
00000140: 8c0a 133c 9d8e 61bb 833f 50bb f648 293d
00000150: b305 a2bb 2563 683b 4aae 493d c2a5 ff3c
00000160: 30ec 94bb c420 23bd 0812 35bc a061 a63d
00000170: 779a fdbb 1391 a5bd df2f d2bc 4936 8e3d
00000180: f894 5e3d 6f3a 0bbe 0cda 66bc 1628 a53c
00000190: fcf2 bebd bb77 2e3d 285b 06bd 3041 0b3b
000001a0: b00b 423c 6d97 b9bc 0668 5c3b 27b2 63bc
000001b0: 421c 003e d2f1 9a3d f6bf ff3c 260b 4f38
000001c0: 98c1 3bbb 73b5 683c 2947 48bc e889 0b3c
000001d0: 6f5b f73d 9ccc e9bc 2848 0cbb 4301 a63b
000001e0: 84ea d33b 5ac1 403c 2d90 313b 3327 04ba
000001f0: 6c0d 733c 44de 19bc e8f2 42bc c67f 2fbc
00000200: acde 993d ccf6 3cbc 1c67 943c ed2e 8dba
00000210: 8a65 a43d d88c 91bc a887 323c fbb8 cf3c
00000220: ea04 0cbb c147 753c a182 18bc 04c2 c9bc
00000230: 1335 0aba a5ce 833d 01d8 aabb 9045 ff3b
00000240: 908f 0dbb 97b1 3dbd 5d57 d43b 0f74 2abc
00000250: 1941 fe3c 0425 a93d f064 c2bc 30c3 55bc
00000260: 9b4d 783a d98a 7dbd 4334 14be 858b 4dbd
00000270: 3fc1 b13d 8661 1fbd 324e fc3b 4b07 b6ba
00000280: 81d3 93bc 536b 39bd 3be6 9cba 891c 073e
00000290: 9c3b ddbc 9356 183d 2d6f eebd 6e00 cabd
000002a0: 6575 593c 0b83 7e3d 5a96 e33c 6d52 68bc
000002b0: d0d1 ac3a 951e c8bd 74e2 aa3c cbf6 323a
000002c0: 368c 913d f2ec 8e3d 1783 d93c 0a8f e33c
000002d0: bb7a 76bd 8053 e03a 4d4b 0ebc 57bd 243b
000002e0: e8ab 583d eff0 ca3a dcd1 b0bc 132d e33a
000002f0: 282f a13a 1147 393c 5ce4 e3bd 7113 babc
00000300: 8483 a73d 1c8a d13b f5a9 66bc 0b21 0c3c
00000310: 24e9 febb 48c0 813c 095a 33bd bb95 893c
00000320: 2d39 e63c fb34 b2bd a60b cfbc e538 933c
00000330: a0a2 583d fba4 2d3c 1e94 3138 9896 563c
00000340: dcf3 95bd 8a54 7c3d c687 06be 935b c5bc
00000350: fff1 e73c 1b0b 323d 32f0 dc3c c339 c63a
00000360: 7734 66bd 1cba 9bbc e1f5 0dba 529d 62bc
00000370: cafc 66bc 9a9e 39bd df29 39bd 8211 d1bc
00000380: 5987 bfbc a134 86bc f17a 62bc 1e44 0c3b
00000390: e88d 573c 0190 ee3b de57 34bc af6f 4d3a
000003a0: b403 9c3b 8f40 b6bb a857 c2bc 3e4e 693d
000003b0: f2ab afbd d087 b93d cc8b 8fbd 8c3b 2dbc
000003c0: 2056 c03c 80e2 3f3c 5ff5 f43c 6605 0e3d
000003d0: 657d 8d3d be39 053c e7f7 413d 7447 ff3a
000003e0: c222 133c 76b7 803d 7f1e 3fbd 2dd7 9d3c
000003f0: 464d 1b3d 3b1c 14bd 8d01 cabc d2a3 a6bd
