checkpoint_critic1_solved.pth (torch_old, 580597 bytes, 5 tensors)

fc1.weight f4 [512, 24]
000000 91 aa 84 3c 33 fc 42 bd 77 bc 8b 3c 74 8e 9d 3c
       0.016194614 -0.047603797 0.01705764 0.019232966
000010 45 7f 5e 39 66 f0 44 bd 70 d9 d9 bc 01 55 0c bc
       0.00021218981 -0.048080824 -0.02659294 -0.008565188
000020 bb e6 8e bb 13 9c bc 3c e0 ce a1 3c 1c 2c 03 bc
       -0.0043610013 0.02302364 0.019751966 -0.008006122
000030 a4 43 85 3c 49 f2 e8 bc 3e b9 20 bd 43 9d 2c 3d
       0.016267605 -0.028435843 -0.03923916 0.042142164
000040 41 11 17 3d e1 25 b4 3c 06 90 8e 3a 71 c7 79 3d
       0.03688169 0.021990718 0.0010876663 0.060981218
000050 9e 90 32 3d 07 3f 3a be f6 9f 7a 3c e1 59 0f 3d
       0.04359495 -0.18188106 0.015296927 0.034997825
000060 d0 a4 e8 37 21 59 9f bd 78 64 b3 3c cc 1b 3a bc
       2.7733302e-05 -0.07780672 0.021898493 -0.011359166
000070 a6 01 8d 3d ed 62 ee 3d e6 0f c6 bc 92 04 3c bc
       0.0688508 0.11639962 -0.024177503 -0.011475699
000080 9f 95 a2 bb 9d b0 b0 bd fd 40 e9 3b 68 c3 b1 3c
       -0.004961684 -0.08627436 0.007118343 0.021699622
000090 7a 0b bc 3d 20 29 21 bd 16 2e 27 3c c6 60 23 3a
       0.091818765 -0.03934586 0.010203859 0.0006232377
0000a0 0e dc db 3b cc 3d c9 bd ff ac 3d 3b 6d 35 79 3b
       0.006709582 -0.0982624 0.0028942225 0.003802623
0000b0 ac bc 9b bd 0b 8f ee bd 4e fc 95 bc d3 d1 3a bc
       -0.07604346 -0.11648377 -0.018308785 -0.011402565
0000c0 56 07 8f 3d 72 37 45 3e 13 76 13 3b f1 20 a7 3c
       0.06983821 0.19259432 0.0022500798 0.02040145
0000d0 ab f4 37 bd f6 c2 5f bc 3a 91 b0 bb ae 4c 91 3d
       -0.044911068 -0.013657322 -0.005388406 0.070947036
0000e0 e8 e4 d9 3c 1a 76 40 3e b9 a2 05 3c 5b 1d 65 3d
       0.026598409 0.18795052 0.008156472 0.0559362
0000f0 11 d2 90 3c a4 ac b2 3c 90 0d 18 bc 87 8f cf 3b
       0.017678292 0.021810837 -0.009280577 0.0063342485
000100 7a e0 a7 bb b2 06 43 3e d4 53 67 ba 92 2c 03 bd
       -0.0051231952 0.19045523 -0.0008824442 -0.032024927
000110 b4 52 af 3c 64 24 93 bc 05 0a 3f 3c 01 23 ac bd
       0.02140174 -0.017961688 0.011660104 -0.08405114
000120 52 f7 1e 3d bf 1d 98 3c ff 3c e3 bb b9 4b 1b 3d
       0.03881008 0.018568872 -0.0069347615 0.03791401
000130 78 99 cd bd a9 66 d1 bd ed 70 3f 3c 19 7c 21 bd
       -0.100390375 -0.10224659 0.011684638 -0.03942499
000140 cf 01 37 3d ab f6 14 bd 04 b6 3d 3c 32 61 2d bd
       0.04467946 -0.036368053 0.01157904 -0.04232902
000150 49 66 96 3b e8 1a 4b bd 2c 45 8d bc c2 6f dc 3c
       0.00458983 -0.049586207 -0.017244898 0.026908759
000160 2b 09 ce bc 60 89 3a bd 34 04 11 3d 34 bf 03 3c
       -0.025150856 -0.045541167 0.0354044 0.008041192
000170 b4 0b 03 bc 64 60 e1 3d c3 85 c3 bc 18 0b 37 3c
       -0.007998396 0.11004713 -0.023867493 0.011172079
000180 7a ea 11 3c 3b 61 30 3d 09 ca 0e bc 6b 12 70 bc
       0.008906001 0.043061476 -0.008715161 -0.014652829
000190 85 63 e2 3d a3 63 dd 3d b9 2c d3 bb f1 39 f6 bc
       0.11054138 0.1081002 -0.0064445403 -0.030056925
0001a0 81 fc 1d 3d b2 fe 19 bd 73 2b 23 b9 fc 47 15 bd
       0.038570885 -0.037596412 -0.00015561077 -0.036445603
0001b0 58 2f 47 bc be cb 08 3d 04 d2 d5 3c d2 b8 d8 3c
       -0.012157284 0.03339743 0.02610112 0.026455317
0001c0 bb 62 05 3b 3f bd 4a 3c 68 27 7e bc 9e 6f ea bb
       0.0020353037 0.012374221 -0.015512325 -0.007154419
0001d0 d4 75 0d be 3c 93 9d bd bf ef d0 3c d6 0a 47 bc
       -0.13814479 -0.07694098 0.025504945 -0.01214858
0001e0 e5 88 ff 3d 2a 2e dc 3c bf 54 91 b9 05 7c 04 3d
       0.124772824 0.026877481 -0.00027719696 0.032344837
0001f0 43 d4 5c 3d ea 7b 9e bd b1 63 07 3b c3 3f 79 bc
       0.053913366 -0.077384785 0.0020658786 -0.015212956
000200 a8 e0 03 3c e5 6b 29 3d 5d 79 5d ba 9f 2a 75 3d
       0.008049168 0.041362662 -0.00084485655 0.0598551
000210 78 8e c0 bc 2b f1 87 bc da 0c d2 bb 9d 29 19 3d
       -0.023505434 -0.01659449 -0.0064102234 0.0373932
000220 fe d9 51 bc 7c a3 8a bc 86 d1 81 bc 08 ea 80 3d
       -0.012808321 -0.016923659 -0.015846979 0.06294638
000230 c2 02 86 bd 28 2f a2 3d 9c 89 e4 ba a8 30 e3 bb
       -0.06543495 0.079191506 -0.001743603 -0.0069332905
000240 10 db 9d 3c 72 64 2d bd cd a6 65 bc 13 15 f3 3c
       0.019269496 -0.04233212 -0.014016819 0.029673135
000250 70 7c e0 bd 65 01 1b 3c 1b f5 20 3c 4e a7 85 3d
       -0.109612346 0.009460782 0.009824063 0.065260515
000260 4e 99 0b 3d 3c fb 87 3d 11 50 1f 3d 0c 55 dc bc
       0.03408175 0.06639716 0.038894717 -0.026896022
000270 ef 3a bc bc c2 0b 32 3c 05 67 42 bd 6a d7 82 3c
       -0.02297732 0.010867061 -0.04746153 0.015971858
000280 26 33 96 bc 26 d4 8d 3d f9 fe 0c bc de 7f ac bc
       -0.018334936 0.0692523 -0.008605712 -0.021057066
000290 f5 4d ff 3d 07 6d ac 3d 81 71 5d 3c 2c 33 8a bd
       0.12466041 0.08419233 0.013515831 -0.067480415
0002a0 68 f2 51 3c 1f 3d b0 3d fd 63 08 3d 31 52 0d 3b
       0.012814142 0.08605408 0.03329848 0.0021563882
0002b0 7b b0 a2 bc 47 2e d1 bd ec e3 d7 bc 55 06 19 3b
       -0.019859543 -0.10213905 -0.026353799 0.0023349721
0002c0 f4 e4 27 bd 2a 6f e9 3d bd d9 f4 ba 22 ba 77 3d
       -0.04098983 0.11398156 -0.0018680614 0.060480244
0002d0 7a cb ea 3c 5a 37 24 be 9e 33 0c ba 7e 59 4c 3d
       0.028661478 -0.1603674 -0.0005348268 0.049890034
0002e0 44 e5 0b 3c e3 1c 90 3d 2c 14 72 bc ea 89 29 bd
       0.008538548 0.0703676 -0.014775317 -0.04139129
0002f0 e0 42 a6 3c e1 e3 45 3d 61 47 82 3a dc 14 21 bd
       0.02029556 0.048313025 0.0009939485 -0.039326534
000300 fa f6 16 3d d7 bc 90 3c dd 7d 31 3b 0e 4b bb 3b
       0.03685663 0.01766817 0.0027083077 0.0057157343
000310 cc b3 f9 3d ea 92 dd bc cd 08 57 bb 4f fe 9b bc
       0.12192497 -0.027047593 -0.0032811642 -0.019042162
000320 de a5 06 bd ab 4b e9 3c 53 bd 44 bc c8 25 55 3c
       -0.032873027 0.028478464 -0.012008029 0.013009496
000330 1c 49 a2 3c 24 14 2c 3c b9 9a 48 3c fc 05 7a bc
       0.019810252 0.010502849 0.01224392 -0.015260216
000340 a9 1d 93 3c 6f e2 1b 3d a9 b7 e1 3c ef 2e c5 bc
       0.017958479 0.03805774 0.027553396 -0.024070231
000350 87 ed 2d be 85 6e 8c 3d 85 e8 e4 bc c9 15 7e 3c
       -0.1698514 0.068570174 -0.027942905 0.015508124
000360 5b 2c db 3c c6 f7 85 bd 93 86 ce 3b 2c cb 3a ba
       0.026754549 -0.065414 0.0063026636 -0.0007125612
000370 c5 00 1a bd c9 81 ba bb 87 55 88 bc 02 66 1a 3d
       -0.03759839 -0.005691741 -0.016642345 0.03769494
000380 81 6e 2f 3d bc 52 bc 3b e7 e0 ad bc 7e f7 f9 3c
       0.042829994 0.0057471674 -0.021225406 0.030513521
000390 63 1e 69 bd d4 40 93 3c 4e 72 32 ba 95 04 d5 bb
       -0.056913745 0.017975248 -0.0006807194 -0.0065007904
0003a0 32 9f 11 bc 96 4b 01 bd 44 1d 5c bc cf 2a a4 3c
       -0.008888053 -0.031566225 -0.013434712 0.020039944
0003b0 4c 82 78 bc f0 71 93 3d c0 70 f0 3a d0 de 00 bd
       -0.015167784 0.07199466 0.0018344149 -0.03146249
0003c0 b1 48 98 bc 83 d7 8e bd ba 75 a9 3c 2a 80 8f 39
       -0.01858935 -0.06974699 0.02068602 0.00027370575
0003d0 7c c8 a9 3c a6 8a 10 3c 5e 0b a8 3c 68 85 b3 3c
       0.020725481 0.008822119 0.020513233 0.021914199
0003e0 70 3d a8 3c 96 e3 94 bd 25 6f 5c 3c ba 69 51 3c
       0.020537108 -0.07269971 0.013454233 0.012781555
0003f0 64 1b 92 3d bc d9 1a be dc ce ca 3b be 35 b7 bc
       0.071341306 -0.15122122 0.0061892103 -0.022364493

fc1.bias f4 [512]
000000 39 8f 02 be 4f d1 38 be b4 29 25 3e 63 02 1a 3c
       -0.12749948 -0.18048595 0.1612919 0.009399983
000010 3f 27 e7 bd 44 90 16 3e 97 17 b7 bd f8 bc 51 3d
       -0.112867825 0.1470347 -0.08940046 0.051205605
000020 91 98 10 bd ea a7 d4 bd 7f d9 81 bd 73 0b 90 bd
       -0.03530175 -0.103835896 -0.06340312 -0.07033434
000030 b5 66 46 be d1 8e 68 be e3 8b 24 3e 62 e8 d7 3d
       -0.19375117 -0.2271073 0.16068988 0.105423704
000040 6f b2 8c be e4 76 63 be bb fe 0f 3e 76 d8 4a 3d
       -0.27479884 -0.22213322 0.14062016 0.04952284
000050 f3 ef ee bc cb eb 92 bd d9 7f d7 3d f9 cc 30 3e
       -0.029167151 -0.0717388 0.10522432 0.17265691
000060 d5 2c 59 be 5f 91 05 3d 3b 57 1b be 83 1d 31 3d
       -0.21208508 0.03260934 -0.15169995 0.043241035
000070 ef e1 19 be 8d 80 27 bd 8a 33 7a 3d 0a ae 8a 3b
       -0.15027593 -0.04089408 0.061084308 0.004232173
000080 93 dd 6b 3d f6 f3 be bd a0 36 3f 3e ee 53 b7 bd
       0.057584357 -0.093238756 0.18673182 -0.08951555
000090 c8 23 3f be e1 e8 87 bc c1 76 4a 3e 09 a7 a2 3d
       -0.18665993 -0.016590538 0.19771864 0.07942016
0000a0 c4 f0 2b be 94 43 93 bd 21 7f 6b bd bd 8c 7c be
       -0.16791064 -0.07190624 -0.057494286 -0.24663062
0000b0 6f c3 9a 3c 15 fd 3a bd 5d c4 d9 bd f2 2a 7f bd
       0.018892018 -0.045651514 -0.106331564 -0.062296815
0000c0 37 0c 74 bd 86 ef 25 bc 7c b2 37 be 91 b8 4f 3e
       -0.05958196 -0.010127908 -0.1793918 0.2028525
0000d0 ff db 8f 3d a2 ce 38 3e 00 38 1f be 84 8b 9a bd
       0.07024383 0.18047574 -0.15548706 -0.07546142
0000e0 bb 9d 75 be fa 71 b7 bd aa c6 8d 3d af f1 14 3d
       -0.2398595 -0.08957286 0.06922658 0.0363633
0000f0 d2 55 51 be ff 7e 6e be 95 0f 7d 3e bc 42 45 3d
       -0.20442894 -0.23290633 0.24712975 0.048159346
000100 e5 0d cc bd b9 d1 fc bd b3 3d 5c be 7f 94 9b 3d
       -0.09963588 -0.12344689 -0.21507911 0.07596683
000110 97 d5 ea 3d 67 3f ca 3d d8 fd ba 3d d0 ff ef 3d
       0.1146652 0.09875374 0.09130448 0.11718714
000120 44 cb ef 3d 5e 63 3e be 37 14 0c be 85 a8 8f bd
       0.11708692 -0.18592593 -0.13679586 -0.070145644
000130 f4 7b ad bd a3 a3 32 bd d5 f0 7a 3d b2 22 00 3e
       -0.08470908 -0.043613087 0.06126483 0.12513235
000140 5d ff a5 bc fe 62 3e 3e 96 89 6a 3b 39 8b 7e bd
       -0.020263368 0.1859245 0.0035787574 -0.06214449
000150 3a 6d de 3d 29 dd 08 be 77 db 21 3e a0 b8 87 3e
       0.10860677 -0.13365616 0.15806375 0.26508045
000160 ad 6e 00 be 4c af e5 3b 0a c6 e7 3d d3 98 bb 3d
       -0.1254222 0.0070094224 0.1131707 0.09160008
000170 80 20 17 3e 7b 6b 98 bd 43 65 e5 bc 95 a4 1f bd
       0.14758492 -0.07442375 -0.028002387 -0.038975317
000180 de 14 ba bc a7 86 24 bd 66 35 2f bd f5 67 c8 bd
       -0.022715028 -0.040167477 -0.042775534 -0.09785453
000190 b3 3b 0e be bc 58 47 be 03 c8 df bc ae 6b 48 be
       -0.13889961 -0.19467443 -0.027317053 -0.19572327
0001a0 77 ea 22 3e b8 37 4d be 42 b1 d9 bd 4b 0b e5 3d
       0.15909754 -0.20040786 -0.10629512 0.111837946
0001b0 15 08 40 be 7e 5e b1 3d 56 a4 d9 3c 1a 7a 6e be
       -0.18753083 0.08660601 0.02656762 -0.23288766
0001c0 d4 e7 4b bc 8e 0a c8 3d ff 9d 02 bd 98 04 ec bc
       -0.012445409 0.09767638 -0.031888958 -0.028810784
0001d0 b0 91 67 3e 90 8a b7 bd 1f c6 31 3e 87 02 87 3d
       0.22614169 -0.089619756 0.17360733 0.06592279
0001e0 8c 6f 6d 3e e5 03 a1 bd da 0b 3c be 96 f4 97 3d
       0.23187083 -0.07862071 -0.18363896 0.07419698
0001f0 95 a7 91 3d d3 cf 82 bd 1a 2f 6d 3d 59 ff 50 3e
       0.07112042 -0.063872956 0.057906248 0.20409907
000200 49 04 a5 bc 8f ed 85 3d dc 64 69 be 6e 16 c0 3d
       -0.020143645 0.06539451 -0.22792381 0.09379278
000210 ac 76 c9 3d 2b 70 9f bc a1 18 6a bd e1 66 aa bd
       0.09837088 -0.019462666 -0.057152394 -0.08320404
000220 10 1d 37 bb 18 59 30 3e f0 79 f5 3c 01 24 41 bd
       -0.0027940907 0.17221487 0.02996537 -0.047153477
000230 23 f7 fb 3d 5d 3f 0f be 25 e9 3f bc ba a1 67 be
       0.12302997 -0.13989015 -0.011713301 -0.22620288
000240 dd a5 64 be e7 62 28 bd 8b fb be bc 78 9e b4 bb
       -0.22328897 -0.041109946 -0.023313304 -0.005512055
000250 ad 27 02 3e 3c a1 00 3d fa b4 08 bd 9c 07 11 be
       0.12710448 0.031403765 -0.033375718 -0.14163059
000260 16 91 7c bd 62 3d 00 3c ff aa 48 bd 4a 7e f4 3d
       -0.061661802 0.007827135 -0.0489912 0.1193815
000270 f2 c1 23 be 61 51 ea 3c ed a5 f1 3d a6 12 02 3e
       -0.15991953 0.028603258 0.11799226 0.12702426
000280 ce dd 7d be 4f e3 92 bc e0 b6 0f 3d 92 20 72 bd
       -0.24791643 -0.017930655 0.035086513 -0.059113093
000290 01 6f 0d bd 32 16 61 bd ae fd 30 be f3 3d 69 be
       -0.03452969 -0.054952808 -0.17284271 -0.22777538
0002a0 39 bb 5e bd ff 46 b1 bd 37 83 04 be e7 7a 44 3d
       -0.05437777 -0.086561196 -0.1294068 0.04796877
0002b0 82 d1 63 bd d7 af 4c be cc cf ca bb f9 34 c9 bd
       -0.055619724 -0.19988953 -0.006189322 -0.09824557
0002c0 8f eb 98 3d 15 62 13 3e a2 61 29 3e b0 df f7 34
       0.07466804 0.14392884 0.1654115 4.617009e-07
0002d0 9f 81 6f bd 2a 52 8a 3d b1 82 02 be 3e 3c d4 3d
       -0.058473226 0.06753953 -0.12745167 0.10363053
0002e0 f9 56 e5 3c 4e ca b8 3c 05 90 12 be 8f cc 6c be
       0.027995573 0.022557404 -0.14312752 -0.23124908
0002f0 99 22 c6 3d 39 50 c9 3d 0f 51 3e 3c f5 81 d5 bd
       0.09674568 0.098297544 0.011616006 -0.10425178
000300 c7 14 f9 3c a4 22 7e be 0f e1 99 3d fa a3 ed b9
       0.030405415 -0.24817902 0.0751363 -0.00045326335
000310 37 b1 31 be 5b 6b 74 3d 39 e6 34 3e d8 18 1e be
       -0.17352758 0.059672695 0.17665948 -0.15439165
000320 31 8b 07 3e 68 15 29 3e 8a 27 e7 3d 7f 71 a4 bd
       0.13236691 0.16512072 0.11286838 -0.0802946
000330 40 02 b6 3d fd f3 65 3e fa 67 8e be db c4 22 be
       0.08887148 0.22456355 -0.27813703 -0.15895407
000340 1e 06 09 3d a5 7e 9d bd 45 e0 2a be fd d0 01 3d
       0.0334531 -0.07690171 -0.16687115 0.031693447
000350 08 34 c2 bc 02 65 ed 3d c5 42 44 3d ba 6b b0 be
       -0.023706451 0.11591531 0.04791524 -0.3445719
000360 3c 28 b7 bc 0a 46 e8 3d a0 97 cd bd 99 28 9b bd
       -0.022358052 0.11341484 -0.10038686 -0.07576103
000370 d1 ad 5a 3e 8c a9 81 be 95 ba 7c be a9 c6 29 be
       0.21355368 -0.25324667 -0.2468055 -0.16579689
000380 08 ea a3 bd 28 27 0f 3c 6a 79 64 be 45 9f 66 be
       -0.08003622 0.008737363 -0.22311941 -0.22521694
000390 04 ef 5c 3e 97 03 48 be f6 6a a9 3d 9e 3e 4f 3e
       0.21575552 -0.1953262 0.08272354 0.2023873
0003a0 47 61 40 3e 36 26 05 be 82 23 5a 3d dc 1a d1 3d
       0.18787108 -0.13002858 0.05325652 0.10210201
0003b0 6f 64 e3 bc 11 ed 02 3e b4 3a 71 3d a5 89 2d be
       -0.027757851 0.12785746 0.058893874 -0.16947038
0003c0 ff 58 8b bd e8 6c d1 3d 36 0c 7c bb fa 4e 9b ba
       -0.06804084 0.1022585 -0.0038459427 -0.0011849098
0003d0 51 c1 e8 bd 66 ad 53 3d 13 df 08 3e 2b 39 a2 bd
       -0.11364997 0.051679038 0.13366346 -0.0792106
0003e0 9d 57 09 3e c9 b0 15 3e 7f 34 cb 3d 99 65 c6 3c
       0.13412328 0.1461822 0.09922122 0.024218367
0003f0 26 b3 1e be 1d a7 ca 3d 78 99 57 be 8f c1 3e be
       -0.15498027 0.098951556 -0.21054637 -0.18628524

fc2.weight f4 [256, 514]
000000 27 c0 b4 3c 94 7f 59 b6 0d c1 a2 bd 16 07 da 3c
       0.022064282 -3.240978e-06 -0.07946978 0.026614707
000010 3f 2a 6c 3d 41 a4 6d 3d b4 6e 95 bd cd cf 43 3c
       0.057657477 0.058017973 -0.072965056 0.011951399
000020 27 9e 26 3c 7b c9 36 3d ba 08 b4 3c 02 23 3e 3d
       0.010169542 0.04462574 0.021976817 0.046420105
000030 e0 96 0d bd c7 f3 5c bc 0d 8e 16 be b2 1a 24 3c
       -0.034567714 -0.013485855 -0.14702626 0.01001613
000040 c4 9c 18 3d dc 8c d8 3b e4 6c b9 bc ff 46 f4 3b
       0.03725888 0.0066085886 -0.02263493 0.0074547525
000050 6d 69 95 bc 60 ef 13 bd 90 14 71 3d 12 22 b4 bc
       -0.018238747 -0.036116958 0.0588575 -0.021988902
000060 50 d2 44 bb 45 4b d8 3c 29 81 94 bd 19 b6 4e bd
       -0.0030032583 0.026403079 -0.07251198 -0.05046663
000070 e5 d7 60 3d 09 ad 84 3d 47 4e 81 bd 12 3c b4 3c
       0.054893393 0.06478316 -0.06313758 0.0220013
000080 dd 41 d4 bd a6 55 41 3d 2e 48 93 bd fd cb 2d bc
       -0.10364125 0.04720082 -0.071915016 -0.010607717
000090 91 ee 66 bd 35 d8 81 bd 0c ec 26 bd 34 2e e5 bc
       -0.05637986 -0.06340066 -0.040752456 -0.027976133
0000a0 c2 54 a2 bd 38 e9 a8 bd a4 db f8 bb 24 90 fe 3c
       -0.079263225 -0.08247608 -0.0075945426 0.031074591
0000b0 6c f4 59 bd 53 5f 1e 3d 3e 25 33 b7 7f 73 41 3d
       -0.053211614 0.038665127 -1.06779025e-05 0.047229286
0000c0 e9 33 29 bd a0 81 e1 bd 90 c9 4d 3d f6 f5 06 bd
       -0.04130927 -0.11011052 0.050241053 -0.03294941
0000d0 8f 89 46 bd 1d 89 7a bd 4c 88 aa 3d a9 40 84 3d
       -0.04847103 -0.061165918 0.08326778 0.064576454
0000e0 82 db ab bc d5 a4 84 bd 33 11 dc bc 76 3b 36 bd
       -0.020978693 -0.06476752 -0.02686367 -0.0444903
0000f0 dc dc 70 bd c9 7d 2f 3c 78 17 8b bd 8b 5a 1f 3d
       -0.058804378 0.010711142 -0.06791586 0.038904708
000100 9c 9a 87 3d b3 12 84 bd c7 19 14 3b 66 65 80 bd
       0.06621286 -0.06448879 0.0022598372 -0.0626934
000110 68 2e 96 bd 8f 13 2a 3d 49 7a 8b 3d b8 83 8e 3c
       -0.0733307 0.04152256 0.068104334 0.017396793
000120 9e 6b a0 3c ce f7 92 3d c0 5e ca ba 78 ce 4a 3b
       0.019582566 0.07176171 -0.0015439615 0.003094582
000130 75 f1 d8 3c 47 4d 2c bd 6f 72 14 bc 46 95 87 bc
       0.026482323 -0.042065885 -0.009060486 -0.016550671
000140 8b d7 85 bd 02 cc 0a bd 1a 1c 63 3c 77 ca 8c bd
       -0.06535252 -0.033885963 0.01386168 -0.068745546
000150 bc 7a b7 bb be 19 51 3d 44 17 84 3c 5e fa 82 3d
       -0.005599348 0.05104994 0.016124375 0.0639541
000160 d3 d3 e4 3c ed 41 92 3d dc ad 68 bd 97 3d 57 bd
       0.027933037 0.071414806 -0.05680643 -0.05254897
000170 16 e9 8e bd 28 06 81 bd c2 7d 17 bc f5 9e 69 bd
       -0.06978051 -0.06300002 -0.009246292 -0.05703636
000180 07 06 09 3d 9c 11 a4 3d 49 14 72 3d b0 8b 59 bd
       0.033453014 0.08011171 0.059101377 -0.053111732
000190 28 65 71 bd 46 07 a0 3c 1d 09 9e bd ed 0b 68 3d
       -0.05893436 0.019534718 -0.07716582 0.056652
0001a0 90 76 1d bd 72 ad 63 bb 78 70 be bd 23 31 30 3d
       -0.038443148 -0.0034740833 -0.092987955 0.04301561
0001b0 77 52 84 3d dd 1e b4 bc 93 ea 0f bd 4f 98 81 bd
       0.064610414 -0.021987373 -0.035135817 -0.06327879
0001c0 5e a6 97 3c 6f 43 78 bd 95 e2 a4 3c 76 1b db bc
       0.018511947 -0.060611185 0.020127574 -0.026746493
0001d0 db e8 7a bc 87 ae a6 bd 03 8c df 3c a2 90 1b bd
       -0.015314306 -0.08138757 0.027288442 -0.03797973
0001e0 b6 88 7b 3d 9c 45 87 3c 80 61 38 bd 0b 21 67 bd
       0.061409675 0.016512685 -0.04501486 -0.056427997
0001f0 1f e4 60 3d 91 b3 e9 3c 4f c8 a3 3c ed f7 46 bd
       0.054905053 0.028528007 0.019992976 -0.048576284
000200 42 f0 13 bd d6 30 51 3d d2 c8 eb 3c e2 8d 73 3d
       -0.0361178 0.051071964 0.028782282 0.059461482
000210 d6 d9 a3 bc 0d df 5e 3b 4b 80 3e 3d 30 18 71 bc
       -0.020001333 0.003400746 0.04650907 -0.014715239
000220 d9 a4 09 bd b2 7f 5c bd 6c c2 a5 3c 89 08 a9 bd
       -0.033604477 -0.053832717 0.02023431 -0.08253581
000230 50 04 38 3d e8 b5 7e 3c 99 a4 d1 bd 51 eb 31 3d
       0.044925988 0.0155462995 -0.10236473 0.043437306
000240 e4 e1 ee bb 0d a4 06 3c b7 e1 ec bc e6 4f 0a bc
       -0.007290112 0.008217824 -0.028916223 -0.008441901
000250 20 ac 6c bd 23 42 aa bd 19 94 86 bd 5c f3 d0 bd
       -0.05778134 -0.08313396 -0.06571216 -0.10202667
000260 ec e9 f9 b9 a1 d0 20 3c cb d9 8d 3d 8f cf 2a 3c
       -0.00047667266 0.009815366 0.06926306 0.010425462
000270 c8 08 b4 3c 45 2a 79 bd e4 1a be ba b3 9a a1 3d
       0.021976843 -0.060831327 -0.0014503864 0.07890835
000280 ab 87 4a 3c 21 1f 8c 3d ce db b1 bc d2 46 c4 bc
       0.012361447 0.06841875 -0.021711256 -0.023959551
000290 e0 f6 59 bc 99 dc 98 bc 63 d2 35 3c d6 aa 0f be
       -0.0133034885 -0.018659877 0.011097523 -0.14030012
0002a0 77 53 19 3d 97 0b cb 3c bc e9 77 3c 8e c7 c9 bc
       0.037433114 0.0247858 0.01513141 -0.024631288
0002b0 31 d5 a9 3c 2a 06 9c bc 3d c4 97 3b 83 eb 0d 3d
       0.02073154 -0.019045908 0.0046315477 0.03464843
0002c0 98 0e 36 3d f4 1f aa bd 02 41 07 bd fb 2c f2 bc
       0.04444751 -0.08306876 -0.03302098 -0.029562464
0002d0 5c c9 b1 bc b3 78 46 bc 78 7d 0a 3d 6b a7 7e bc
       -0.021702461 -0.012113738 0.033811063 -0.015542845
0002e0 8f 19 87 bc 74 43 8f 3c 04 f2 d2 3c 6b e1 a3 3d
       -0.01649168 0.017488219 0.025750168 0.080019794
0002f0 c8 ca b6 3b db c6 2f 3d 75 ce bb 3c f5 25 e1 bd
       0.0055783726 0.042914253 0.022925595 -0.10993568
000300 9f 01 46 3c 8a 8d e4 bc 9e 15 6d bb 8b 2f 0d be
       0.012085347 -0.027899522 -0.0036176215 -0.13787667
000310 41 7e 6c bd a4 63 b0 bd 24 44 ef bd 68 b4 43 bb
       -0.057737593 -0.08612755 -0.11682919 -0.002986217
000320 b3 d3 64 bc 9e 49 df 3c a3 51 c7 bd 77 54 67 bd
       -0.013966489 0.027256783 -0.09732368 -0.056477036
000330 03 39 6b bb a3 e9 38 bd 81 e6 60 bd 52 3e e1 3c
       -0.0035892136 -0.04514469 -0.054907326 0.027495537
000340 90 e3 1b bc d7 7f bb bd 5e 47 bc 3b 39 13 2c bd
       -0.009514704 -0.09155243 0.0057458123 -0.04201052
000350 21 b4 0d bc 52 b0 99 bd ef 74 55 3d a3 bd 8b 3b
       -0.008648903 -0.075043336 0.05211347 0.00426455
000360 09 01 8a bc a2 8d 56 bd dd 52 3b bd 21 dd a1 3c
       -0.016846197 -0.052381165 -0.04573332 0.019758763
000370 a0 32 4c bd 7c 6a 33 3c d5 76 d8 bd bc 9e f2 3c
       -0.049852967 0.010950681 -0.105695404 0.029616706
000380 38 42 42 3d d4 f7 10 bd 87 fc 75 bd 48 e3 fb 3b
       0.047426432 -0.035392597 -0.060055282 0.007687006
000390 53 09 39 3b f2 4c 81 bd 81 17 18 bc 4f 8f d5 bb
       0.0028234317 -0.06313504 -0.0092829475 -0.006517328
0003a0 82 82 74 bd c7 db 4a bd 07 87 83 bd 02 7c 72 bd
       -0.059694774 -0.049526002 -0.06422239 -0.059200294
0003b0 9a 08 56 bd ba f7 82 bc b7 17 1f 3d e6 b4 63 3d
       -0.052254297 -0.015987266 0.038840976 0.05559244
0003c0 97 c5 57 3d 5a 50 82 bd 0d b1 1c bd 86 ad 00 3d
       0.05267867 -0.06362982 -0.038254786 0.031415485
0003d0 46 87 7b bd a8 f0 c1 3c f9 f1 b4 3c ef 21 9a bd
       -0.061408304 0.023674324 0.022088038 -0.075260036
0003e0 bf b0 b1 bc 97 3b e6 3c 59 8b e2 3c 89 ab 47 bd
       -0.021690724 0.028104587 0.027654337 -0.048747573
0003f0 30 d4 1b 3c 4c e8 0a be 4b 68 53 bd 14 a8 32 bd
       0.009511039 -0.13565177 -0.051613133 -0.043617323

fc2.bias f4 [256]
000000 0d 28 76 bc c0 2a 46 bc b8 6e 07 bd c1 c9 05 bd
       -0.015024197 -0.012095153 -0.033064574 -0.03266311
000010 73 af 82 bc 78 ce 05 3d 84 97 a2 bd 51 97 cf bd
       -0.015952801 0.032667607 -0.079390556 -0.10136283
000020 58 34 49 3b 52 2e 21 3b b1 8e 17 bd e7 0e 95 bd
       0.0030701365 0.002459426 -0.037001316 -0.07278233
000030 d4 ec 70 bc eb 7c 1b be 4a 06 a0 bb 17 7c 00 3d
       -0.014704902 -0.15184371 -0.004883562 0.03136834
000040 be 68 88 bd 23 4f 1c 3d a8 49 34 bd 56 b6 83 bc
       -0.06660603 0.03816141 -0.044015557 -0.016078155
000050 5f 71 cb bb 43 25 c4 bd 20 3f 4f bc 20 e9 03 bd
       -0.0062085832 -0.095774196 -0.0126493275 -0.032204747
000060 b6 02 48 bd 6b 99 09 bc 4b 2a 03 3e f2 7f 14 3d
       -0.04883071 -0.008398394 0.12809102 0.03625483
000070 af 5e 6f bd dd 08 49 3d 17 e5 80 bd bf d4 4e bc
       -0.058439907 0.04908072 -0.062936954 -0.012623965
000080 3c 4a 01 3d 3f 5d 88 bb d5 59 d0 3c 01 88 42 bd
       0.031564936 -0.0041615064 0.02543346 -0.047492985
000090 c6 86 d9 3c 98 8f 11 3d c6 f1 84 3d 07 51 f4 bc
       0.026553523 0.035537332 0.06491427 -0.029823793
0000a0 e1 08 8c bc 75 30 13 bd 35 3c 38 3d 14 e3 0b bc
       -0.017094078 -0.035934884 0.044979293 -0.008538026
0000b0 a5 ad 62 bb 28 09 ad 3a 0f de 98 3d 9c 3f 1b 3c
       -0.0034588363 0.0013201581 0.07464229 0.009475615
0000c0 f1 29 d9 3c 80 c9 0d bc fe e4 5c 3c 4e d2 13 3c
       0.026509257 -0.008653998 0.01348233 0.0090223085
0000d0 cf cf 18 bd 82 cf 8d bc 7c 1b 70 bd e2 ad dc 3c
       -0.037307557 -0.017310861 -0.05861996 0.026938383
0000e0 07 cd 01 bd 86 86 e7 3c e9 54 08 bb a9 aa 8d 3d
       -0.03168967 0.028262388 -0.0020802564 0.069173165
0000f0 ae f1 a1 3b d9 06 0b bd a7 21 0b bd 7a e2 f1 3c
       0.0049421405 -0.033942077 -0.03396764 0.029526938
000100 13 15 7c 3b f3 9e 01 bd 00 42 ba 3c 8b 9c c3 bd
       0.003846471 -0.031645726 0.02273655 -0.095513426
000110 3f e2 64 bc 37 99 b4 3c 4a 58 e8 bc 46 93 17 bd
       -0.013969957 0.022045715 -0.028362412 -0.037005685
000120 95 92 44 bc 6a c5 5b 3d 13 4e 2e bd 05 c0 72 3c
       -0.0119978385 0.053655066 -0.042554926 0.014816289
000130 2c fc 28 bb 7b f3 10 bb 89 49 be 3d 60 fb 03 3d
       -0.0025785072 -0.0022117782 0.092913695 0.03222215
000140 b7 51 98 3c 82 c5 27 bd 02 8e b5 3c 0a f9 a3 3c
       0.018593652 -0.040959843 0.022162441 0.020016212
000150 b1 c2 a6 bc 21 2c 54 bb b0 98 74 3c 11 05 af 3c
       -0.020356508 -0.0032374936 0.014928982 0.02136472
000160 75 1d dd bd 06 41 b6 3d 5f e1 ca ba 00 85 56 bd
       -0.10796634 0.08899121 -0.0015478543 -0.052372932
000170 78 0f 1c 3d 76 56 80 3c 7e ba 06 3d 40 34 49 3c
       0.03810069 0.015666228 0.032892697 0.012280524
000180 b5 cd 4b 3d e9 a1 6d 3c 9b 59 33 bd 6a 47 5c 3d
       0.049756724 0.014503934 -0.043786626 0.053779043
000190 97 c0 e1 bb 8b 10 bd bc 2f 28 3b bd fe a1 f5 3c
       -0.0068894136 -0.023079177 -0.04569262 0.02998447
0001a0 cd b0 e9 bd fb 42 df 3b 72 0f 16 bd c7 37 a1 bc
       -0.11410675 0.0068134046 -0.036635824 -0.019679917
0001b0 95 d5 f1 bc 3d 54 b9 3c 36 bb b7 3d 66 d3 89 bb
       -0.02952079 0.022623176 0.089712545 -0.004206109
0001c0 c1 63 a3 bb 7f 9b 3b bd 20 e1 f7 bc e9 7a 05 39
       -0.004986257 -0.04580259 -0.030258715 0.00012729656
0001d0 23 6a c1 bc 23 64 1e 3c ff 0f a4 bc 05 34 dd bc
       -0.02361018 0.009667429 -0.020027159 -0.027002344
0001e0 8f 6f 27 3d 87 a8 ea 3c b8 b6 f9 3b cf 24 a6 bd
       0.040877875 0.028644813 0.0076206587 -0.081124894
0001f0 6b da 0c 3e 1f ca 2f bd 7d 1a 36 bb 36 2d ce 3c
       0.13755195 -0.042917367 -0.0027786784 0.025168043
000200 35 fa a5 3c db 78 37 bd b6 23 f8 bc b7 50 a1 bd
       0.02026091 -0.04479299 -0.030290466 -0.07876723
000210 50 75 e3 3c 6b 5e a8 3d 3d 53 54 3d f6 5b 78 3c
       0.0277659 0.08221134 0.051837195 0.015158644
000220 b3 12 9b 3b c7 5c a2 bb e5 91 82 3d a3 60 9f 3b
       0.0047324537 -0.0049549076 0.063754834 0.004863815
000230 32 40 2d 3d 7e 6c 02 bc de 5c b9 3d 37 dc 1c bd
       0.04229755 -0.007960437 0.09050916 -0.03829595
000240 57 f1 00 3d 4d 4c 2a bc e4 13 3c bd 1e 95 b6 bc
       0.03148016 -0.010394168 -0.045917407 -0.022287901
000250 ae 75 2f bc 11 8c d7 bc d5 80 3f bc e2 32 1e 3d
       -0.010709209 -0.026311906 -0.011688431 0.038622744
000260 69 3c e4 bc f5 92 13 bd db 81 a9 3d 8a ba 30 3d
       -0.027860837 -0.03602882 0.08276721 0.043146648
000270 9a a4 05 bd 8e 08 27 bc 37 5e 09 bd d6 8e 5d bc
       -0.03262768 -0.010194911 -0.033537116 -0.013522824
000280 8b 21 fb bd d8 fc a9 bc 96 5e 85 3b 57 9f 51 bd
       -0.12262257 -0.020750448 0.0040701134 -0.05117735
000290 0e 4e 83 bc 0f 23 86 bc 2b 68 ec bb ae 9d 89 bd
       -0.01602843 -0.01637414 -0.007214566 -0.06719528
0002a0 32 d0 70 bb da 5b 6b 3d c5 83 ae bc 2f f6 07 be
       -0.0036745188 0.057460643 -0.021303067 -0.13277505
0002b0 ed 83 74 bd 7a 16 3e 3b d7 1d fe 3c 33 d7 0a 3d
       -0.059696127 0.0029005096 0.031020088 0.033896636
0002c0 6a b9 3b bd e8 4f e9 3d 21 b9 3e bd 33 ad 44 bd
       -0.04583112 0.11392194 -0.04656327 -0.04801674
0002d0 6f 7d 46 3c af 68 5d 3d 88 28 20 bd 8d bc 01 bd
       0.012114867 0.054054912 -0.039101154 -0.031673957
0002e0 1f bb 17 3d c2 71 2c 3d 47 8b 89 3d 65 60 26 bd
       0.037043687 0.042100675 0.06716018 -0.040619273
0002f0 de 9c 2e 3d f0 f1 a6 bc ff 65 30 39 e1 3a 1b 3d
       0.04263007 -0.020379037 0.00016822664 0.03789795
000300 a1 50 b8 bb 34 66 26 bd 35 95 b1 3c 46 b6 84 bc
       -0.005624846 -0.040624812 0.021677593 -0.016200196
000310 80 85 ba bc e8 07 04 3d a1 46 56 bd f7 d2 12 bb
       -0.022768736 0.032234102 -0.05231345 -0.0022403577
000320 5e dd 88 3c ee 6a f1 3b 63 69 a5 bd ad 35 0f 3d
       0.016707119 0.0073674833 -0.080767415 0.0349633
000330 47 c8 0d bd 03 bf 5a 3d 1b fe 0e bd 91 e7 4f bd
       -0.034614827 0.05340482 -0.034910303 -0.05075795
000340 e7 df fe bc 7b df 46 bc 43 5a 84 3d d6 82 3e 3d
       -0.031112624 -0.012138243 0.064625286 0.046511494
000350 a3 d6 d2 3b e7 8d ed 3c b0 55 02 3d ed 0e 9e 3d
       0.006434278 0.028998328 0.03182 0.077176906
000360 9d 44 d6 3c b6 dc 3b 3e 68 c0 ae bc 9b 88 2d bd
       0.026155764 0.18345913 -0.02133198 -0.042366605
000370 1c 72 9b ba 63 81 8d 3d 20 f9 94 bc 56 78 41 bc
       -0.0011859569 0.06909444 -0.018185198 -0.0118084755
000380 b1 20 29 3d 62 5a 1d bd 24 b6 d6 3b b6 26 29 bd
       0.041290943 -0.038416274 0.0065524746 -0.041296683
000390 45 86 03 bc 62 0a 90 3d 73 94 05 3d a1 ea f2 3b
       -0.008027618 0.0703323 0.032612275 0.007413224
0003a0 e4 d9 87 3c 1e e0 42 3c d2 2e c7 3c b5 ba a8 bc
       0.01658339 0.011894254 0.024314318 -0.020596841
0003b0 48 0d 2e 3d 25 2e 05 bd 49 c3 61 bc fe 34 ea 3c
       0.042493135 -0.03251471 -0.01377947 0.028589722
0003c0 99 83 10 bd 1a 7f 0f bc 51 25 7f 3d 15 b7 90 bc
       -0.03528175 -0.008758331 0.062291447 -0.017665425
0003d0 11 64 55 3b 10 71 3e bd e3 76 4d bc b9 d8 e9 ba
       0.0032560865 -0.046494544 -0.012540552 -0.0017841078
0003e0 0c d6 41 bd 47 d1 24 3c dc 8b d6 3c ac dd fe 3c
       -0.04732327 0.010059661 0.026189737 0.03111156
0003f0 89 1b e0 bb cf 73 80 3c 5e fa 8c bd e7 17 24 3c
       -0.00683922 0.015680222 -0.06883691 0.010015464

fc3.weight f4 [1, 256]
000000 47 5e 2c 3d 3d b7 d5 bd 35 90 8f b9 a6 41 c5 bd
       0.042082097 -0.104353406 -0.00027382528 -0.09631662
000010 99 c3 22 3c ab 24 5c bd 2f 80 9c bb ca 0a 24 b9
       0.009934329 -0.053745907 -0.004776023 -0.00015644278
000020 ac 32 c0 bd 15 4a 32 3c 89 75 57 3b 2b 40 64 bc
       -0.09384665 0.01088192 0.0032876453 -0.013931314
000030 66 f0 e5 3a 2b 0f 7f bd e7 a4 a2 bd ef ff 59 bb
       0.0017542958 -0.062270325 -0.07941609 -0.003326412
000040 72 7e a9 bd 3b 43 80 bd be 5b 7c bd d2 d0 5a bc
       -0.08276071 -0.06262823 -0.06161093 -0.013355451
000050 22 5a c5 3a ef f8 79 3b 02 cc 99 3d 15 79 f9 ba
       0.0015056769 0.003814276 0.075096145 -0.0019033278
000060 07 6d 05 ba a4 8f da 3c a1 f0 a5 39 82 13 a0 3d
       -0.00050897937 0.026679821 0.00031650535 0.07816221
000070 1a ba d7 3d bf c6 a8 bd b1 02 35 bd b0 40 95 3c
       0.10533543 -0.08241033 -0.04419202 0.018219322
000080 05 a0 8f 3d d3 59 6a bb ca 9d 05 bd ec c9 83 bb
       0.07012943 -0.0035759106 -0.032621183 -0.0040218737
000090 2b fa 28 3d d5 fc 37 bd 78 45 04 3c d0 d0 43 bd
       0.041254204 -0.044918854 0.008073203 -0.04780656
0000a0 1f 79 b9 3b b3 d3 0e 3a 23 f9 07 3d 77 af ae 3d
       0.0056601907 0.0005448416 0.03319658 0.08529561
0000b0 93 30 17 b9 65 ad 0f bd 81 57 af 3d 6f 6e 11 3d
       -0.00014418577 -0.03507747 0.08561612 0.03550571
0000c0 1e 9a c5 ba 76 2f c1 bc bf 38 6d 3d 8c 3d c3 3d
       -0.0015075838 -0.023582201 0.057915445 0.095332235
0000d0 6a 69 7c bc b4 81 ad ba bc 68 bf bb d5 c2 2d 3d
       -0.015405992 -0.0013237507 -0.0058413427 0.042422134
0000e0 78 fc 07 3c a9 7a b2 3d fa 71 01 b9 fe 61 b6 3c
       0.008299939 0.08714802 -0.00012344858 0.022263523
0000f0 73 2b 2f bd c0 de 1e bc ef 8a 6c b9 bf 1a 0b b7
       -0.042766046 -0.009696662 -0.0002255847 -8.291273e-06
000100 41 ab 09 3d 9e 7b 4d bb ae 4c 51 bd 7d b3 43 bd
       0.033610586 -0.00313542 -0.051098518 -0.047778595
000110 6c d2 56 3b d8 ae 74 3c e9 8f 36 b8 59 a2 cb ba
       0.003277923 0.014934264 -4.3526208e-05 -0.0015536054
000120 b2 d1 34 3d fc 83 64 37 ae dc b3 3c 18 a8 d4 3c
       0.044145294 1.3620589e-05 0.021955814 0.02595906
000130 be f5 d1 bd a5 a0 47 3d d5 fa 6a 3d d9 45 e5 3c
       -0.1025195 0.048737187 0.05736812 0.027987408
000140 22 47 8d 3c 78 f8 63 bd 9f 32 d8 37 53 d0 7e 3b
       0.017245833 -0.05565688 2.5772779e-05 0.0038881495
000150 91 0f c8 3a c1 49 49 bb 1a 62 ff 39 49 15 56 3d
       0.0015263428 -0.0030714127 0.00048710481 0.052266393
000160 3a dd 24 3d 1e dc f0 3b 3c 5f 22 3c 09 a7 4c 3d
       0.04025004 0.0073504588 0.009910401 0.049963985
000170 d7 23 41 3c 4b 79 5a 3d ee eb d3 3c af 67 c0 3d
       0.01178833 0.05333833 0.025869336 0.09394776
000180 b8 24 1c bd 21 ca 24 bd 92 60 2f 38 3b 19 2e 3c
       -0.038120955 -0.040231828 4.181319e-05 0.010626133
000190 82 c6 3d 3b 6b 46 d2 bc ed c7 d6 3d d5 49 a2 3d
       0.0028957431 -0.025668344 0.104873516 0.079242386
0001a0 c8 4f 9c bc 97 07 5b 3d 8d d8 4d bd a8 4d e2 b9
       -0.019081011 0.053474035 -0.050255347 -0.00043163938
0001b0 2b 67 6d b9 4a 2e 49 3b 55 f0 2a 3c 8c ee 7b 3c
       -0.00022640514 0.0030697756 0.010433276 0.015376698
0001c0 a1 1d 7e 3d 9a 51 6c bc 6e a2 b8 bd 88 17 be ba
       0.062039975 -0.014423752 -0.09015356 -0.0014502862
0001d0 81 c9 00 3d 55 a2 0e be 12 34 0c 3d 10 3f 16 bd
       0.03144217 -0.13929112 0.034229346 -0.036681235
0001e0 fa e5 89 3b a6 a0 22 3e 5b ec b9 bc 4b fc f1 bc
       0.0042083235 0.15881595 -0.02269571 -0.029539248
0001f0 30 1a 1b 3d c8 a9 2c b9 86 e9 17 3b 53 65 8d 3b
       0.03786677 -0.00016466447 0.0023179962 0.0043150573
000200 07 95 df 3c 01 25 27 3c 85 42 1d bb c1 ba 69 bd
       0.027292741 0.0102016935 -0.0023995948 -0.057062868
000210 65 3f a2 3d c8 d5 cd 3c 34 60 f1 3c 4d 1c 15 3d
       0.07922248 0.025126353 0.029464819 0.036403943
000220 4b 1b 8f bb 08 e0 6c ba 8e 0b 3e 3d f9 cf 12 3d
       -0.0043672672 -0.0009036069 0.04639774 0.03584287
000230 34 9c a0 3d e7 6c 1b 3d 6f c0 8c 3c 92 74 80 bb
       0.078422934 0.037945654 0.017181603 -0.0039201463
000240 3f ef e0 3a de bf fc bc 7f 76 c6 bb f0 16 e3 bd
       0.0017161145 -0.030853208 -0.0060566063 -0.11088359
000250 3b 99 ec 3c ff 1f c4 ba f6 fb c8 3b af f0 3a bd
       0.02888166 -0.0014963149 0.0061335517 -0.04563969
000260 af 25 fc 3c 6b e9 07 3b 0c 4f e1 3b b6 bf 88 3d
       0.030779688 0.0020738493 0.006875878 0.06677191
000270 9d 3c f2 3c d6 2f 48 bc a3 08 48 3a 51 31 4c bb
       0.029569918 -0.012218436 0.00076306815 -0.0031157325
000280 26 a1 1c bc b0 9b 64 bd d1 8e 02 3d 50 f6 44 bc
       -0.009559905 -0.055812538 0.03187448 -0.012021616
000290 bd 0b a5 bc a6 4c 38 bb 1d 76 d6 3b fa 20 0f bd
       -0.020147199 -0.0028121858 0.006544842 -0.03494356
0002a0 9e 57 bf 3b c0 37 5d 3d 05 5b bf 3a 78 f2 29 bb
       0.005839302 0.054008245 0.001459927 -0.0025931876
0002b0 8c 35 22 bb d3 9b fc ba 8d 1a b6 3c 52 d8 7d bc
       -0.0024751155 -0.0019272513 0.022229457 -0.015493469
0002c0 35 88 87 ba 98 c4 b4 3b d5 ce 37 bc 41 c2 2d 3a
       -0.0010340275 0.0055166 -0.011218746 0.00066283724
0002d0 77 f5 f1 bb 1d 5f 4f 3d f3 cc a9 39 f6 56 23 3d
       -0.007383998 0.050627816 0.0003238689 0.039877854
0002e0 32 e6 de 3c de ed 1f 3d e3 9f 10 3d 1a f4 1e 3b
       0.027209375 0.039045207 0.03530873 0.0024254383
0002f0 72 3e 49 bd 0b a5 23 3a 68 1e 8f ba d3 cb 54 3d
       -0.049131818 0.000624255 -0.0010919096 0.051952194
000300 d3 ab ab 3c bc c8 c4 3b be cb 24 3a 64 02 e8 3b
       0.020955956 0.0060053747 0.00062864635 0.007080363
000310 d7 ff 85 bd d6 50 e2 3b b7 99 1d 3a 24 e8 6c 3b
       -0.06542938 0.006906609 0.000601198 0.0036149109
000320 b2 e8 51 3d 20 55 7e 3b 27 69 46 bd fd 1e bb bc
       0.051247306 0.0038808063 -0.048440125 -0.022841925
000330 c9 1a 9f bd 9a 26 38 3d 4d 6c 5e bc ee 27 73 bd
       -0.07768781 0.04495869 -0.013575626 -0.05936425
000340 91 96 54 bd 63 f8 22 bd 82 63 5d 3c 25 6e 28 3d
       -0.051901404 -0.03978766 0.013512494 0.041120667
000350 38 81 29 3c 4a 00 f6 3b ac f0 df 3c ed c6 bd 3c
       0.01034575 0.0075073587 0.027336441 0.023166144
000360 f8 b5 1a 3c 26 58 01 3d 45 51 82 ba 37 c6 87 ba
       0.009442799 0.031578206 -0.0009942433 -0.0010358755
000370 9f 2e e5 3b c3 b6 6b 3c ea af 23 be 71 ec a5 bc
       0.006994083 0.0143868355 -0.15985075 -0.020254346
000380 aa 5e 9b bd 5a 57 bc 3b be 47 b2 bc a5 e9 a2 3c
       -0.07586415 0.005747718 -0.021762725 0.019886801
000390 6d cc a7 bb 20 ea 95 bc 7e d4 bb bc b4 5a 60 3d
       -0.005120805 -0.018300116 -0.022928473 0.054774
0003a0 1f 4a ad 3d 9d 28 83 3d 9d 35 18 3b a9 58 06 bb
       0.08461403 0.06404231 0.0023225315 -0.0020499623
0003b0 6a 91 85 3c d2 e9 1e 3d f3 47 ca 3c 77 e1 3e 39
       0.01630469 0.038797207 0.024692511 0.00018203804
0003c0 9c fb 26 3d 1a 22 b3 3b d8 5e 3b 3c a0 d2 3d 3c
       0.040767297 0.0054667117 0.011436187 0.011585861
0003d0 db 73 b6 bc ee 20 cf 3a 16 19 30 3d ca 42 bd 3d
       -0.022272041 0.001580266 0.042992674 0.09241255
0003e0 42 09 9e 3d 8b 59 b6 3a f3 6e 65 bd 3e 0e a3 3c
       0.077166095 0.0013912184 -0.056014013 0.019904252
0003f0 da 03 69 3d fc de 9e 3c 20 a2 e8 bb 55 b4 4c 3d
       0.05688844 0.019393437 -0.007099405 0.049976666
