checkpoint_actor0.pth (torch_old, 592767 bytes, 14 tensors)

fc1.weight f4 [512, 24]
000000 6c 7e 4b 3b 7d ec 6f bd 4f 87 04 3d 71 65 72 3c
       0.0031050695 -0.058575142 0.032355603 0.014794693
000010 8a 69 7f bc cf 61 91 3d 01 fa 96 3c 72 bd 7d 3d
       -0.015589127 0.07098734 0.018429758 0.061948247
000020 17 c4 58 3d 46 70 3a 3b 03 96 9f bb 93 e6 03 3c
       0.05292138 0.0028448268 -0.0048701777 0.008050579
000030 db 48 e7 bc d0 2a 9f 3d cb a6 99 3c 45 44 b0 3b
       -0.028232982 0.07771838 0.01875629 0.005379232
000040 00 52 e8 bb e8 2e a5 bc 4a ef 2a bd fc ff be bc
       -0.0070898533 -0.020163968 -0.04173211 -0.023315422
000050 87 7b a4 bd 4a f6 2f 3e 50 9b 31 3b 3e 31 8f bd
       -0.080313735 0.17183796 0.002710063 -0.06991814
000060 0b 4a e4 3d 78 55 2c 3e 7d e5 c8 bc 1d 24 68 bd
       0.11146935 0.16829479 -0.024523491 -0.056675065
000070 8f e5 80 3c 92 67 dc bd 8d 54 16 3c 31 71 db bc
       0.015734462 -0.10761942 0.009175432 -0.026787372
000080 35 63 19 3d fa a6 4f 3d 74 38 f7 3b 22 d9 3c bd
       0.037448127 0.05069635 0.0075445715 -0.04610551
000090 bf 8e e3 3c fd cc bf 3d b5 fb 03 bc f4 ea 12 bd
       0.027778028 0.0936527 -0.008055617 -0.0358686
0000a0 49 d3 81 bc c2 a2 39 3d 3f 3b df 3b 3d c8 a6 3d
       -0.015847819 0.045321234 0.0068124826 0.08143661
0000b0 56 b8 72 3d 38 18 8e 3d 7f b8 f6 3b 1c 84 14 3d
       0.059257828 0.06938213 0.007529318 0.0362588
0000c0 2d c4 96 bd c6 50 3b 3a 24 de d5 bc 10 37 50 bd
       -0.07361636 0.000714552 -0.026106901 -0.05083376
0000d0 0a 9b f6 bd e0 b8 72 3d 8e 5b 96 3c e1 f8 f8 bc
       -0.1204129 0.05925834 0.018354204 -0.030392112
0000e0 50 6c 8c 3c 06 83 a2 bc 21 b4 e6 bc ec b2 ca 3c
       0.017141491 -0.019837867 -0.028162064 0.02474352
0000f0 d9 b0 ad bd ad 39 71 3c f6 59 07 3d c4 7b b3 3c
       -0.08480997 0.014723224 0.033044778 0.021909602
000100 cb d6 92 3d 5f 39 d2 bc 70 3c dc 3b 54 d9 91 ba
       0.07169875 -0.025662122 0.006721072 -0.0011127391
000110 f5 68 81 bd 89 af 05 3e c9 41 05 3d 39 e3 ca ba
       -0.06318847 0.13055243 0.03253344 -0.0015479095
000120 c8 b4 18 3d ed b9 26 3d f7 6e b1 ba 12 cd 36 bd
       0.03728178 0.040704656 -0.0013537098 -0.044629164
000130 0b 01 69 bc a7 bc f3 3d 43 a2 64 bd ea 63 2f bd
       -0.01422144 0.11901217 -0.055818807 -0.042819895
000140 72 43 aa 3c 2f 52 32 3d 01 b3 21 bd 8f cc 43 bd
       0.020784114 0.043535408 -0.039477352 -0.047802504
000150 ad c4 82 bb 93 c2 aa 3d 4e f6 e6 3c 48 e4 85 3a
       -0.0039907307 0.08337893 0.02819362 0.0010215128
000160 5b e7 15 3d e8 02 19 3d 9b 5d bf bb 27 9b d2 bc
       0.03659759 0.037356287 -0.005840016 -0.025708748
000170 c3 78 85 bd 55 f4 d0 3d a3 87 98 3c 00 44 bc bd
       -0.06517174 0.10202853 0.018619364 -0.091926575
000180 40 ce 36 3d b3 3a cd bc cc f4 db 3b a5 6e 96 3c
       0.04463029 -0.025052404 0.0067125317 0.018363306
000190 63 2e ff 3c f9 86 16 bb d3 ef 20 bc 9e 03 9a 3d
       0.031150049 -0.0022968634 -0.009822804 0.07520221
0001a0 50 fb 43 bc 7f f4 dd 3c ad 86 bd bd 7a 85 58 bd
       -0.011961773 0.027094124 -0.09254203 -0.05286167
0001b0 77 cf 28 bd 88 bc 9a bc c0 35 73 bd f4 8b 64 3a
       -0.04121348 -0.018888727 -0.059377432 0.00087183644
0001c0 b6 fd 01 bd 4e 69 e0 bc 40 24 59 bc a9 2d 44 bd
       -0.0317361 -0.027393963 -0.013253272 -0.047895107
0001d0 ad af aa 3c 80 78 7b 3d 88 16 8e bc 33 bb 24 bd
       0.020835722 0.061394215 -0.017344728 -0.04021759
0001e0 fb 84 02 bd cf f8 2c 3d 65 ee a3 bc 83 b4 2b 3d
       -0.0318651 0.04222947 -0.020011136 0.041920196
0001f0 3b 9d a7 bd 5f 04 3d bc 4d 1c 8c bc dd a2 ce bc
       -0.08184286 -0.011536687 -0.017103339 -0.025224144
000200 21 4e b4 bd d4 cf d1 3c 06 67 50 bc 13 35 53 3d
       -0.088039644 0.025611795 -0.012719875 0.051564287
000210 80 57 3d bd 7d 24 bc ba 1e 1c 7f bd d1 cf 21 3d
       -0.046226025 -0.0014354136 -0.062282674 0.03950483
000220 84 84 c4 bd 42 54 fe 3c 2c 04 01 bd 05 9f bf 3c
       -0.09595588 0.031046037 -0.03149812 0.023391256
000230 e1 56 da bc 89 ff 27 bc 33 4c 24 bd 6c 91 33 3d
       -0.026652755 -0.010253795 -0.04011173 0.043839857
000240 c8 02 ed bc 59 64 f8 3c ee f5 00 bd 46 13 14 3c
       -0.02893199 0.030321287 -0.031484537 0.009037798
000250 06 0d 4f bc c3 e1 ec 3d a6 24 b8 bb 7c 92 18 bd
       -0.012637382 0.11566498 -0.005619603 -0.037249073
000260 ca 9a a2 bd f3 6a 58 bd 42 a9 d7 3c 16 6c 5f bd
       -0.0793968 -0.05283637 0.026325826 -0.05454644
000270 c0 36 05 bd 07 6a 85 3d d4 e0 46 bd 82 e0 eb 38
       -0.032522917 0.06514364 -0.048554257 0.00011247491
000280 16 a1 5b bd 92 24 89 bd 35 32 e4 3b bf e9 d5 bc
       -0.05362042 -0.06696428 0.006963993 -0.026112435
000290 db 2d ec 3c 5a 52 2d be 02 7f f2 bc 93 36 38 3d
       0.02883046 -0.16925946 -0.029601578 0.04497392
0002a0 5d 71 92 38 59 2e 06 be 77 e5 00 bc 68 6f 3a bd
       6.982938e-05 -0.13103618 -0.007867209 -0.0455164
0002b0 dc df a6 bc 26 c1 7b bc 32 26 04 3a 5a 14 11 3b
       -0.020370416 -0.015365874 0.0005041092 0.0022137375
0002c0 1d 5d 3b bb 65 70 72 bd 55 6f 81 bc d8 6d 87 bb
       -0.0028589435 -0.05918922 -0.015800158 -0.0041329674
0002d0 cf 53 18 be 4a 6b 2d bd cb 03 ed 3c 52 0f 65 b9
       -0.1487572 -0.042338647 0.028932473 -0.00021844849
0002e0 56 35 d1 3d 34 01 bd bd 7b 26 a4 bb 22 a9 42 3d
       0.10215251 -0.09228745 -0.00500947 0.04752458
0002f0 74 af 25 be d8 41 66 3d 64 02 78 3c 51 f4 35 bb
       -0.16180211 0.056215137 0.015137289 -0.0027764032
000300 3d 67 04 bc b7 30 0c be 04 bd eb bc ee bd 19 3d
       -0.008081255 -0.13690458 -0.028776653 0.037534647
000310 b6 2b 9f 3d 7f d9 ca 3d 01 69 7e 3c 82 4f 01 3c
       0.07772009 0.09904765 0.015527965 0.007892491
000320 c3 35 a0 bd 57 27 e3 bd 6e 15 03 bd e7 e3 66 3d
       -0.07822754 -0.11091488 -0.03200286 0.05636969
000330 0b fa f3 3b b1 9f 30 3d d6 3a 06 bc bf c5 8a 3d
       0.007445579 0.043121044 -0.0081927385 0.06775998
000340 0e d7 a9 bd 9f d5 28 be 71 bf 31 3c 83 fc 1e bb
       -0.082929716 -0.1648774 0.010848866 -0.0024259395
000350 3e ae 52 3c a8 12 9c 3d a8 af 18 bc ae 36 7b 3a
       0.012858925 0.07620746 -0.009319223 0.0009583038
000360 dc 54 ae bd 81 52 14 bd 13 00 02 bc a1 a7 01 bd
       -0.085122794 -0.036211494 -0.007934588 -0.031654004
000370 44 d8 9e 3d 69 36 c6 bd e4 7c 15 3d a4 b6 00 3d
       0.07756093 -0.09678347 0.036496058 0.03142418
000380 5a f9 bf bd e5 86 f9 bc a9 04 bb 3b 7e bd 9e bc
       -0.09373732 -0.03045983 0.0057073426 -0.019377466
000390 f0 57 09 3d 71 ee 84 3c ec be c7 bc 44 62 72 3d
       0.03353113 0.016226979 -0.02438303 0.059175745
0003a0 5d 14 36 bd 14 62 a7 bd e4 c2 a3 3c 77 30 dc 3c
       -0.044453014 -0.08173004 0.019990392 0.026878579
0003b0 3b e0 ac bd df 71 47 bb 92 ba 99 bc ed 37 b7 bc
       -0.08441206 -0.0030432863 -0.018765721 -0.022365535
0003c0 e3 69 ab 3d bd a6 50 bc 06 22 d5 bb 56 87 61 3d
       0.08369806 -0.012735066 -0.0065043 0.055060707
0003d0 51 9e 93 bc 0b 13 a4 bc da c2 a2 b7 de 2c 8f 3d
       -0.018019827 -0.020028612 -1.940264e-05 0.069909796
0003e0 86 77 1a 3d 49 73 33 bd c7 69 8d 3c 72 ad 04 3c
       0.037711643 -0.043811116 0.017262353 0.008097993
0003f0 b7 78 a0 3b e0 ed 67 bd e5 39 21 3d 51 c9 11 bd
       0.004897203 -0.05662334 0.039361853 -0.03559238

fc1.bias f4 [512]
000000 72 8f 2e be 34 96 ab 3d 50 b8 01 3e aa 17 2f be
       -0.17046908 0.08378258 0.12667966 -0.17098871
000010 aa 9c 29 be 50 84 99 3d d3 84 f6 bd 2c 1b f4 bd
       -0.16563669 0.0749594 -0.12037053 -0.11919245
000020 a1 e8 4e 3e 18 b5 7b 3d c3 2b e6 3d 76 f2 20 be
       0.20205928 0.061452 0.11238816 -0.15717492
000030 66 c7 05 be 28 99 ef bc a9 4c e5 bd a1 36 f1 bd
       -0.13064346 -0.029247835 -0.111962624 -0.11777998
000040 05 92 2f 3e c8 b7 3a be 88 e8 70 3c 09 f8 87 3d
       0.17145546 -0.1823417 0.014703877 0.06639106
000050 08 49 3e 3e e1 32 0f 3e 3f 56 03 3e 67 1b 1c 3e
       0.18582547 0.13984253 0.12825869 0.15244828
000060 cd 1e 06 be aa 3d 1a be 81 a0 38 3e 08 55 2e bd
       -0.13097687 -0.15062585 0.18029977 -0.04256156
000070 d0 7c 41 3e e4 f7 df 3d 6f b8 63 bd d9 95 69 bd
       0.18895268 0.10935953 -0.05559581 -0.05702767
000080 41 c6 4e bd cc d7 db 3d 9f a0 16 bd 41 3a 1c 3d
       -0.05048204 0.10734519 -0.036774274 0.038141493
000090 33 2b 05 3e e3 95 a5 bd 91 d7 aa bc 29 af 1b be
       0.1300476 -0.08085229 -0.020854743 -0.15203537
0000a0 71 68 f8 3d 8a 07 4e 3d a3 e9 d3 3d db 26 be bc
       0.121292956 0.05030016 0.10347297 -0.023211887
0000b0 84 56 39 3e 68 5a 0d be f7 ea 0d be b6 05 24 3e
       0.1809941 -0.13804018 -0.13859163 0.16017804
0000c0 c5 be 89 3d 7b f2 c3 3d b6 0f 61 bd 73 b8 03 bd
       0.067258395 0.09567734 -0.054946624 -0.032158326
0000d0 ec 2c 0c 3e 87 0b 28 3d d7 81 0b be fc c2 37 bd
       0.13689011 0.04102662 -0.13623749 -0.044863686
0000e0 0e 78 34 be c4 43 26 be d3 98 1d 3e 01 dd 4e 3e
       -0.17623922 -0.16236788 0.15390329 0.20201494
0000f0 70 91 11 be 26 87 a7 bd 4a 3a ea bd 43 28 0c bc
       -0.14215636 -0.081800744 -0.11436899 -0.008554521
000100 d1 76 26 be ea 15 2e bd 2d ba 00 be 3a 84 27 3e
       -0.16256262 -0.042501368 -0.1257102 0.16359034
000110 9d 80 0a 3e 45 f5 82 3d 7b 3e 21 be 13 ec 49 3d
       0.13525625 0.06394438 -0.1574649 0.049297404
000120 49 62 0d 3e e0 3c bd bd 6d c1 08 be 80 b5 1a be
       0.13807024 -0.092401266 -0.13355036 -0.151083
000130 ff 82 58 bc b5 66 92 3d 9b 9e fb bd 0a e7 25 3e
       -0.013214826 0.07148496 -0.12286111 0.16201416
000140 c0 38 be bd 12 d6 2f be 85 e3 38 3e 3f bf c2 bd
       -0.09288168 -0.17171505 0.18055542 -0.095091335
000150 4b 84 f1 3d 88 73 ea 3d b1 43 79 3d d4 52 8d bd
       0.11792811 0.11447817 0.06085557 -0.06900564
000160 fa 77 25 3d 8f ce 40 3e 36 f6 32 be ea bf 28 3e
       0.04039762 0.18828796 -0.17476735 0.1647946
000170 f6 b4 38 3e 5a f6 3e be ee 45 43 3c fd 46 00 bd
       0.18037781 -0.18648663 0.011918528 -0.0313177
000180 d5 f2 a1 3d a3 df 19 be a0 b9 0d 3d 71 eb a6 bd
       0.07907645 -0.15026717 0.034600854 -0.08150376
000190 29 44 87 ba 62 39 05 be 82 23 43 3e 38 9c 2c 3e
       -0.0010319996 -0.13010171 0.19056514 0.16856468
0001a0 bf 86 32 be 99 c7 d7 3d a4 03 10 3e c0 c5 61 3b
       -0.17434214 0.10536117 0.14063889 0.0034450144
0001b0 29 55 9c bc 94 1d 94 3d 26 dc a4 bd 91 b0 35 3e
       -0.019083576 0.07232204 -0.080498025 0.17743136
0001c0 fe ec 10 be 57 f5 38 3e 3d 04 12 be e1 2b f4 bd
       -0.14152905 0.1806234 -0.1425943 -0.11922432
0001d0 40 e1 4f 3e 93 c0 3e 3e ea 8d c7 bd fd 9f 19 bd
       0.2030077 0.18628149 -0.09743865 -0.037506092
0001e0 23 22 f1 bd a0 e8 15 3e bf d7 d4 bd d4 e5 d7 bd
       -0.11774089 0.1463952 -0.10392713 -0.10541883
0001f0 c4 7f 3d bd 2f f4 c2 bd d2 5e 13 3e 37 1d 06 3d
       -0.046264425 -0.095192306 0.1439164 0.032742705
000200 fd ae 57 bc f6 28 14 be be dc 69 bd a4 34 4e be
       -0.013164279 -0.1446875 -0.05709528 -0.20137268
000210 c6 7c 43 3e b2 58 d6 bd 48 da 0b be 37 79 24 3e
       0.19090566 -0.10466136 -0.13657486 0.16061865
000220 8a 43 c3 3d eb 16 2f 3e cf ca 97 3d a1 5f 12 bd
       0.095343664 0.17098586 0.074117295 -0.03573573
000230 18 4e 5e bd 91 5f b1 3d 8c 19 49 be d0 6e 11 3e
       -0.054273695 0.08660806 -0.19638652 0.14202428
000240 07 87 44 3d b0 63 61 3d f9 b1 24 be b7 63 c2 39
       0.047980335 0.05502671 -0.16083516 0.00037076857
000250 40 1e 0b be b8 98 08 3e d2 41 42 3e 62 63 23 3e
       -0.13585758 0.13339508 0.18970421 0.1595588
000260 eb 83 21 be cd e2 f9 3d b8 f3 ef bd c2 80 80 3d
       -0.15772979 0.12201462 -0.117164075 0.062745586
000270 f3 79 48 bd 95 16 2b 3e fc 3d 0f bd 04 d4 26 be
       -0.048944425 0.16707833 -0.034971222 -0.16291815
000280 3d 75 f1 3d 56 9f f8 3d 84 e3 ad bd 83 87 46 3e
       0.117899396 0.12139766 -0.08490661 0.19387631
000290 d3 1f 3e be 0c ef f7 3c c7 0c c2 3d 2c 18 d1 bd
       -0.18566827 0.030265354 0.09475093 -0.102096885
0002a0 5d 15 41 be 3b 4b 3a be c5 fb 4d be b5 eb 32 be
       -0.18855806 -0.1819276 -0.20115574 -0.17472728
0002b0 c0 e8 e7 bd 9a 69 1f bd f2 5d 4f be b6 63 8c 3c
       -0.113236904 -0.03891907 -0.20250681 0.01713739
0002c0 6a 7d 78 3d 55 3d 3d bd 67 b5 02 be cf 3a 55 bd
       0.06066648 -0.04620107 -0.12764512 -0.052058037
0002d0 0d d8 19 3e 4c e5 3f 3e 0b 0c 21 be d9 a0 c9 bc
       0.15023823 0.18739814 -0.1572725 -0.024612831
0002e0 16 30 0c 3e a5 47 e7 bd 80 52 26 3e 30 21 0e be
       0.13690218 -0.11292962 0.16242409 -0.13879848
0002f0 c0 ac 1c 3e 69 23 d2 3d 90 49 b8 3c 62 a1 6b 3d
       0.15300274 0.1026066 0.022496015 0.057526954
000300 ce d3 81 bc 00 ae 4b 3e 58 10 9a 3d f8 37 9f 3d
       -0.015848067 0.19890594 0.075226486 0.07774347
000310 5f dc 48 3e 23 4a ea 3b 9f 53 3d 3e 51 1e 46 3e
       0.19615315 0.007149951 0.1848893 0.19347502
000320 0c df a5 bc b0 6c 2b 3e 8c 71 27 bc 8a b7 ff 3d
       -0.020247959 0.1674068 -0.010219943 0.12486179
000330 c0 bc b9 bd 83 5e be bd 08 8b 80 bc 05 5c cd 3d
       -0.09069204 -0.092953704 -0.015691295 0.10027317
000340 4c 12 13 be 10 ed 21 3e 8c f2 1e 3e ae 74 81 bd
       -0.14362448 0.15813088 0.15522212 -0.06321083
000350 48 3a 81 3d e9 c7 3f be 54 7f 71 bb 04 50 e0 bd
       0.063099444 -0.18728603 -0.0036849575 -0.10952762
000360 46 e2 43 3e 15 53 a4 3c b3 15 3a bc bf 68 ef bd
       0.19129285 0.020059148 -0.011357713 -0.116899006
000370 02 eb f9 bd 1a 28 a7 bd 0c 48 0f be f3 7d 3c be
       -0.12203027 -0.08161946 -0.13992327 -0.18407421
000380 78 6b 73 3d 25 42 3b 3e d3 e7 13 3e d7 b9 06 3e
       0.059428662 0.18286951 0.14443903 0.1315683
000390 f4 12 4c be e1 2c 00 3e 2f a2 0d 3e d5 20 4b 3e
       -0.19929105 0.1251712 0.138314 0.19836743
0003a0 85 6d dd bb fa 04 83 3d 20 ef cd 3b f0 c4 19 bc
       -0.0067574405 0.063974336 0.0062846094 -0.009385332
0003b0 04 bc c6 bd 05 21 b6 3d 40 60 21 3e a4 be c2 bd
       -0.0970383 0.08893017 0.15759373 -0.09509018
0003c0 ba 9d 24 be 20 3f a7 3d 05 02 d6 bc 95 f7 dc bd
       -0.16075793 0.08166337 -0.02612401 -0.1078941
0003d0 3f 52 f2 3d 27 8b 46 3e 7c c7 26 3d 39 2f f4 bd
       0.118320934 0.1938902 0.040717587 -0.119230695
0003e0 11 ad dd bd a4 b4 32 3d 65 73 2f 3e 8c 05 e9 bd
       -0.108240254 0.043629304 0.17133863 -0.11378011
0003f0 0c 7b 40 bd 2f 19 14 3e 7a 5f 7b bd 39 1c 70 bd
       -0.046992347 0.14462732 -0.06137035 -0.058620665

bn1.weight f4 [512]
000000 4f d1 92 3d 20 94 c4 3e 91 80 53 3f e6 66 17 3f
       0.07168829 0.3839426 0.8261805 0.59141386
000010 c7 a5 ca 3d ab 57 09 3f 04 f8 6c 3f 42 40 8b 3e
       0.09894901 0.53649396 0.9256594 0.27197462
000020 08 06 09 3e c7 8c 9d 3d 22 28 74 3e df 0e 29 3f
       0.13381207 0.07692867 0.23843434 0.66038316
000030 d3 e4 d6 3e 92 d3 04 3f 29 a4 64 3f fa 71 f3 3d
       0.41971454 0.5188533 0.8931299 0.11886974
000040 2e 42 3a 3e 65 65 5b 3f 1c 35 4a 3f 53 de 2a 3e
       0.18189308 0.8570159 0.7898729 0.16686372
000050 b8 66 12 3f 9b a9 2b 3f 30 a9 0f 3f fa 29 32 3f
       0.57187986 0.6705567 0.56117535 0.695953
000060 34 41 be 3e 94 e6 1a 3f 4a 1e d3 3e 00 38 2b 3e
       0.3715912 0.60508084 0.41234046 0.16720581
000070 ea 9e 2a 3f bf ca 0e 3f cf 46 8a 3e 30 46 4b 3f
       0.66648734 0.55778116 0.27007148 0.7940397
000080 24 87 07 3f e6 cd 60 3e 2f c9 3d 3e ed db e4 3e
       0.52940583 0.21953544 0.18533777 0.4469904
000090 94 5d 51 3f 86 12 19 3f ae 84 37 3e dd 03 13 3f
       0.81783414 0.5979389 0.17921707 0.5742777
0000a0 36 61 10 3f a4 9c 14 3f dc 60 60 3e da 91 18 3e
       0.5639833 0.58051515 0.21911949 0.14899388
0000b0 3c bc 92 3e e0 39 55 3f 71 0c 2a 3f b3 a8 11 3e
       0.28659236 0.83291435 0.66425234 0.1422451
0000c0 0a 60 a2 3e 4f 20 a0 3e af 12 87 3e 31 f4 e0 3e
       0.31713897 0.3127465 0.26381442 0.43936303
0000d0 02 e0 57 3f 0e 8b 21 3e f6 dc b7 3e f2 26 da 3e
       0.84326184 0.15775701 0.35910767 0.42607838
0000e0 1d 05 63 3e 81 09 2b 3f f9 de 7a 3d 4e 1d 52 3f
       0.2216992 0.66811377 0.0612478 0.82075965
0000f0 ad 27 1f 3e 13 b7 fe 3e a9 23 2d 3f 16 6e 3b 3f
       0.15542479 0.4974905 0.6763254 0.7321485
000100 d2 e9 69 3e b1 03 6e 3e ef 3d 21 3e 41 43 27 3f
       0.22843102 0.23243596 0.15746282 0.65336996
000110 97 4b c5 3e 03 f0 db 3d f9 ef 6f 3e 06 0d c1 3e
       0.38534233 0.10739138 0.23431386 0.3770525
000120 83 47 a0 3e 13 c8 3b 3f f5 36 3a 3e d0 84 c4 3e
       0.3130456 0.73352164 0.18185027 0.38382578
000130 33 10 cb 3e 47 7f d8 3d 94 c2 20 3f 80 5a 19 3e
       0.39660797 0.10571151 0.627969 0.1497593
000140 12 9d 6c 3f fd dc fe 3e 73 51 74 3f 5c a7 31 3f
       0.9242717 0.49777976 0.9543678 0.69395995
000150 98 76 72 3f ed 32 6c 3f 16 43 bf 3e fc 92 60 3f
       0.9471221 0.92265207 0.3735587 0.8772428
000160 19 b4 39 3f 11 44 87 3e 67 7c 40 3f 3a 3b 01 3f
       0.7254043 0.26419118 0.7518982 0.50481
000170 cd 60 b0 3d e7 ad e5 3e d6 e9 5f 3f 56 a1 14 3e
       0.08612213 0.4485924 0.8746618 0.1451467
000180 85 21 2e 3f 61 f1 6c 3e b3 bb a4 3e 95 9f f2 3e
       0.68019897 0.23138954 0.32174453 0.47387376
000190 b9 e0 21 3f 10 1b 8b 3e c7 6b 66 3e ff b8 45 3e
       0.63233525 0.27169085 0.22502051 0.19308852
0001a0 f3 fb 08 3e b0 60 64 3f d8 9d 1d 3f e1 49 ef b9
       0.13377361 0.89210033 0.61568975 -0.00045640676
0001b0 aa 1e 18 3f 8c 61 56 3f 90 52 1d 3f 42 e1 aa 3e
       0.5942179 0.83742595 0.61454105 0.33374983
0001c0 e3 96 b8 3e 71 3b 2c 3e c7 ad 44 3e 49 01 46 3f
       0.36052617 0.1681955 0.19206916 0.7734571
0001d0 ad 73 fb 3e af cf 9e 3e 26 af 62 3f 22 99 2d 3f
       0.4911169 0.31017825 0.88548505 0.6781179
0001e0 ea c8 b1 3e f9 b4 0d 3f 73 12 87 3d 71 27 20 3f
       0.34723598 0.5535427 0.06595316 0.6256018
0001f0 41 c6 ab 3e c5 83 f4 3e b6 1b 3b 3e 45 cf 3a 3e
       0.33549693 0.47756782 0.1827229 0.1824313
000200 3b ec dd 3e 5d 67 5e 3f ee d6 bc 3e 0a d7 f4 3e
       0.43344292 0.8687647 0.36882728 0.47820312
000210 ba b3 04 3f 95 47 24 3f 65 d7 1f 3f ff f5 67 3f
       0.5183674 0.64171726 0.6243804 0.90609735
000220 48 fc 2c 3f 2f 9b e0 3e 4d 81 09 3e 9b ea 11 3f
       0.6757245 0.43868396 0.1342823 0.56998605
000230 be b3 91 3e c1 27 8c 3e 11 a4 74 3e 36 a2 28 3f
       0.28457445 0.2737408 0.23890711 0.65872514
000240 c2 36 47 3f 35 20 7c 3f a2 bf 4e 3f 46 a5 33 3f
       0.7781793 0.98486644 0.8076116 0.7017406
000250 8e 28 40 3e 08 78 fe 3e 3c d2 5e 3f a4 eb 11 3f
       0.1876547 0.49700952 0.8703954 0.57000184
000260 95 ea 5f 3f 10 7b 73 3e b2 b6 f6 3e ae 98 31 3f
       0.8746732 0.23777413 0.4818626 0.69373596
000270 3e 83 3b 3f 76 d9 e5 3e 68 3a fa 3e 76 cd 48 3f
       0.73247135 0.44892472 0.48872685 0.7843851
000280 69 40 23 3f 7e c2 8b 3d ec ae 48 3f 1b d0 8a 3e
       0.6377016 0.06824206 0.7839191 0.27111897
000290 04 92 13 3f 56 e6 48 3f 88 49 06 3f 93 e7 1d 3f
       0.5764468 0.78476465 0.5245595 0.6168148
0002a0 3e 51 01 3f 29 fa 17 3f 45 9f e1 3e 3f 50 3c 3e
       0.5051459 0.5936609 0.44066826 0.18389986
0002b0 69 b9 da 3e a1 a3 f0 3e 91 73 38 3e 73 d3 28 3f
       0.42719582 0.4699984 0.18012835 0.65947646
0002c0 fc 5d 3d 3e dd 50 5c 3f c9 48 ab 3e 98 7b 83 3e
       0.18492883 0.8606089 0.33453968 0.25680232
0002d0 5f 01 19 3f a4 a7 4b 3f 83 be 6a 3f 39 de 9c 3e
       0.5976772 0.79552674 0.9169695 0.30638292
0002e0 3a 07 e3 3e c4 1f f7 3e 77 54 b8 3e 6d 38 e1 3d
       0.4434145 0.48266423 0.36001942 0.109970905
0002f0 b2 0b aa 3e 54 7c ed 3e 07 3f a6 3e 6f cd 2b 3f
       0.33212048 0.46383917 0.3246996 0.6711034
000300 fa e2 e2 3e a0 10 2c 3e 9e f8 90 3e 1f 69 86 bd
       0.44313794 0.16803217 0.2831468 -0.06563019
000310 d1 27 5d 3f 3f b0 2b 3f 27 93 0b 3f 96 d5 e2 3e
       0.8638888 0.67065805 0.5452141 0.44303578
000320 ff 09 15 3f 9e 09 2a 3f 18 92 86 3e 0f 78 82 3f
       0.5821838 0.66420925 0.26283336 1.0192889
000330 cc b9 92 3e 36 fb b7 3e e3 40 d6 3e 99 d5 06 3f
       0.28657377 0.35933846 0.4184638 0.52669674
000340 b8 a4 3b 3f 1e c2 9e 3e 4c 8d e6 3e be fa 38 3e
       0.73298216 0.31007475 0.45029676 0.180644
000350 26 7c 8c 3e a2 4f 87 3e ef 0e 9c 3e dc a1 14 3f
       0.27438468 0.26427943 0.30480143 0.5805948
000360 6a 3f 28 3f 13 66 2b 3f 78 f1 35 3f f4 4e 15 3f
       0.6572176 0.6695263 0.7107158 0.583236
000370 90 13 03 3f 3c da 4a 3e 5b 5e 49 3f f5 58 9f 3e
       0.51201725 0.19809812 0.786596 0.31122556
000380 d5 b7 5d 3f 1d a0 2a 3f 3a 27 0a 3f 28 0a 4e 3f
       0.8660863 0.66650563 0.53966105 0.8048425
000390 76 76 bb 3e f1 a9 4a 3f 9e 27 49 3f 5c c2 2f 3f
       0.36613816 0.7916556 0.78576076 0.68655944
0003a0 e6 2c 7f 3e b8 b3 2e 3f 0d 30 6c 3a ac b6 28 3f
       0.24919471 0.6824298 0.00090098457 0.65903735
0003b0 68 e9 d1 3e 45 37 4f 3f c4 2c 45 3f f2 94 1d 3f
       0.40998387 0.8094371 0.7702143 0.615554
0003c0 42 08 3b 3f 78 62 2d 3f e9 1d ba 3d 06 ef 2f 3e
       0.73059475 0.67728376 0.09087736 0.17181024
0003d0 9d 3d 7a 3f 9d 5c ec 3e ac 42 71 3f c1 f8 6e 3f
       0.97750264 0.46164408 0.9424236 0.9334832
0003e0 3c bf 1d 3f aa ae 1c 3f 70 bf eb 3e 65 85 64 3f
       0.61619925 0.61204016 0.46044493 0.89266044
0003f0 f2 53 67 3f 3b 75 2d 3f 48 24 e2 3d 4a 2f ce 3e
       0.90362465 0.67757004 0.11042076 0.40270454

bn1.bias f4 [512]
000000 c3 fe b8 bb cd 50 ab bd ca 24 3b 3d 11 68 1f be
       -0.0056456043 -0.08365021 0.04568938 -0.15567042
000010 0f 3d 9e bd 3f c1 1f be 58 1b fd bc cf 08 14 be
       -0.0772649 -0.15601061 -0.030896828 -0.14456485
000020 50 81 a8 bd 77 92 8f bc 9c 73 d6 bb ae 96 fa bc
       -0.082277894 -0.017525895 -0.0065445434 -0.030589428
000030 1b db 27 3d f9 dd 59 bd 1f f1 e3 bb 83 d8 9d bd
       0.04098044 -0.053190205 -0.006956234 -0.07707312
000040 7a 96 48 bd 89 87 39 bd 8f 92 d4 bd 59 aa 09 be
       -0.04897163 -0.045295272 -0.10379516 -0.13443889
000050 0e 5a df bc 20 fe 29 be bc 60 d3 bd 1d 4a d8 bc
       -0.027264621 -0.16600847 -0.10321185 -0.026402527
000060 e6 dd 1c be 1a 38 7b bd 8a 78 65 bd fe 95 1a bc
       -0.15319023 -0.0613328 -0.056023158 -0.009435175
000070 35 ef 51 bd 48 26 b4 bd 76 45 04 bd d1 72 8b bd
       -0.051253516 -0.08796364 -0.032292806 -0.06809009
000080 ec df cf bd e6 e2 e9 bc 79 5f 12 be e7 66 c2 bd
       -0.101501316 -0.028550576 -0.14294232 -0.09492283
000090 b9 5d 5a bd 46 5e 45 be 63 19 1d be 6b 8d a8 bd
       -0.053312037 -0.19274244 -0.15341716 -0.08230098
0000a0 a2 a5 9c bd 10 99 c5 bd e1 40 96 bd 36 b5 f2 bd
       -0.076487795 -0.09648335 -0.073365934 -0.118509695
0000b0 85 b9 d7 3c f7 a4 2d bd f0 bc d7 3c c6 f7 44 bd
       0.02633358 -0.04239365 0.02633521 -0.048087858
0000c0 8b 57 d6 bd ef 5c e9 bc 25 c9 a5 bc 32 a0 35 bd
       -0.10465916 -0.028486697 -0.020237515 -0.044342227
0000d0 fe 1a dd 3c af fc df bd de f9 63 3c 8d d8 20 bb
       0.02699041 -0.109368674 0.013914553 -0.0024543137
0000e0 53 09 52 bd 6e 77 0a 3d bb 04 a8 bd e0 14 2e 3d
       -0.051278424 0.033805303 -0.08204027 0.042500377
0000f0 2b 83 16 bd da 50 29 bd 7a 2b 5d 3c 1f 7a bc bb
       -0.036746185 -0.04133687 0.013499135 -0.0057518627
000100 46 3c 10 bd 56 6b 28 bd eb 55 08 3d d4 b7 7d bd
       -0.03521373 -0.04111799 0.033285063 -0.06194289
000110 49 77 f8 bd 83 db 51 3d 09 5e f9 bd be 22 ac bd
       -0.12132127 0.051234733 -0.12176139 -0.08405064
000120 e9 76 8d 3d 21 bc a3 bc 58 e7 33 bd 33 30 a0 bd
       0.06907446 -0.019987168 -0.0439218 -0.07821693
000130 75 4b 1f bd 49 09 21 3d a7 62 16 be 2d b2 83 3b
       -0.03889032 0.039315496 -0.1468607 0.004019043
000140 76 d2 c6 bc 5e dd 09 be be 0b 0f bd 03 a8 b0 bd
       -0.024270277 -0.13463351 -0.034923308 -0.08625796
000150 eb 2e 9a bd de c5 3f be 53 5c 6d 3c b4 6a cd bd
       -0.0752848 -0.18727824 0.014487344 -0.10030118
000160 5d 28 81 bd 83 ea a0 bd 69 ca 66 bd 55 3b 39 bc
       -0.06306527 -0.078572296 -0.056345377 -0.01130565
000170 d4 d2 40 bd 10 38 c3 bc 1e 65 9b bd 57 d0 9e bd
       -0.04707606 -0.023830444 -0.07587646 -0.077545814
000180 c5 5c fc bc c6 8e a9 bd 8b 96 8a bd ad 46 bf bc
       -0.030805955 -0.08279185 -0.06766995 -0.02334913
000190 84 87 a4 bc 3b e9 c3 bd 72 55 11 be fc 31 3e bd
       -0.02008415 -0.095659696 -0.14192751 -0.046434388
0001a0 aa b4 c7 3c 6a ab 4d bd bb 8b 55 be ea df 6b 3c
       0.02437814 -0.0502123 -0.20854084 0.014396647
0001b0 7b 3f 38 39 3c 7e 2d be 6f 55 c7 bd 80 36 4a bd
       0.00017571256 -0.16942686 -0.09733092 -0.04936838
0001c0 44 1f e9 3c b5 0f 72 bd bf e5 13 3c bf 27 c1 3b
       0.028457291 -0.05909701 0.009026944 0.0058946307
0001d0 81 4a fe bc 53 e9 af 3d 44 b1 09 bc 2a 4a c3 bd
       -0.031041386 0.08589425 -0.00840408 -0.0953563
0001e0 3b 30 3f bd c9 a2 13 bd a3 75 23 3d 87 23 28 bd
       -0.046676856 -0.036043916 0.03990711 -0.041049507
0001f0 61 24 8c 3d 53 59 07 be 81 aa 43 bd d2 2b c0 bd
       0.06842876 -0.13217668 -0.047770027 -0.09383358
000200 ac e1 e1 3c 60 e0 96 bd 01 32 01 be 92 c6 ea bd
       0.027573429 -0.07367015 -0.12616731 -0.114636555
000210 f7 17 c3 bd 3f 19 31 bc 2d c6 a6 bd 21 68 d0 3b
       -0.09526055 -0.010809242 -0.08143268 0.0063600694
000220 aa 1b 9d 3c aa a1 91 bd 9e d6 e1 bd f1 df cf bd
       0.01917823 -0.07110913 -0.11027263 -0.10150135
000230 61 ec 7c bd 6f b5 8b 3d 4c 15 e0 bc 93 d0 72 bd
       -0.061748866 0.06821715 -0.027353905 -0.059280943
000240 d9 15 40 bd 0c 51 3b be be af c4 bd 9a 12 a0 bd
       -0.046895836 -0.18292636 -0.09603833 -0.07816048
000250 c2 e8 6e 3b 73 2e f3 bd 22 da 68 bd 45 a2 a5 bd
       0.0036454652 -0.11874094 -0.056848653 -0.08087591
000260 a8 f9 63 bc 25 f4 33 3d e4 ff 9e bc 64 ff 91 3c
       -0.013914503 0.043934006 -0.019409128 0.017821975
000270 1e d0 f0 bd b2 ad 6b bd b6 7d a5 bd 5b 56 df bd
       -0.11758445 -0.057538696 -0.08080618 -0.10905143
000280 d4 7e e1 bd a3 ae 8d bd 26 04 c1 bd a2 70 44 bd
       -0.11010519 -0.06918075 -0.094246194 -0.047958978
000290 45 cc c7 bd 2b 82 01 be db 66 82 bc 2f 2d 32 bd
       -0.09755758 -0.12647311 -0.015918186 -0.04350012
0002a0 d8 5d 1f be 1e 90 03 be 96 0c 4b bd b6 a6 2f be
       -0.15563142 -0.12847945 -0.04957255 -0.17153439
0002b0 35 4e 52 bc 60 77 bd 3c fe 03 f5 3d 59 0f 8c 3d
       -0.012836029 0.023128211 0.11963652 0.06838865
0002c0 27 d6 bc bd 70 3b 02 be f6 18 a5 bd 16 af db bd
       -0.09220534 -0.12717986 -0.080614015 -0.10726754
0002d0 07 ff 12 bd a2 d9 08 be f1 ab 0e be c4 65 ae bc
       -0.035887744 -0.1336427 -0.13932778 -0.02128876
0002e0 cf 0d bd bd a1 4c 1c be ee 4c b8 3c 7a ff 09 3b
       -0.092311494 -0.15263607 0.02249762 0.0021056817
0002f0 b4 50 16 be 07 df 04 be 1d a2 4b 3c 67 da bd bd
       -0.14679223 -0.12975703 0.012428788 -0.092701726
000300 93 32 b0 3c ae 98 1b be 16 3b 6f bc ef 6e 3d bd
       0.02150849 -0.15194961 -0.0146014895 -0.046248373
000310 bd 95 32 be 5c b1 96 bc 40 2e c6 bd 98 58 1c be
       -0.17439933 -0.018395118 -0.0967679 -0.15268171
000320 f6 39 e0 bd 4d 85 29 3d 7d 69 9e 3c 23 a7 8a bd
       -0.10948555 0.04138689 0.01933741 -0.0677016
000330 bc 02 09 be 27 13 08 bd ab ca fb bd 1f e4 9a bd
       -0.1337995 -0.03322139 -0.12294515 -0.07563042
000340 d5 21 aa bb 96 9a 01 be 4a 55 08 be d0 1f c2 bc
       -0.0051920214 -0.12656626 -0.13313785 -0.02369681
000350 6d 32 e0 bd 9b 7b b0 bd f6 ea c3 3d 59 1f 01 be
       -0.10947118 -0.08617326 0.095662996 -0.12609614
000360 7a bb c1 bd 14 71 97 bd 64 c1 62 3b d3 d2 c6 3d
       -0.094595864 -0.07394615 0.0034600133 0.0970818
000370 8c 85 23 3d 58 45 54 3c a4 2d ee 3d c9 ae 09 bc
       0.039922282 0.012955986 0.11629799 -0.008403488
000380 be 28 40 bd a3 89 38 be df f7 17 bd cc d9 cc bd
       -0.046913855 -0.18021254 -0.037101623 -0.10002479
000390 69 9a eb bd 6a db d9 bd 57 e1 0b bd f0 a3 87 bd
       -0.11504061 -0.10637553 -0.034150448 -0.066230655
0003a0 03 45 0a bd 3b 45 39 be bd 45 15 bc df a4 e3 bd
       -0.03375722 -0.18092816 -0.009110865 -0.11115431
0003b0 ec b2 80 bd 7c c8 fa bc 76 2e f7 bd 56 c0 1a be
       -0.06284127 -0.030613177 -0.120694086 -0.15112433
0003c0 19 5c 05 3d 41 ea dc 3d 79 76 4d bd 31 c9 77 bd
       0.032558534 0.10786868 -0.050161812 -0.060494605
0003d0 d5 89 13 be 9b 0e 5a bd 45 a7 d0 bd 29 9a 0d be
       -0.14408047 -0.053236585 -0.10188154 -0.13828339
0003e0 31 29 48 bb 1e 2d 37 bd 2f bc d9 bc 50 74 f9 bd
       -0.003054213 -0.04472076 -0.02657899 -0.12180388
0003f0 bd 9d ca bd b4 e8 20 be 2d f0 3b bd 86 b4 56 be
       -0.098933674 -0.15713769 -0.045883346 -0.20967302

bn1.running_mean f4 [512]
000000 bb e1 54 3f b8 2b 5f bf 76 3e 76 3f f4 2e b5 bc
       0.8315694 -0.87176085 0.9618906 -0.022117116
000010 a7 e1 51 bf bf 0f 2c 3f 4c 3e 54 3f 32 72 14 bf
       -0.81984943 0.67211527 0.8290756 -0.5798675
000020 f5 44 14 40 e2 31 c4 3f da cf 8b bf 0f cf 38 be
       2.3167088 1.5327723 -1.0922806 -0.18047737
000030 bc f6 34 3f 34 37 a3 3e a3 a4 5c 3f 8b 47 ed bd
       0.70688987 0.31878054 0.86188716 -0.11585911
000040 1d b9 c2 bf 7a 4d 49 3f ad a7 63 3f 2c 5f 6a bf
       -1.5212742 0.78633845 0.8892773 -0.9155147
000050 55 4e 25 3f fb f4 75 bd b7 43 91 bf 2a 06 68 3f
       0.6457265 -0.060048085 -1.134879 0.90634406
000060 89 5d 5f bf 99 de c9 3e bc 60 24 3e d1 d1 2d 3e
       -0.872521 0.3942764 0.16052526 0.1697457
000070 24 5c 5f 3e 26 b5 fc 3f d0 28 fd 3e 4c b0 0f 3f
       0.21812493 1.9742782 0.494452 0.5612838
000080 7c 56 f2 be 2b 94 c3 3f 37 47 44 bf a8 06 68 3f
       -0.47331607 1.5279592 -0.76671165 0.90635157
000090 18 a5 1a 3f 20 0d 01 be 48 d8 d8 bf 13 22 19 c0
       0.60408163 -0.12602663 -1.6941004 -2.3927047
0000a0 17 3b e0 3e b6 bc 82 bf 12 70 14 40 14 61 1f bf
       0.43795082 -1.021384 2.3193402 -0.62257504
0000b0 b1 9c 59 3f 93 aa 06 40 94 70 29 40 41 a8 41 3f
       0.8500472 2.104161 2.6474962 0.7564736
0000c0 a4 fa 76 bf 4d 34 1b 3f 3a 80 a4 bf 21 02 df 3e
       -0.964762 0.6062668 -1.2851632 0.43556312
0000d0 ff bb ea be 6e 91 1d bf 8e 2e 90 3f b1 06 a2 3e
       -0.45846555 -0.61550033 1.1264207 0.3164573
0000e0 fc eb fb be 39 1d ee 3f c5 c4 a6 3f 2e 1a 83 3f
       -0.4920348 1.8602668 1.3028799 1.0242364
0000f0 c2 28 86 bf ef 70 00 3f 36 be f1 3f 0f f9 8e be
       -1.0481188 0.50172323 1.8886173 -0.27924392
000100 b1 2b 85 3f ae 5c d8 3e 14 5d 0d 3f d1 7f 30 3f
       1.0403959 0.4225821 0.5522015 0.6894503
000110 a2 e0 7e bf 5c 48 dd 3f ab 32 5d 3f f5 e9 e0 3f
       -0.9956151 1.7287707 0.8640544 1.7571398
000120 a4 05 a4 3f 04 c7 cf 3f 7b 94 e9 3f aa 29 9f 3f
       1.2814221 1.623261 1.8248438 1.243459
000130 a5 e8 f9 3e 14 93 d6 bf 4c 43 03 3f 15 f2 76 3f
       0.48810306 -1.6763635 0.5127456 0.9646314
000140 b8 80 a8 be 18 e1 68 3f ba 07 38 40 a7 ac bc bf
       -0.32910705 0.90968466 2.8754716 -1.4740189
000150 35 cd 1d 3f 82 11 f4 be 4b 29 ad be fc a5 36 bf
       0.61641246 -0.47669607 -0.33820567 -0.7134702
000160 69 ef 71 bf 05 d4 b5 3f a2 bc 4c 3f 69 f8 48 bf
       -0.94505936 1.4205328 0.7997533 -0.78504044
000170 1f bf 16 3e d6 dd 49 3e 84 10 c0 be 0d b3 f3 3e
       0.14721344 0.1971353 -0.375126 0.47597542
000180 e1 b0 99 3f 55 c4 80 bd 34 f0 7d 3f 72 42 e1 3e
       1.2007104 -0.06287447 0.99194646 0.43996006
000190 c9 12 c2 bf db 9f 90 3f 89 5f 39 c0 39 af c6 bf
       -1.5161983 1.1298784 -2.896456 -1.5522224
0001a0 b1 10 f4 3f c5 57 d7 3f 7e 85 0c bf f5 c1 c9 bf
       1.9067594 1.682366 -0.5489119 -1.5762316
0001b0 88 61 c8 3e a3 1b 08 3f 05 e2 9b 3f 19 4f ac 3f
       0.3913691 0.5316717 1.2178351 1.3461639
0001c0 82 df cc 3f 14 a2 b2 bf f2 cd ee 3c df b3 d9 3f
       1.6005709 -1.3955712 0.029150937 1.7008017
0001d0 89 7a aa 3f c5 00 e1 bf f5 db 90 3f f4 f0 51 bf
       1.3318645 -1.757836 1.1317126 -0.8200829
0001e0 5f de 3c be 9a 65 d8 3f 0c 65 08 40 4f 63 74 3f
       -0.18444203 1.6906006 2.1311674 0.9546403
0001f0 17 f4 4f 3d 6d b1 b4 3e e2 05 da be a5 7f 21 bf
       0.05076989 0.35291615 -0.42582613 -0.63085395
000200 fa 5d e5 be 73 e2 ae bc 27 44 5e bf b6 da 4b bf
       -0.4479826 -0.021348214 -0.8682274 -0.796306
000210 d9 04 92 3f ec db ba 3e 9c ab df bf 52 2e e3 3f
       1.1407729 0.36495912 -1.7474246 1.7748511
000220 ac 22 33 3f 94 13 ac be d6 8d 2a 3f b0 da 49 3f
       0.6997478 -0.33608687 0.66622674 0.78849316
000230 92 18 49 3f f2 ff c7 be c9 da f5 3e 25 ee c5 3e
       0.78553116 -0.39062458 0.48018482 0.38658252
000240 79 ce 90 3f da ad 16 bf ad 16 76 3e 5b 46 67 3f
       1.131301 -0.58859026 0.24032088 0.9034173
000250 2b 52 94 bf b4 94 a1 3e 9c 3d 01 bf bf 41 5e bf
       -1.1587576 0.31558764 -0.50484633 -0.8681907
000260 d6 5d 89 3f 3f 3b 08 40 11 97 d6 3e 34 85 7b 3f
       1.0731761 2.128616 0.4191213 0.98250127
000270 cf 5a 65 bf 6e 64 9d be 3e c3 2f c0 17 17 93 be
       -0.8959169 -0.30740684 -2.7462916 -0.28728554
000280 6f bc 65 bf 91 ec 45 3e fe ef 26 3f 93 33 4b 3f
       -0.8974065 0.19328524 0.6520995 0.7937557
000290 ee b3 97 bd b4 73 6f 3f 98 d2 b1 be 4e c7 d5 bf
       -0.07407366 0.93535924 -0.34730983 -1.6701448
0002a0 e9 2d 0d c0 e6 85 bb be 46 34 0e 40 be fa 1e c0
       -2.2059271 -0.36625594 2.2219405 -2.484054
0002b0 e3 64 6a 3f 20 83 6c 3f 98 f1 37 be 97 37 6e 3d
       0.9156019 0.9238758 -0.17963254 0.058158483
0002c0 d6 ae 9b 3f d8 db 0f c0 19 3f bb 3d ba 3c 85 bf
       1.2162731 -2.2477932 0.09142894 -1.0409157
0002d0 a5 0b 62 3f 46 8f 03 40 dc 95 83 3f f6 a9 41 bf
       0.8829902 2.0556197 1.0280108 -0.75649965
0002e0 35 0e 8d 3e 7d 95 ad bf f8 6a d2 3f 89 fc d8 3f
       0.27549902 -1.3561245 1.6438894 1.6952068
0002f0 4b c9 26 bf c2 04 90 bf dc 33 84 3f 7b f6 91 3f
       -0.651509 -1.1251452 1.0328326 1.1403345
000300 08 b2 1f 3f c0 d6 aa bf cb 92 92 be e8 71 09 3f
       0.6238103 -1.3346786 -0.2862762 0.5368943
000310 de 43 5f bf 69 be 6d 3f 2e fb cf 3f f3 7f aa be
       -0.8721293 0.9286867 1.6248529 -0.33300743
000320 ae 7d 11 bf 19 b4 0d 3e da 5d da bf 61 a9 c3 3e
       -0.56832397 0.13838233 -1.7059891 0.38215163
000330 9a d3 81 be 2c ee 4a 3f d5 eb 83 3f 07 c4 1a 40
       -0.25356752 0.7926967 1.0306345 2.4182146
000340 5b 64 4a 3e 86 f1 d0 3d 5b 7d 0d 3f b0 73 e0 3f
       0.19764845 0.10202317 0.552694 1.7535305
000350 70 04 29 c0 99 22 1f 3e f8 50 53 3f ad b6 00 be
       -2.6408958 0.15540542 0.82545424 -0.12569685
000360 9d 9a a9 bf c3 8e 47 40 5a cf 95 3e d0 14 4f 3f
       -1.3250309 3.1180885 0.2925976 0.8089113
000370 f2 c1 0f be 97 fa 55 40 b6 d3 98 3f 44 a4 0e 3f
       -0.14038828 3.3434198 1.1939609 0.557194
000380 82 f7 c9 be 44 43 b5 bf 69 3c b5 3f e3 48 f0 bd
       -0.39446646 -1.4161153 1.4159061 -0.11732652
000390 a3 3f 09 c0 33 0e 63 3e 09 f8 c9 3e 86 09 3b 3e
       -2.144509 0.22173385 0.39447048 0.18265352
0003a0 a8 ee c3 3f 88 7d d9 3f 58 70 99 3f 3f 34 34 3f
       1.5307207 1.6991434 1.198741 0.7039222
0003b0 cc 2a 4a be 20 2d a6 bd 27 60 25 bf 2a cc 9b 3e
       -0.19742888 -0.08114076 -0.6459984 0.30429202
0003c0 e2 15 ff 3f 08 1b ad 3e 56 b1 61 3f 4f 19 c2 3e
       1.9928553 0.33809686 0.8816122 0.37909934
0003d0 cf be ef be 70 54 81 bf 4a 44 ed bf 2b 99 dc 3e
       -0.46825263 -1.0103893 -1.8536465 0.43085608
0003e0 b5 55 c9 be 23 89 89 bf 1b b6 17 40 14 3d b9 3d
       -0.39323202 -1.0744976 2.3704898 0.09044853
0003f0 b7 c1 a8 bf 53 30 f7 3f c9 74 57 bd ff e6 03 bf
       -1.3184117 1.9311622 -0.05260161 -0.5152435

bn1.running_var f4 [512]
000000 f9 bf 00 40 c0 f0 6c 3f 6e f6 6c 40 d3 a9 d6 3f
       2.011717 0.92554855 3.7025409 1.6770576
000010 ab 41 0c 41 70 4c 1d 41 6e ef 14 40 34 d9 7d 40
       8.766032 9.8311615 2.3271136 3.966382
000020 1a f3 05 40 67 5c 45 3f f2 bb 84 40 6b b1 cd 3f
       2.0929627 0.7709412 4.1479425 1.6069769
000030 c7 d9 15 40 99 98 18 41 d2 4b e3 3f 5e ec 62 40
       2.341417 9.537255 1.7757514 3.5456767
000040 f7 62 48 40 fe 6c 2b 40 87 50 10 41 f6 73 cd 3f
       3.1310403 2.6785274 9.01966 1.6051013
000050 78 b3 7f 40 64 ec 1c 40 30 86 67 3f 02 e7 9a 3f
       3.995329 2.4519281 0.9043913 1.2101748
000060 87 2c 2d 40 02 e7 36 40 02 c2 4a 3f 81 be f1 3f
       2.7058427 2.8578496 0.7920228 1.8886262
000070 02 6a a6 40 8f ca 5d 40 11 ec 9b 3e 82 c4 79 40
       5.2004404 3.4654882 0.30453542 3.902619
000080 e0 f7 40 3f 77 16 c3 3f ae b7 ab 40 2c 9c 93 40
       0.7537823 1.5241231 5.366172 4.612814
000090 70 36 56 40 22 f0 7c 3f 10 5f aa 3f b4 c7 12 40
       3.3470726 0.98803914 1.3310261 2.293439
0000a0 00 07 70 3f 4c ec 1b 40 ba 46 5d 40 b5 33 c2 40
       0.9376068 2.4362974 3.4574418 6.068812
0000b0 1d c1 d7 3f eb 6c 0c 41 4e 33 ef 3f 59 b7 1d 41
       1.6855808 8.776591 1.8687532 9.857263
0000c0 47 6c 81 3f f4 6b 0b 40 0e 8b 6d 40 90 0d b8 40
       1.0111169 2.178464 3.7116122 5.7516556
0000d0 99 7a 00 40 08 1f 38 40 a3 2e e3 3f 14 2e bb 3f
       2.0074828 2.876894 1.7748607 1.4623437
0000e0 1d cc 54 3f a9 d5 1a 3f 80 ec 9c 40 83 6b 1e 40
       0.8312395 0.6048227 4.9038696 2.475312
0000f0 6a 1e f9 3f 52 6d 8a 40 dd 49 a0 40 ba 7f a7 40
       1.9462407 4.325845 5.0090165 5.2343416
000100 6c d6 d0 3f 5d 88 77 3f e9 37 df 3f 1a c9 8d 3f
       1.6315436 0.9669245 1.7438937 1.1076996
000110 89 eb 06 40 94 19 38 40 9d 47 73 40 0f f5 d2 3f
       2.108126 2.8765612 3.801246 1.6481036
000120 e1 28 d7 3f ad a4 01 40 09 e9 e6 3f d8 be 12 40
       1.680935 2.025676 1.8039867 2.2928982
000130 8a 83 25 41 8b 73 b9 3f 4f 7a 94 3e fc 33 b7 3f
       10.344614 1.4488386 0.28999564 1.4312739
000140 1c 7b 6a 40 91 99 02 40 23 1b 12 40 82 bb 59 40
       3.663764 2.040623 2.2829063 3.4020696
000150 cf 3a 66 3f 52 b9 4b 40 28 3d 8d 40 75 b1 1d 41
       0.89933485 3.183186 4.4137154 9.855824
000160 33 67 4c 3f d2 3c 9e 3f 32 31 30 40 7b 37 c2 3f
       0.7984497 1.2362311 2.7530026 1.5173181
000170 5d 6d db 40 54 e2 9d 40 47 64 b2 3f bc b0 71 40
       6.8571 4.933878 1.3936852 3.776412
000180 f2 29 3a 40 de 78 be 3f ed c7 e1 3f 04 f7 94 40
       2.9088101 1.4880636 1.7639138 4.6551533
000190 8a 01 26 40 2c f2 7c 40 99 73 11 40 27 33 72 40
       2.593844 3.952281 2.2726805 3.784372
0001a0 07 56 c0 40 09 83 3b 40 1e 1b 8c 3e e1 0b db 40
       6.0105014 2.9298728 0.2736444 6.8452
0001b0 e4 53 58 40 52 01 17 40 46 88 0d 40 d0 93 1f 40
       3.3801203 2.3594556 2.2114425 2.4933968
0001c0 5d 82 17 40 e8 d2 31 40 a9 34 4d 3f e8 0f e5 3f
       2.3673317 2.7784977 0.8015848 1.7895479
0001d0 a7 74 8a 40 fa 2b 36 40 90 84 04 40 e3 44 49 40
       4.32674 2.846434 2.070591 3.1448295
0001e0 c8 78 df 3f 6d 00 81 3f e3 ee 96 40 dc d5 f2 3f
       1.7458735 1.0078255 4.716661 1.8971515
0001f0 c2 71 1b 40 36 db 10 40 2a 61 a4 40 0c eb 7f 3f
       2.4288182 2.2633796 5.136861 0.9996803
000200 c6 c4 62 3f be e3 40 40 93 44 11 40 42 16 54 40
       0.885815 3.0139003 2.2698104 3.3138585
000210 67 85 cf 40 e4 23 b6 3f 6d 61 12 40 c2 9b ab 3f
       6.4850345 1.4229703 2.2871964 1.3406909
000220 91 a5 f8 40 0e 8e 3e 40 3c d3 aa 3f a8 dd 11 40
       7.7702107 2.9774203 1.3345714 2.2791538
000230 92 f3 07 40 fb 81 b1 40 3d 24 ac 3e 43 2c 29 3f
       2.1242414 5.5471168 0.33621398 0.66083163
000240 74 46 14 40 26 20 78 3f ac 27 7a 3f 31 ec 77 3f
       2.3168 0.96924055 0.97716784 0.96844774
000250 c5 69 75 40 fc ce 26 40 fb 7d 9a 40 ec b2 74 40
       3.8345807 2.6063833 4.8278785 3.8234205
000260 49 a0 b7 3f 07 ff 4b 40 02 ff f0 3f e6 52 bc 3e
       1.434579 3.1874406 1.8827822 0.36781996
000270 0f af e2 3f a9 1b 8a 40 16 0b 69 3f c5 95 ad 3f
       1.7709674 4.3158765 0.9103254 1.3561331
000280 69 88 73 40 de fd 00 40 58 4a 60 3f a0 36 8d 40
       3.8052008 2.0154948 0.8761344 4.412918
000290 a7 92 42 40 22 37 00 40 f3 6a a5 40 fa 25 bc 40
       3.040201 2.003365 5.1693053 5.879636
0002a0 53 b3 e3 3f 02 27 bc 3f bd d9 ad 3f 1b 93 16 40
       1.77891 1.4699404 1.3582073 2.3527286
0002b0 37 d8 43 40 7c cf cd 3e 6b cf 66 3f 1d 32 40 40
       3.0600717 0.4019736 0.90160245 3.0030587
0002c0 60 c6 53 40 8f 66 91 40 bd 1e 14 40 fd 6b 5f 40
       3.3089828 4.5437694 2.314376 3.490966
0002d0 2f 79 86 3f 1d 10 75 40 b1 d4 e9 3f 1d f8 38 40
       1.0505732 3.8291085 1.8268033 2.8901436
0002e0 be 50 e0 3e d2 8c 98 3f 12 d2 5c 40 6d 4b b0 3f
       0.438116 1.1917975 3.4503217 1.3773018
0002f0 04 84 05 40 4b ef 06 40 7b 41 1c 41 62 b4 cc 3f
       2.0861826 2.1083553 9.765986 1.5992548
000300 03 da 46 3e 71 41 15 40 1b fa 4e 40 b7 ba a8 40
       0.19419102 2.3321192 3.2340152 5.2727923
000310 40 79 6b 3f 65 6b 26 3f 51 41 f1 40 6a 10 98 40
       0.9198189 0.6500762 7.539223 4.7520037
000320 27 22 e1 40 1e 8d af 3f 1b 96 6f 40 c2 fb 50 3e
       7.035419 1.371494 3.7435367 0.20408538
000330 33 5d ba 3f d1 e7 54 40 46 98 99 40 44 c0 fa 3f
       1.4559692 3.326649 4.799838 1.9589925
000340 a1 dc f7 3e be 5b 4a 40 ce 21 e3 40 d1 52 17 3f
       0.48410514 3.1618495 7.0978765 0.5911074
000350 97 f9 b3 3f 83 3d 4b 40 e2 39 09 3f e1 62 6b 40
       1.4060544 3.1756294 0.5360395 3.67791
000360 ed 6a 8f 40 d0 3e cf 3f 5c a0 0c 40 81 9a 8f 3f
       4.4818025 1.6191044 2.1972876 1.1219026
000370 cd df 9c 3f 71 ae a9 3f 15 30 42 3f 23 f5 dd 3f
       1.2255799 1.325636 0.7585462 1.7340435
000380 e6 4d 15 40 9f 74 7d 3f 9b 47 af 3f ee 23 85 40
       2.3328795 0.99006075 1.3693727 4.160636
000390 1c a3 e5 3f a0 12 69 3f 33 f0 a9 3e 77 9d 3a 40
       1.7940402 0.91044044 0.3319107 2.915861
0003a0 dd 2a 8a 3f df e7 50 40 28 21 93 40 bf d5 03 3f
       1.0794331 3.2641523 4.5977974 0.51498026
0003b0 d5 e5 be 40 a6 49 53 40 64 55 94 40 97 04 ff 40
       5.9655557 3.3013701 4.6354237 7.9693103
0003c0 cf 5e b5 3f f9 96 13 3e 0a d9 0a 41 04 84 8a 3f
       1.4169558 0.1441306 8.677988 1.0821538
0003d0 76 01 43 40 43 16 f9 3f c7 3f 27 40 e2 9f 09 3f
       3.0469642 1.9459919 2.6132677 0.53759587
0003e0 89 fc 2d 40 ae 4a bb 40 e5 70 65 3f a1 25 74 3f
       2.7185385 5.852866 0.8962539 0.9536992
0003f0 8c c2 b4 3f c8 2a 81 3f 9c d3 0c 41 b8 36 32 40
       1.4121871 1.0091181 8.801662 2.7845898

fc2.weight f4 [256, 512]
000000 46 f7 f2 bb 13 c2 a3 bd 11 6e 7c 3d bb 05 9c bd
       -0.007414731 -0.07996001 0.061628405 -0.076182805
000010 fa c4 3e bd 4e bc 0b bd 1e 78 0a 3c 16 61 80 3d
       -0.04657457 -0.03411513 0.00845149 0.06268518
000020 7a ed 2b 3d 55 6b a0 3d 1a 99 d0 bb 14 03 44 3d
       0.041974522 0.07832972 -0.0063659074 0.047854498
000030 53 c7 37 3d f8 62 46 bd 6b f8 69 3d 93 f2 41 3b
       0.044867825 -0.048434228 0.057121675 0.0029594048
000040 f1 5d 91 3c 00 43 05 bd 6f 56 dd 3b 45 6f 32 bd
       0.01774499 -0.0325346 0.0067546885 -0.043563146
000050 15 b8 90 3d cc a4 20 bd d4 8a ba bd 4e 5b 7a bd
       0.07066361 -0.039219663 -0.091085106 -0.06112223
000060 1a 54 ae b9 ff 6b 25 bd b7 3e 02 be bd ae 2b bc
       -0.00033250527 -0.040386196 -0.12719236 -0.010478673
000070 e1 5b 91 bd d9 17 10 3d d5 bf fc b9 82 99 48 3d
       -0.07097603 0.035178993 -0.00048208112 0.04897452
000080 68 97 86 bd 07 48 1f bd 8c eb 97 3d ec dd 21 3b
       -0.06571847 -0.03888705 0.07417974 0.0024698926
000090 a2 c4 99 bd 7e 0a 01 3b d6 9c 86 3d 35 87 ae bc
       -0.07508208 0.0019690092 0.06572883 -0.021304706
0000a0 aa 1e c8 ba ac b1 63 bd 02 0b 66 3d 51 58 53 bc
       -0.0015267928 -0.055589363 0.05616284 -0.012899474
0000b0 a7 d7 1c bd 5f 47 b3 3c 5f 42 a9 ba f3 57 64 3d
       -0.0382916 0.021884618 -0.0012913457 0.055747937
0000c0 2b 27 8c bd e8 5a e2 3b ed 87 7a bc fe 92 05 bc
       -0.06843408 0.0069078095 -0.015291196 -0.008152721
0000d0 fb 23 75 bd 37 cb 17 3d 35 99 c9 3d e9 b0 95 3c
       -0.059848767 0.037059035 0.09843675 0.018272834
0000e0 f2 39 d6 bd 88 f7 fb bc 81 d1 47 3e 03 c6 46 bc
       -0.10460271 -0.03075768 0.19513513 -0.012132171
0000f0 00 12 47 3d 18 0c 8d bd 8c 45 ff 3c bd ca a6 3d
       0.04860115 -0.06887072 0.031161092 0.08144138
000100 73 61 c4 bc 99 ac 19 3d ca a2 36 3c 84 51 81 3d
       -0.023972249 0.037518118 0.01114721 0.06314376
000110 b1 1e 33 bd 70 c5 d1 3c 92 ee 02 3d 1d 2c 9c 3b
       -0.04373044 0.02560684 0.0319658 0.004766001
000120 d2 12 9a 3c 55 1b 74 bd ca 4d 8a 38 24 de 0a bc
       0.018807802 -0.05959638 6.594842e-05 -0.008475814
000130 17 d6 4c 3b d8 d1 24 3d 0e 9f 8c 3c 15 96 e3 3b
       0.0031255537 0.040239185 0.017165687 0.0069453814
000140 71 2e ca 3d 66 53 f5 3b 59 a6 71 3d 38 d3 6f bd
       0.09872139 0.0074867485 0.058996532 -0.058551043
000150 13 83 4d 3d 22 5e 85 bd e4 1b 21 bc 02 22 d5 3c
       0.05017383 -0.06512095 -0.00983331 0.026017193
000160 dc 30 26 bc e2 75 ae 3d 9b 04 88 3d 67 41 1f bd
       -0.010143485 0.08518578 0.066415034 -0.038880732
000170 3a c5 17 bc d2 00 c6 3d 22 89 13 bd f6 04 b5 3d
       -0.009263331 0.09668125 -0.036019452 0.08838837
000180 5e ab 0c bd 86 03 9a bd ce 81 ac 3d 28 f8 c7 bb
       -0.034343116 -0.07520203 0.08423196 -0.0061025806
000190 da 88 aa bc 2e 60 96 bc 27 25 c1 bd 9e b7 54 3d
       -0.020817209 -0.018356409 -0.09430914 0.051932923
0001a0 0b 28 35 3d 04 f3 23 bd 22 a6 33 3d 9f 91 db 3c
       0.04422764 -0.04002668 0.04385961 0.026802836
0001b0 2c 4b 22 3d 8b f9 42 bd 44 04 78 3d c6 26 2d 3b
       0.03962247 -0.047601264 0.060550943 0.0026420816
0001c0 13 25 13 3c e5 8a 5f bd 51 a7 ae 3d 08 3f a9 3c
       0.008981007 -0.05457582 0.08528007 0.020659938
0001d0 c4 60 b5 bc 81 6d df 3c 58 c9 4e 3d 66 0a 21 bd
       -0.022140868 0.027273895 0.050484985 -0.039316557
0001e0 35 a7 09 3d 4d f9 b0 3d 18 0a bb 3c 28 7b 53 3d
       0.033606727 0.086413 0.022831962 0.051631123
0001f0 23 4d 7a 3d 30 21 8a 3d 79 c1 8b 3c 15 87 44 bb
       0.06110872 0.06744611 0.017060028 -0.0029987742
000200 87 33 e0 bd 1f fb 27 3d a0 e3 41 bb 54 dd 0c 3d
       -0.10947328 0.041010972 -0.0029585138 0.034390762
000210 6c c3 46 3c 62 ca 39 3d e5 31 1e bd a8 b0 86 3d
       0.012131553 0.045359023 -0.038621802 0.06576663
000220 4d 90 31 bd 95 ad 63 3c 89 82 31 3e 24 1e f8 bc
       -0.043350507 0.013896366 0.17334951 -0.03028781
000230 5d 9f ea 3d 19 33 f8 3d e5 83 bd ba 96 07 82 bc
       0.114561774 0.12119121 -0.0014458863 -0.015872758
000240 96 06 a3 3d 91 03 f3 3c bb ee a7 bc 07 0a 4f 3d
       0.079602405 0.029664787 -0.020499578 0.050546672
000250 ec 27 38 3d 14 9f e6 3a 04 3b 35 bb 21 9f 32 3d
       0.044959947 0.0017595016 -0.0027653584 0.04360879
000260 32 ae 76 bd e7 93 04 3d 05 ba 39 3c ec 40 88 bd
       -0.06022472 0.032367613 0.011335854 -0.06653008
000270 e3 41 36 3d 3a 40 15 bc ad 67 1a bd d5 2d 06 bd
       0.04449643 -0.009109551 -0.03769653 -0.032758553
000280 3e 66 44 bd 28 2a f2 bc 75 7a 7a bd 6b e6 44 bd
       -0.04794907 -0.029561117 -0.06115194 -0.048071306
000290 53 71 c7 3b e6 00 41 3c c7 c4 1d 3d 04 e6 3a 3c
       0.0060865073 0.011779999 0.03851774 0.011407379
0002a0 23 36 5a 3d 78 6d 40 bd 4f 95 48 3c 9c 04 91 3d
       0.053274285 -0.046979398 0.012242629 0.07080957
0002b0 5c 2b 97 3d 1c 63 eb 3c 97 8e 85 3a 44 83 27 3d
       0.07381317 0.028733782 0.001018959 0.04089667
0002c0 e9 68 54 3c 25 58 58 3d f0 4b bc bb 65 e9 61 bd
       0.012964466 0.052818436 -0.005746357 -0.055154223
0002d0 d2 f6 2b bb a8 c8 b5 3d e9 a3 9a bd ce 01 b5 3c
       -0.0026239646 0.08876163 -0.07550795 0.022095587
0002e0 3d 8e a2 3c f1 ac cf 3d 68 52 5d 3c 32 15 30 bc
       0.019843215 0.10140408 0.013508417 -0.010747241
0002f0 6a 57 cc bd f7 d6 41 bd 85 bb e0 3d cf 30 9f 3d
       -0.099776104 -0.047324147 0.109732665 0.077729814
000300 9a 6d f5 bd 56 99 80 3d d0 f6 a1 3c 6d bb 20 bc
       -0.119837955 0.062792465 0.01977101 -0.009810311
000310 f6 10 1c 3d 81 f1 6e 3c 6d 97 43 3d 9b 50 47 bd
       0.038102113 0.014583946 0.047751833 -0.048660856
000320 2e 34 f1 bc d5 6f 95 bd 2a 2e b7 3c 32 c5 ab 3c
       -0.029443827 -0.07296721 0.02236088 0.020968053
000330 bd af 5e 3d fb 6e fd 3c 62 a5 a0 bc 92 17 00 3c
       0.054366816 0.030936709 -0.01961011 0.00781812
000340 54 ff 04 3d 6a be 19 3b bb 33 9d 3d ee f3 be 3d
       0.032470062 0.0023459443 0.076758824 0.0932387
000350 03 37 bf bc 45 76 66 3b 29 1a f8 bd dd 1a 61 3c
       -0.023341661 0.003516571 -0.12114365 0.013739315
000360 44 b5 9e 3b ef c3 95 bd 9f c4 92 3c 3b 78 ea 3d
       0.004843386 -0.07312762 0.017916022 0.114487134
000370 b8 05 2e 3d cb d1 8b bd fa e2 b9 3c 21 c1 7e bc
       0.042485923 -0.06827124 0.022691239 -0.015548975
000380 4c c8 a5 bd 04 c0 2f bc 29 9b 98 bc e0 5e 7e 3d
       -0.08094844 -0.010726932 -0.018628674 0.0621022
000390 8b 72 e2 bd 75 00 14 bd 99 3d c3 bb aa ff de bc
       -0.110570036 -0.03613325 -0.0059582707 -0.02722152
0003a0 c7 ab 78 3d 9d 63 f5 3c 7b c7 36 bc fb 6e 3b 3c
       0.060710695 0.029954726 -0.011155958 0.011440034
0003b0 62 7f 66 3c 51 6d 03 3d 42 2a 21 bd 20 bf e9 3c
       0.014068456 0.032086674 -0.03934694 0.028533518
0003c0 99 e2 dc 3b a0 2d 2b be 37 0c bd 3c 4b 01 6a 3d
       0.0067408797 -0.16716623 0.023077114 0.05713014
0003d0 a0 a3 d2 3d b5 f4 5e bd d9 7a 4c bd cc f6 92 bc
       0.10285115 -0.05443259 -0.049921844 -0.017939948
0003e0 65 af fe 3c be 99 34 3d 75 9a 95 bd 27 ad ef bd
       0.031089494 0.044091932 -0.07304851 -0.11702948
0003f0 c3 fc 24 bd 1b 6f 13 3d b4 f8 97 3c 5d 71 e5 3b
       -0.040280115 0.03599463 0.018551208 0.0070020393
