checkpoint_critic.pth (torch_old, 159725 bytes, 5 tensors)

fc1.weight f4 [256, 24]
000000 06 ea 6c bd d8 7a f4 bc a0 e4 cd 3b 80 e0 49 3d
       -0.05784037 -0.029843733 0.0062833577 0.049286366
000010 6e 86 65 bd 96 62 58 bd 96 94 44 bd ec 9e 6e bd
       -0.056036405 -0.052828394 -0.047993265 -0.05825703
000020 90 7a 9f bc dc 03 af 3c 00 f1 a7 3c 10 4b 3e 3d
       -0.019467622 0.021364145 0.02050066 0.046458304
000030 88 3c 2a 3c 7c 11 0f 3d 0c 03 f4 bc 4a 9d 52 bd
       0.010390408 0.034928784 -0.02978661 -0.051419534
000040 50 1e 32 3c c2 e8 49 3d 80 5d c1 3b bc bb 33 3d
       0.010871485 0.04929424 0.0059010386 0.04388021
000050 84 19 f7 bc 10 6a c3 3c 72 db 51 bd b0 f2 ae bb
       -0.030163534 0.023854285 -0.05123467 -0.005338989
000060 02 d0 25 3d 20 90 70 bd 4e 08 17 3d f0 0b 50 bd
       0.040481575 -0.0587312 0.036873154 -0.050792634
000070 90 ad a5 bc dc 68 eb bc 60 44 73 3d 52 93 56 bd
       -0.020224363 -0.028736524 0.05939138 -0.05238659
000080 40 dd 52 bd f2 77 07 bd ac 18 96 bc d0 d4 f1 bb
       -0.05148053 -0.033073373 -0.018322311 -0.0073801056
000090 b2 aa 22 bd e4 3a d0 bc f8 2c 2e bc c2 1c 52 3d
       -0.03971357 -0.025418706 -0.010630839 0.051296957
0000a0 06 73 08 bd d8 f1 75 bc 58 15 0c bc ba d1 37 3d
       -0.03331282 -0.015011273 -0.008550011 0.044877745
0000b0 32 39 09 3d 40 57 7d 3d 3c b1 9c 3c a0 99 03 3c
       0.03350181 0.061850786 0.01912748 0.0080322325
0000c0 8c ca ad 3c 4e 72 53 bd e2 2a 15 3d 44 16 aa 3c
       0.021214746 -0.05162268 0.03641785 0.02076257
0000d0 60 85 ae 3b 40 f8 90 3b 38 b4 32 3d 50 4e e7 3b
       0.005325958 0.004424125 0.0436289 0.007058896
0000e0 50 f3 b6 3b 1c 0d fc 3c 70 02 36 3c 94 2e 2d 3d
       0.0055832043 0.03076797 0.01110898 0.04228075
0000f0 cc c7 ac bc fe 57 4f bd b0 70 cc 3c bc 07 1a bd
       -0.021091364 -0.050621025 0.024956077 -0.037605032
000100 40 a8 89 ba 36 f0 5e 3d a0 80 fe bc d2 6e 6c 3d
       -0.0010502413 0.0544283 -0.031067193 0.057722874
000110 00 76 b6 bc 4e a1 5e bd 88 a0 03 bc 34 fa 06 bd
       -0.022273064 -0.05435305 -0.008033879 -0.032953456
000120 d2 06 7a bd 02 f9 44 3d ec da 73 3d 18 81 31 3c
       -0.06104166 0.048089035 0.059534952 0.010834001
000130 50 19 e6 bb 40 fa c9 3a 06 7a 63 3d 40 48 a1 3c
       -0.0070220605 0.0015409663 0.055536292 0.019687772
000140 78 f7 17 bc 04 76 b3 3c a0 b1 04 3c cc 27 01 bd
       -0.00927531 0.02190686 0.00809899 -0.031532094
000150 1c ae 6a 3d 9c 02 b9 3c 18 d3 17 bc 0c 55 71 bd
       0.05729495 0.022584252 -0.009266637 -0.058918998
000160 78 34 f5 3c a0 a2 85 3b 02 b0 65 3d fe 8e 50 bd
       0.029932246 0.0040782243 0.056076057 -0.050917618
000170 d8 e9 58 3c 40 84 00 3d 8e 4b 35 3d 54 e3 77 bd
       0.013239346 0.031376123 0.044261508 -0.06051953
000180 d6 d4 2a 3d 4e 3d 6f bd 70 e1 8a 3c f8 f6 85 bc
       0.041706882 -0.058408074 0.0169532 -0.016353115
000190 12 a8 0a 3d d2 2a 74 3d be f0 63 3d a8 52 d4 bc
       0.03385169 0.05961115 0.05564951 -0.02591832
0001a0 de 0d 6c 3d e8 15 b8 3c 60 c9 0f 3c 60 a8 fc bb
       0.057630412 0.022471383 0.008776039 -0.0077105016
0001b0 a8 e9 10 3c 80 66 89 3b 7a 1b 49 3d b8 e7 7d bc
       0.0088447705 0.004193127 0.04909847 -0.015497141
0001c0 e4 b9 ba 3c 58 62 12 bd 22 0a 50 3d 00 3f 50 3c
       0.022793718 -0.03573832 0.050790913 0.012710333
0001d0 f8 a5 69 bd 56 fa 47 3d f0 18 18 bd c8 03 19 3c
       -0.057043046 0.048822723 -0.037133157 0.00933928
0001e0 80 97 10 bd e2 01 7d 3d a4 18 4b 3d 32 21 63 3d
       -0.03530073 0.061769374 0.049584046 0.05545158
0001f0 c0 50 95 3a ea 3a 4a bd 7a 3e 5a 3d 4c ec 79 bd
       0.0011391863 -0.04937259 0.05328224 -0.061016366
000200 00 f5 c3 ba a0 b1 df 3b ee f1 26 3d 1e 18 1b 3d
       -0.0014950335 0.0068265945 0.040758066 0.037864797
000210 30 4e 61 3c 74 b7 b4 3c 40 e7 9f ba 2c 46 af 3c
       0.0137515515 0.022060134 -0.0012199655 0.021395765
000220 4c 80 88 bc b8 0b 33 bd a0 e1 79 bc 38 e0 16 3d
       -0.01666274 -0.043712348 -0.015251547 0.036834925
000230 de 38 4b bd 9e 09 08 3d 58 d5 84 3c e4 3b 51 3d
       -0.04961478 0.033212297 0.016215011 0.051082507
000240 d0 e0 88 bb a4 e2 5e 3d a8 a0 c5 bc 2c f5 b7 bc
       -0.0041771904 0.05441536 -0.024124458 -0.022455774
000250 f6 e5 38 3d ec 30 9f bc 48 0a 76 bc 50 a5 f0 bc
       0.045141183 -0.019432507 -0.0150171 -0.029375702
000260 00 9e 38 3c 60 8d cf bc a2 11 13 bd d8 b6 2d bd
       0.011268139 -0.025335968 -0.035905488 -0.0424107
000270 e8 9e 10 3d 16 71 26 bd f0 b9 3d 3c 58 b1 f3 bc
       0.035307795 -0.04063519 0.0115799755 -0.02974765
000280 e8 5d 0a 3c 1e c0 79 3d 20 7f 62 bd 98 a5 db 3c
       0.008445241 0.060974233 -0.055297017 0.02681236
000290 00 4a af ba b4 06 71 3d 12 28 74 bd bc 50 f8 3c
       -0.0013373494 0.058844283 -0.059608527 0.030311935
0002a0 64 0c 5d bd 40 66 0c bc 1c 9e b2 bc f4 b7 c2 3c
       -0.053966895 -0.0085693 -0.021803908 0.023769356
0002b0 e6 0d 58 3d 24 8f 0d bd b0 8f 39 3d 40 7c 80 bc
       0.05274763 -0.034560338 0.045303047 -0.015684247
0002c0 4e 44 21 bd 14 31 55 bd 88 c8 8b bc 70 df bf 3b
       -0.03937178 -0.052048758 -0.017063394 0.0058554932
0002d0 7c 5e 78 3d c0 a4 ca 3b 9c cc df 3c 98 43 7a bd
       0.060636982 0.0061841905 0.027319245 -0.06109962
0002e0 b4 b4 06 bd 8c ad 01 3d 1c fd e3 bc 00 c4 d1 bb
       -0.032887176 0.031659648 -0.027830653 -0.006401539
0002f0 62 70 07 bd d6 8a 58 3d 10 73 91 3b dc 40 9f bc
       -0.03306616 0.05286678 0.0044387653 -0.019440107
000300 aa af 70 bd 50 37 3d 3c 80 27 d5 ba b0 f0 a0 bb
       -0.058761276 0.011548832 -0.0016262382 -0.0049115047
000310 74 60 17 bd 90 89 5e 3c c0 0e e8 3c a4 c7 41 3d
       -0.03695722 0.013582602 0.028327346 0.047309533
000320 02 42 32 bd cc 8e 85 3c 88 f0 32 bd b2 fa 65 3d
       -0.04351998 0.016303442 -0.04368642 0.056147285
000330 1e 40 46 3d b8 31 30 bd 72 1b 23 3d bc 39 29 bd
       0.04840099 -0.043016165 0.039821096 -0.041314825
000340 8e 63 64 3d de bd 22 bd 90 58 d8 3c ce e5 38 bd
       0.055759005 -0.039731853 0.026409417 -0.045141034
000350 d0 a8 b7 3c 98 62 d0 3c 3c 3f af bc 2e 2c 6e 3d
       0.022419363 0.025437638 -0.021392457 0.0581476
000360 54 12 47 bd 88 c2 33 3d 9c 47 bd bc 34 b5 06 bd
       -0.048601463 0.04388669 -0.023105435 -0.032887653
000370 24 05 78 3d c0 93 f2 bc 78 b3 bc 3c 20 86 e2 3c
       0.060551777 -0.029611468 0.023034796 0.027651846
000380 80 68 99 3c 9a ec 46 bd 00 88 4b bc 8a 33 43 bd
       0.018726587 -0.048565485 -0.012422562 -0.047656573
000390 b0 67 fe 3c 80 6e 74 bc 82 8f 75 bd 56 93 09 3d
       0.031055301 -0.014918923 -0.059951313 0.033587776
0003a0 50 70 13 bc 52 0c 0e bd 9c ac 30 bd 38 b7 09 3d
       -0.008998945 -0.03467972 -0.043133363 0.033621997
0003b0 14 6a 61 bd e8 e2 7a bc 98 91 1e 3d 00 20 ca 39
       -0.055032805 -0.015312888 0.038713068 0.00038552284
0003c0 24 99 ca bc 14 26 5e 3d aa f1 32 3d 5e a5 40 3d
       -0.024731226 0.054235533 0.0436875 0.047032706
0003d0 70 12 5f bc 42 96 51 3d d6 09 46 bd 00 1c d2 3c
       -0.013615236 0.051168688 -0.048349224 0.025648117
0003e0 4e 3c 72 bd 62 12 72 3d 1e c8 7e bd 50 c4 58 bc
       -0.059139542 0.059099562 -0.062202565 -0.013230398
0003f0 00 a0 f7 3b 60 6c e5 bc 08 5b 77 bd 96 53 71 bd
       0.0075569153 -0.028005779 -0.06038955 -0.058917604

fc1.bias f4 [256]
000000 24 73 d6 3d c6 ba 14 be d8 d6 10 3e 61 87 0b be
       0.1047118 -0.14524373 0.14144456 -0.13625862
000010 c0 16 3b 3e 48 2f 0e 3e 2c c0 95 3d 3a 6c 4c be
       0.18270397 0.13885224 0.073120445 -0.1996316
000020 1c 97 a7 bd f0 9d c3 3d b0 9c 3e be f0 e1 c7 3d
       -0.08183119 0.095516086 -0.18614459 0.09759891
000030 98 43 a8 bd 3d c1 18 be c0 fa 11 bb ec 25 00 3d
       -0.082160175 -0.14917465 -0.0022274703 0.031286165
000040 36 fc 1d 3e 20 0e 05 be 92 e3 29 be 4a c5 8c bd
       0.15428242 -0.1299367 -0.16590717 -0.068735674
000050 00 d3 1e 3d 44 4a ba bd 60 31 9f bd a6 f6 91 bd
       0.038775444 -0.09096196 -0.077730894 -0.071271226
000060 20 4a b3 3d 60 6f db 3c 46 37 37 3e 18 8a 04 3e
       0.087543726 0.026786506 0.17892179 0.12943304
000070 a2 08 35 be 40 f4 57 3d a5 0d 37 be 43 c3 40 be
       -0.17679074 0.05272317 -0.17876299 -0.18824486
000080 28 63 91 bd 8e 2e 50 3e f0 ad 95 3c 44 4c 16 be
       -0.07098991 0.20330259 0.018271416 -0.1467753
000090 87 7d 3c be 4a 8e 1d 3e 86 dc 21 3e 11 fb e7 bd
       -0.1840726 0.1538631 0.1580678 -0.11327184
0000a0 20 77 11 3e 4c 6c 9a 3d 09 1a d7 bd e0 fe 7f 3d
       0.14205599 0.07540187 -0.10503013 0.062498927
0000b0 c0 ba fb 3b d0 5d 57 bd 9c a5 55 bd 3e 92 1a 3e
       0.0076821744 -0.0525797 -0.05215989 0.1509485
0000c0 20 80 b4 3d 6c 5c b6 3d 48 8b 73 3d 78 d1 0e 3e
       0.088135004 0.08904347 0.059459 0.13947093
0000d0 b0 e9 55 bd c0 7d 37 bb 80 d7 2c 3e 18 9d fa 3d
       -0.052224815 -0.0027998537 0.16879082 0.122369945
0000e0 f8 88 4f 3d 2b e6 d4 bd e4 ce 56 bd 28 aa 03 3d
       0.050667733 -0.103954636 -0.0524434 0.032144696
0000f0 54 2c 01 be ec 5c bd 3d 3e d0 01 be d8 5b 14 be
       -0.12614566 0.09246239 -0.12677094 -0.1448816
000100 a8 32 96 3d ce c0 ce bd 03 f0 50 be 18 13 03 3e
       0.07333881 -0.10095368 -0.20404057 0.12800252
000110 5a 98 aa bd 3a 53 9e bd 80 83 c2 bd bc f8 ee bd
       -0.0832984 -0.07730718 -0.09497738 -0.11668536
000120 12 72 0c be 90 c9 b6 bd 8d e3 18 be 60 59 91 bc
       -0.1371539 -0.08925164 -0.14930554 -0.017742813
000130 f8 38 85 3d 96 31 02 be 89 b7 48 be 68 d6 91 3d
       0.065050066 -0.12714228 -0.19601263 0.07120973
000140 03 f4 e6 bd e8 ae 64 3d 80 c1 80 bc a0 ad 37 3d
       -0.1127701 0.055830866 -0.015717268 0.044843316
000150 00 7c 16 bb ce d2 82 bd 5b 26 22 be a0 9b 0f 3e
       -0.0022962093 -0.06387864 -0.15834944 0.1402421
000160 3c d9 c5 3d 98 3a ad 3c 4e 4f 32 3e b8 e6 3f 3e
       0.09660575 0.021146104 0.17413065 0.18740356
000170 b2 25 28 be 6c 06 d2 3d dc f5 3f 3e 50 2b 3a bc
       -0.1642063 0.10255131 0.18746132 -0.011362866
000180 bd e9 45 be 82 0f 98 bd 60 6a 9a 3c 34 7f 32 bd
       -0.19327445 -0.07424833 0.018849552 -0.04357834
000190 ac cf c8 3d 4c cc a2 3d b1 d7 46 be 78 9c e1 3c
       0.09805235 0.07949123 -0.19418217 0.02754043
0001a0 60 fd 04 3d 88 75 05 3e f0 bf d6 3c 08 90 e3 3d
       0.0324682 0.13033116 0.02621457 0.11111456
0001b0 4c 86 2b 3d e2 f1 0a be 91 22 22 be 52 97 8e bd
       0.041876122 -0.13568833 -0.15833499 -0.06962456
0001c0 00 7d 62 3a ca 11 f4 bd d7 26 39 be da 09 33 3e
       0.0008639842 -0.119174555 -0.18081222 0.17484227
0001d0 d8 ea bb 3c a4 65 a1 3d 79 62 d4 bd 90 18 0a 3d
       0.02293913 0.078807145 -0.10370345 0.03371483
0001e0 08 e7 83 bc c4 5e db 3d 7c 5a 98 bd aa 1c 3a 3e
       -0.016101375 0.107114345 -0.074391335 0.18174997
0001f0 10 af 2d 3c 50 f1 0b 3c ee ad 12 3e 60 d7 d8 bb
       0.01060082 0.00854142 0.14324161 -0.0066174716
000200 c8 95 73 3d 80 b6 67 bc dc 5f 21 3e b8 36 4b be
       0.059469014 -0.0141426325 0.15759224 -0.19845092
000210 78 8c 49 3e ba 2d f6 bd 9c 49 4c 3e 7c 91 8d 3d
       0.19682491 -0.120204404 0.19949955 0.069125146
000220 2a ed 04 be 28 94 32 be 28 82 65 3d 30 bf a9 3d
       -0.12981096 -0.1743933 0.05603233 0.08288419
000230 84 dc 0e be f8 2a 05 3e 6f d7 be bd 02 38 25 3e
       -0.13951308 0.13004673 -0.093184344 0.16134647
000240 0c 8f 08 3d a2 5e 33 be 08 0f 06 3d 84 75 5d bd
       0.033339545 -0.17516568 0.03272918 -0.05406715
000250 a0 2b 5d 3d f8 1b 9d bd c4 1f 37 3e 13 59 ee bd
       0.053996682 -0.0767135 0.17883211 -0.11638083
000260 7a b5 2b 3e bf 44 4f be 48 5a 17 3e 36 ea 0f be
       0.16768447 -0.20241068 0.14780533 -0.14054188
000270 44 19 1b 3d 0c ee 54 bd 88 0e 50 be 28 4b 24 3e
       0.037865892 -0.05198483 -0.20318043 0.16044295
000280 60 2d 46 3d 30 7a e8 3d df 0f c8 bd 86 3e 81 bd
       0.048383117 0.113514304 -0.09768652 -0.063107535
000290 de a7 c0 bd 71 ee 40 be ac 9b 36 3d a4 35 98 3d
       -0.09407018 -0.18840958 0.044582054 0.07432106
0002a0 b8 d7 ca bc 44 fe 07 be 90 0f c8 3c 08 29 b3 3d
       -0.024761066 -0.13280588 0.024421483 0.087480605
0002b0 c0 8b 9e 3c ca 59 4f be 44 d9 cc 3d cc 14 18 3e
       0.019353747 -0.20249096 0.10002378 0.14851683
0002c0 0a aa 88 bd 4c 0c 36 bd a0 83 92 3b c0 3a 2a 3d
       -0.066730574 -0.04444532 0.0044712573 0.041559935
0002d0 b6 6b 39 3e ae 4f 15 3e 48 94 ba 3d a2 c2 09 be
       0.18107495 0.14581177 0.09110314 -0.13453153
0002e0 9c b2 fa 3d dc d2 cb 3d a2 d6 43 3e 40 c4 a1 bd
       0.12241098 0.099523276 0.19124845 -0.0789876
0002f0 94 65 93 3d 52 f4 09 3e 04 c8 c3 3d 18 d7 a6 bc
       0.07197109 0.13472107 0.09559634 -0.020366237
000300 f0 57 70 bd b8 48 19 bd d4 e1 e8 3d a2 06 84 bd
       -0.058677614 -0.037422866 0.11371198 -0.064465776
000310 7f b7 4f be 88 a9 06 bd 60 00 40 be 5c e6 23 be
       -0.20284842 -0.03287652 -0.18750143 -0.16005844
000320 d8 5b 34 3e a8 91 03 be d8 b0 f2 3d d1 6b fb bd
       0.1761316 -0.12848532 0.118501365 -0.12276424
000330 7f 59 4d be e0 ce 95 3b 2c e5 d6 3d 30 9e 1b 3c
       -0.20053671 0.0045717806 0.1049293 0.009498164
000340 ec 15 f0 3d 90 1f 08 bc 64 e3 14 be 20 89 ff 3d
       0.11722931 -0.008308306 -0.14539868 0.124773264
000350 74 80 0f 3d 98 4e e7 bd 60 09 ac bc 34 90 93 3d
       0.03503461 -0.112942874 -0.021000564 0.07205239
000360 70 f4 2f bd 20 14 16 bc a0 69 53 3d 10 d3 85 3d
       -0.042957723 -0.009160072 0.051614404 0.065343976
000370 94 74 f0 3d 80 fb 53 bd d8 c3 78 3d 88 35 45 3d
       0.117409855 -0.05175352 0.060733646 0.048146755
000380 2e 6a a0 bd dc 60 00 3d 20 d4 e5 3b f6 c5 19 be
       -0.07832752 0.031342372 0.0070138127 -0.15016922
000390 0c d5 3b be 34 34 36 3e c6 16 bf bd 3e e9 18 3e
       -0.1834299 0.17793351 -0.093305156 0.14932725
0003a0 e0 0d 28 3d 58 d2 ec 3d 20 0b e3 bc 68 6b 30 bd
       0.041028857 0.115635574 -0.027715266 -0.04307118
0003b0 98 cd 9a bd 2e 93 46 be 00 a5 3c ba 08 1d 30 3e
       -0.07558745 -0.19392082 -0.0007196218 0.17198575
0003c0 d4 1a 28 3d 88 80 8b bd 2a 59 04 be ec 9e 44 bd
       0.04104121 -0.06811625 -0.12924638 -0.048003122
0003d0 8a a6 ad bd cc c2 ff 3d 78 e6 bc 3d a0 02 58 3d
       -0.084790304 0.124883264 0.09223646 0.05273688
0003e0 18 4a f5 3c c0 e2 ed 3b ef 36 dc bd c0 cd ca bc
       0.029942557 0.0072596967 -0.10752665 -0.024756312
0003f0 5e 79 05 3e a8 21 d5 bc c8 11 90 3d b0 3c e8 bc
       0.13034579 -0.026017025 0.070346415 -0.02834925

fc2.weight f4 [128, 258]
000000 b5 69 23 bd f3 f0 a2 3d 56 21 6d 3d dd af af 3d
       -0.039895732 0.07956114 0.05789312 0.08578465
000010 11 c5 ae bd 00 95 cc ba 42 80 99 bd dd 11 ad bd
       -0.08533681 -0.001560837 -0.07495166 -0.08450673
000020 b0 e1 8c bd ce 4f 5e 3d 32 4e a2 bd b9 51 8c 3d
       -0.06878984 0.054275326 -0.07925071 0.06851525
000030 0f 93 93 bd 6b d2 ac bd 02 ec 33 bd fe 4e d4 bc
       -0.072057836 -0.084385715 -0.043926246 -0.025916573
000040 ad 94 9d 3d 21 c5 83 3d e8 33 a9 3c 8a ea 76 bd
       0.07694373 0.06434084 0.020654634 -0.060282268
000050 7a 7d 27 3d 4a 17 1b 3d 60 98 22 bb 07 2d 91 3d
       0.04089115 0.037864007 -0.002481006 0.070886664
000060 cc f1 e1 3c 00 f3 63 bb 06 b9 86 bd 97 5c b3 3d
       0.027581118 -0.003478229 -0.06578259 0.087578945
000070 2c 05 4a bd 6f 00 8c 3d 83 45 1d bd 50 0b a9 bc
       -0.04932134 0.0683602 -0.03839637 -0.020635277
000080 67 53 af 3d d0 fe ff bc 00 50 fb b7 64 30 7d bd
       0.085608296 -0.031249434 -2.9958785e-05 -0.061813727
000090 15 c7 88 3d d6 57 d6 bc 92 d9 3b bd 30 f1 3c bd
       0.06678597 -0.02616493 -0.045861788 -0.04612845
0000a0 92 38 11 bd 90 79 93 3c 55 b7 47 bd b0 b5 07 bc
       -0.03545434 0.018002301 -0.048758823 -0.008283064
0000b0 56 aa 3a 3d 39 24 3e bd 36 ca 26 bd 08 39 84 bc
       0.0455726 -0.046421263 -0.040720187 -0.016140476
0000c0 66 09 24 3d e0 94 ef bc 30 88 a2 bc 75 38 b2 3d
       0.040048026 -0.029245794 -0.01984033 0.087021746
0000d0 b4 92 87 3c e8 f9 53 3c 8d 0a a7 3d f4 fd c3 3c
       0.016549446 0.012938 0.08156309 0.023924805
0000e0 6c 77 7d bd 3b fa a3 3d 86 01 e8 bc bc 7f b3 bc
       -0.061881468 0.08006712 -0.028321039 -0.021911494
0000f0 52 50 6c bd 62 a0 65 bd e2 5d 51 3d 64 0b a1 3c
       -0.057693787 -0.056061156 0.051114924 0.019658752
000100 bc 8c e5 3c be 70 f8 bc c9 47 5a bd 64 d6 43 bd
       0.028021209 -0.030327197 -0.053291116 -0.04781188
000110 6a 68 32 bd 58 61 d2 bc 78 86 1e bd fa 9c f4 bc
       -0.04355661 -0.025681183 -0.03870246 -0.029860009
000120 72 16 62 3d 37 e5 a7 bd 37 48 2e bd e0 fc 09 bb
       0.055197187 -0.08198016 -0.04254934 -0.0021055266
000130 a3 5b 81 3d cd 68 b4 bd 7f 63 9d bd 60 27 12 3b
       0.063163064 -0.08809052 -0.07684993 0.0022301301
000140 ae e9 48 3d 62 59 23 3d dd dc 95 bd 80 16 c9 3b
       0.04905098 0.039880164 -0.07317517 0.0061367154
000150 2a a5 7e 3d a0 89 59 3b 7b 7f 43 bd e7 ba af 3d
       0.06216923 0.0033193603 -0.047728997 0.08580571
000160 2f c3 09 bd 98 6b 3b 3c aa 76 7c 3d d7 90 1d bd
       -0.033633407 0.011439227 0.061636604 -0.03846821
000170 7a 08 e9 bc e5 ab 80 bd 6b 35 94 3d f6 1c 42 3d
       -0.028446425 -0.06282786 0.07236751 0.0473909
000180 26 d2 1a 3d 3c 13 ed 3c 94 c2 87 3c 89 bb 87 bd
       0.03779807 0.028939836 0.016572274 -0.06627566
000190 c0 28 db 3c 80 ac 71 3a 12 a6 75 3d 48 ef 89 3c
       0.02675283 0.0009219125 0.05997283 0.016837731
0001a0 ea ca 62 3d fa be 08 bd 50 3c 3d 3c 74 fc 4d bd
       0.055369295 -0.033385254 0.011550024 -0.050289586
0001b0 17 83 48 bd 58 cc c2 3c 17 35 2a bd c7 97 95 bd
       -0.048953142 0.02377908 -0.041554537 -0.0730434
0001c0 90 58 a2 3b 7e 02 7a 3d 45 3a af 3d e8 47 22 3c
       0.004954405 0.061037533 0.08556036 0.009904839
0001d0 37 51 aa bd e5 c2 ac 3d f8 da 22 bc 50 8b f5 bb
       -0.08316272 0.08435611 -0.0099399015 -0.007493414
0001e0 ae 8f 35 3d 33 50 a8 3d 98 c8 3c bd b4 50 e1 3c
       0.044326477 0.08218422 -0.04608974 0.027504303
0001f0 ec d3 f6 3c 66 a6 fb bc 58 15 7c 3c 9c 1a c8 3c
       0.03013035 -0.030718993 0.015385948 0.02442675
000200 95 ef b1 bd 0f 96 9f 3d a0 45 5d bb a8 61 c7 3c
       -0.08688275 0.07792293 -0.0033763424 0.024338558
000210 03 4a 9a 3d 81 40 87 bd bf a9 7b bd 16 e6 5a 3d
       0.07533648 -0.066041 -0.06144118 0.053442083
000220 70 72 1b 3c 98 a1 12 3d ac 32 10 3d 56 de 1c 3d
       0.009487733 0.03579864 0.035204574 0.038297974
000230 8a 85 a2 bd 50 5b 8d bd 55 70 8a 3d f3 27 89 3d
       -0.07935627 -0.06902182 0.06759707 0.06697073
000240 f9 69 a5 3d 7f 01 87 bd 92 e5 12 3d f0 db 56 bc
       0.08076853 -0.06592082 0.035863467 -0.013113961
000250 aa 62 4e bd 40 bd 5d bb 60 32 91 bc ae 7f 47 3d
       -0.050387062 -0.0033834726 -0.017724216 0.04870575
000260 5a 17 81 bd 56 85 76 3d 58 14 2c 3c 70 ac ce 3b
       -0.06303282 0.060185753 0.010502897 0.0063071772
000270 49 5a 9b bd 8a 48 26 3d 7b eb 92 3d 36 b5 32 bd
       -0.0758558 0.040596522 0.071738206 -0.043629847
000280 a8 dd 1d bc c1 d6 96 bd 68 42 32 bc 06 ed ad bd
       -0.0096353665 -0.0736518 -0.01088009 -0.08492474
000290 12 3a 31 3d 78 74 34 bc 2a 74 61 bd 60 a4 f4 3c
       0.04326827 -0.011014096 -0.055042423 0.029863536
0002a0 34 89 c0 3c 64 47 8d bd 36 61 6c 3d 9c 6f b0 bd
       0.023502924 -0.06898382 0.057709895 -0.08615038
0002b0 81 6b 93 3d 5e 2c 60 3d f5 8d 96 3d bc e5 6d bd
       0.07198239 0.05472981 0.07351295 -0.05808042
0002c0 47 45 a0 3d 8e 0d 64 3d 30 ef 06 bc 99 38 b2 3d
       0.078257136 0.05567699 -0.008235738 0.087022014
0002d0 7a c8 5f 3d e8 86 e8 3c 60 cd d0 bc d2 95 4a 3d
       0.05463455 0.02838464 -0.025488555 0.049459286
0002e0 da 59 24 3d c2 5f 7e bd e1 32 63 bd 9d f9 a4 bd
       0.04012475 -0.06210304 -0.055468444 -0.080554225
0002f0 45 23 a6 3d 68 8f 10 3d 73 c1 a9 3d 60 07 83 bb
       0.08112196 0.035293013 0.08288851 -0.003998682
000300 b1 d4 a4 bd a9 8b 9c 3d c3 51 26 bd e6 4e 3c 3d
       -0.0804838 0.076438256 -0.040605318 0.04597368
000310 7e cc b4 bd 5a c7 1a 3d c0 b7 54 bb 18 2b 25 bc
       -0.08828066 0.037787773 -0.0032458156 -0.010081075
000320 cc 14 1b bd a1 2e 9d bd 86 91 30 3d c0 e0 5b bb
       -0.03786163 -0.076749094 0.043107532 -0.003355071
000330 80 9b 00 3d d4 0f d0 3c 76 e9 20 3d e8 dd 60 3c
       0.031398296 0.025398172 0.039285146 0.013724782
000340 15 7a b1 3d a7 28 94 3d 7c 97 bd bc 62 d8 1a bd
       0.086658634 0.07234316 -0.023143522 -0.037804015
000350 d4 e6 ea 3c a7 13 81 3d aa 36 20 3d 7b 4d 1c bd
       0.02867452 0.063025765 0.03911463 -0.03815983
000360 42 76 00 3d 60 de 32 bc 91 8e 95 bd 51 0f 6b bd
       0.03136278 -0.010917276 -0.07302583 -0.057387654
000370 18 42 84 bd 00 53 67 bd 62 6e 67 3d bb 47 80 3d
       -0.06457919 -0.05647564 0.056501754 0.062636815
000380 f5 f5 b0 bd 48 67 07 bd e8 96 17 3c ba 3f 8d bd
       -0.086406626 -0.03305748 0.009252287 -0.068969205
000390 00 bf fa 3c 1a 62 52 3d 6e 69 b0 bd ce 88 67 3d
       0.030608654 0.05136309 -0.08613859 0.05652695
0003a0 df 0c 9a 3d b8 bc 6a bd 60 cb e5 bb b2 e1 70 3d
       0.07521986 -0.057308882 -0.0070127696 0.05880899
0003b0 ae 1e 98 bd 7c 87 91 bc 80 17 79 bc c0 e4 e6 3b
       -0.07427727 -0.0177648 -0.015203357 0.007046312
0003c0 f7 af b1 3d 70 74 da 3b 6c 2f a6 bd f8 20 c9 3c
       0.08676141 0.0066667125 -0.08114514 0.024551854
0003d0 2e 86 5e 3d 28 6f ac 3c 2d 1c 8b 3d 1d 4e 13 bd
       0.054327182 0.021049097 0.067924835 -0.035963167
0003e0 f0 8b 38 bd 84 24 c8 bc d0 25 46 3c a4 f4 6f bd
       -0.04505533 -0.024431475 0.012093976 -0.058582917
0003f0 94 33 eb 3c 1a 6f 40 3d e0 9a 34 3c 26 44 22 3d
       0.028711118 0.046980955 0.011023253 0.039615773

fc2.bias f4 [128]
000000 c0 13 f3 3c 12 95 3d bd c2 a8 05 3d c2 6b 30 3d
       0.029672503 -0.046284743 0.032631643 0.043071516
000010 ae 4e 4e 3d c4 bd 1b bd 82 08 e7 bc c0 66 af ba
       0.050368004 -0.03802277 -0.028202299 -0.0013382062
000020 70 ba 6d bd 71 e7 68 bd ac da 77 3d 44 1a 98 3c
       -0.05803913 -0.056861345 0.060511276 0.018567212
000030 56 f4 61 3d 72 58 22 3d 4e 2a b1 bc eb e6 0b bd
       0.055164658 0.03963513 -0.021626618 -0.034155767
000040 1a 22 5b 3d 00 e7 7d bd df 13 55 bd 60 90 32 bc
       0.05349932 -0.061987877 -0.052020904 -0.0108986795
000050 e8 71 e6 3c 88 73 32 3d bc 89 cd 3c 3b c6 46 bd
       0.028130487 0.04356721 0.02509009 -0.04852889
000060 32 09 2a 3d 0e 00 01 3d 80 8f ba ba 2c 30 9b 3c
       0.041512676 0.031494193 -0.001423344 0.018943869
000070 a6 67 81 bc b8 46 c5 3c d0 75 1b 3c 29 54 0a bd
       -0.015796494 0.024081573 0.009488538 -0.033771668
000080 40 a3 9e bc b0 5f ef 3b a8 ec 9f bc 82 cb 2a 3d
       -0.019364953 0.007305108 -0.019522026 0.041697986
000090 08 20 f8 bc 94 ff 52 3d 38 60 a0 bc 1c 89 08 3d
       -0.030288711 0.05151327 -0.01957713 0.033333883
0000a0 bc 4b a2 3c 20 c0 14 3b a2 e9 2c 3d 09 a8 4d bd
       0.019811504 0.0022697523 0.042214997 -0.05020908
0000b0 40 b9 25 bc 12 43 a1 bc 26 d4 60 3d 12 90 23 3d
       -0.010114968 -0.019685302 0.05488982 0.039932318
0000c0 c8 81 e0 3c 44 d2 40 3d 8c 53 84 3c 94 ae 94 3c
       0.027405635 0.047075525 0.01615312 0.018149652
0000d0 78 56 25 bd a2 75 5e 3d d0 5d 8c bc 6c 96 63 3d
       -0.040365666 0.054311402 -0.017134577 0.055563375
0000e0 38 e9 2b bd 24 31 02 bd c6 81 4c 3d 40 5a a5 3a
       -0.04197046 -0.031785145 0.04992845 0.0012615398
0000f0 48 7f 92 3c e0 f1 63 3d dc 03 29 3d 00 4f 3c 3b
       0.017882958 0.05565059 0.041263446 0.002873361
000100 ae 1c 52 3d 0a 80 1b bd 68 00 25 3c 06 11 6c 3d
       0.051296882 -0.037963904 0.010070898 0.057633422
000110 42 ce 34 bd a4 6b bb 3c 80 88 07 bb 3c 31 86 3c
       -0.044142015 0.022878475 -0.0020680726 0.016380899
000120 10 86 f3 3c 16 7c 6d 3d 8e 17 2c 3d 1c b9 b8 3c
       0.029727012 0.057979666 0.04201465 0.022549205
000130 05 ad 27 bd ee f6 50 bd 7c 9c e3 3c 66 67 32 3d
       -0.04093649 -0.05101674 0.027784579 0.04355564
000140 02 54 23 bd 98 63 49 3d 04 fd c2 bc 96 f6 1b bd
       -0.039875038 0.049167246 -0.023802288 -0.03807696
000150 3a f4 1b 3d 58 57 05 bd e8 c5 e2 3c 81 5e 3b bd
       0.03807471 -0.032554 0.02768226 -0.045744423
000160 70 86 f8 3b e8 52 ae bc b0 df 14 bb 58 ce 53 bd
       0.0075843856 -0.021279767 -0.0022716336 -0.051710457
000170 5e a1 6a bd b0 91 8a 3b b0 f4 43 3d ae d4 45 bd
       -0.057282798 0.004228793 0.047840774 -0.04829853
000180 96 1f dc bc a0 70 51 3d 04 c1 f0 3c f4 25 00 bd
       -0.02687053 0.0511328 0.029388912 -0.031286195
000190 aa 71 f5 bc 20 05 aa 3b ac e3 7d 3d fe b2 b1 bc
       -0.029961426 0.005188599 0.061984703 -0.021691795
0001a0 1b da 69 bd ee 40 d4 bc 1a cf 6a 3d f6 65 4b 3d
       -0.057092767 -0.025909867 0.057326414 0.049657784
0001b0 c0 b6 7d 3d 7e ee 38 bd 4c 0c f9 bc 4a d5 0b bd
       0.061941862 -0.04514932 -0.030401371 -0.034138955
0001c0 f8 66 fc bb 52 32 40 bd 4c bc 80 bc 32 32 0f bd
       -0.0077027045 -0.04692299 -0.015714787 -0.03495998
0001d0 2c 22 13 3d ec fd 59 3d 7a 5b 47 3d 81 f8 76 bd
       0.03592126 0.053220674 0.048671223 -0.060295586
0001e0 36 0f 39 bd 83 17 2d bd f0 4e ed 3c a0 34 5b 3b
       -0.045180522 -0.04225875 0.028968304 0.0033448115
0001f0 a0 ab 65 3c 00 b3 a8 3c d8 5b ce bb b6 fe ba bc
       0.014017969 0.020593166 -0.0062975697 -0.022826534

fc3.weight f4 [1, 128]
000000 c0 93 1e 38 0c 7c 27 3a 25 d3 e3 ba 44 9d 17 3b
       3.780774e-05 0.0006389029 -0.0017381652 0.002313451
000010 e4 52 37 ba 84 63 4b 3a 02 46 16 3b 78 8a 94 3a
       -0.00069932477 0.00077586644 0.0022929912 0.0011332771
000020 45 e7 2e bb 27 59 15 bb ef d2 24 bb a4 a1 8b 3a
       -0.002668814 -0.0022788735 -0.002515014 0.0010653031
000030 0a 49 1c bb 18 e0 a7 ba b4 05 02 3a 58 24 bf b9
       -0.0023847246 -0.0012807874 0.0004959956 -0.00036457437
000040 25 c0 43 bb 74 91 65 ba 8e 99 30 bb 82 ab 14 3b
       -0.0029869166 -0.0008757331 -0.0026946994 0.0022685234
000050 08 04 86 3a a3 20 20 bb ba a1 3d 3b c0 bb 0a b8
       0.001022459 -0.0024433516 0.0028935508 -3.307662e-05
000060 38 d2 53 ba 90 69 7a 3a 9d 1d ac ba d2 86 30 bb
       -0.0008080336 0.0009552473 -0.0013131384 -0.0026935828
000070 0e 57 1b 3b b0 36 0f 3b 74 a1 e9 3a d0 4b 04 3a
       0.0023703012 0.0021852665 0.0017824606 0.00050466973
000080 42 34 a9 ba 82 24 3a 3b c0 9d 1c bb 3e 5e 21 3b
       -0.0012909251 0.0028403108 -0.0023897737 0.0024622823
000090 f4 03 54 ba 58 9c 19 bb 0c cb a8 3a 40 75 b0 3a
       -0.0008087747 -0.0023439135 0.0012877895 0.0013462678
0000a0 10 db 6d 39 54 33 0c ba 38 c6 bd 3a cc c1 89 3a
       0.00022683688 -0.00053482247 0.001447863 0.0010510026
0000b0 e7 a0 2b bb 54 60 24 3a 47 38 38 bb 14 de 9f 3a
       -0.0026188435 0.00062704575 -0.0028109716 0.0012196922
0000c0 60 31 2b 39 e0 68 f8 3a 8a 54 27 bb 64 fa da 3a
       0.00016326224 0.0018952154 -0.0025532567 0.0016706702
0000d0 88 49 28 ba 00 dd 90 b9 a4 8f 0a 3a 7a c3 33 bb
       -0.00064196484 -0.00027630478 0.00052856863 -0.0027429746
0000e0 68 0b ac 39 79 29 90 ba f2 e0 88 ba 40 c7 d4 39
       0.00032814895 -0.0010998688 -0.0010443015 0.00040584244
0000f0 c9 fe e1 ba 2c b7 eb 3a 20 6d aa b9 34 a2 37 3b
       -0.001724207 0.0017983667 -0.0003250623 0.0028020265
000100 d4 ea 8b 3a 68 66 7f 3a da 05 d9 ba 50 98 07 3b
       0.0010674843 0.0009742738 -0.001655753 0.002069015
000110 fd 80 cc ba 44 d3 63 3a 4e 6c ad ba a0 75 0d 3b
       -0.0015602406 0.0008690844 -0.001323113 0.0021585003
000120 f8 7b f4 3a 1c d4 a7 3a a6 40 0e bb e8 5d 38 3b
       0.0018652668 0.0012804302 -0.0021706014 0.0028132144
000130 08 cf 17 3b 58 2a 8c 3a 93 fa db ba b0 5d ae 3a
       0.0023164172 0.0010693772 -0.0016783051 0.0013303068
000140 fa eb 0d 3b 15 2c d7 ba b4 bd 2e 3b 83 64 2e bb
       0.0021655546 -0.0016416336 0.0026663365 -0.0026610203
000150 52 93 0c bb fe 10 21 3b f0 83 14 ba 7e 9c 0e 3b
       -0.0021450114 0.0024576779 -0.0005665412 0.0021760757
000160 9a 59 42 3b 84 12 84 3a b8 51 fb 39 28 3b f8 b9
       0.0029655457 0.0010076319 0.00047935336 -0.0004734632
000170 70 bf 33 3b cd 06 8e ba a8 cb 1a 3b 78 9e d3 3a
       0.0027427338 -0.0010835767 0.0023619924 0.001614525
000180 15 bc 3d bb 98 da 85 3a 6a ed fe ba ed 80 3c bb
       -0.0028951217 0.0010212241 -0.0019449417 -0.002876337
000190 4a a4 1c 3b ce b7 3e bb 04 a7 79 ba 5c a1 90 3a
       0.0023901635 -0.0029101255 -0.00095234835 0.0011034417
0001a0 f4 76 36 ba b0 da 85 ba 28 30 ef 3a 65 d2 a2 ba
       -0.00069604744 -0.0010212269 0.0018248605 -0.0012422322
0001b0 a4 db 36 ba b8 c2 e0 3a 9e 3e 3c 3b c0 75 bc 3a
       -0.0006975478 0.0017147874 0.0028723846 0.0014378354
0001c0 d8 1e 6e ba c4 ce 40 ba 70 8d 2e 3a 00 29 36 b7
       -0.00090835756 -0.0007355029 0.0006658649 -1.0857591e-05
0001d0 05 dd 29 bb 28 7c fe b9 38 88 8d b9 4a 58 95 ba
       -0.0025919091 -0.0004853916 -0.00026995107 -0.001139411
0001e0 20 04 1f 3b 0c 7f 27 3a 34 bc b2 ba a4 d3 2d bb
       0.0024263933 0.0006389476 -0.0013636411 -0.0026523853
0001f0 f0 04 9f 3a b2 68 91 ba 47 37 d4 ba 80 7d 1c 39
       0.0012132209 -0.0011093824 -0.001619079 0.00014924072
